checkpoint_actor_1_1.pth (torch_old, 159204 bytes, 6 tensors)

fc1.weight f4 [256, 24]
0	0x3e510757	0.20412956
1	0x3e0f066f	0.13967298
2	0x3dcc6d64	0.09981802
3	0x3d4be6de	0.04978072
4	0x3e025103	0.12726216
5	0xbedb4fee	-0.4283442
6	0x3dd5bc27	0.10436278
7	0x3e01d55d	0.12679048
8	0x3da2f787	0.07957368
9	0x3e3a8104	0.18213278
10	0xbd0f5161	-0.03498972
11	0xbe2aee3d	-0.16692443
12	0x3e6dece9	0.23234905
13	0xbe96194b	-0.29316172
14	0x3cddbacb	0.027066609
15	0xbde8e9dd	-0.11372731
16	0x3bc056b2	0.00586971
17	0x3e0dad45	0.13835628
18	0xbd31677b	-0.043311577
19	0xbd4851d4	-0.048906162
20	0x3e54c94a	0.2077991
21	0xbd6e3dd3	-0.05816443
22	0x3cb4fc56	0.02209298
23	0xbdc0ab3e	-0.09407662
24	0x3e23923e	0.15973756
25	0x3e0fabdf	0.14030407
26	0xbd0a928a	-0.033831157
27	0xbdf6d6eb	-0.12052711
28	0x3d016357	0.03158888
29	0xbebed8f3	-0.37274894
30	0xbccf5e4d	-0.02531352
31	0xbe5a6752	-0.21328476
32	0x3df6f1a3	0.12057807
33	0x3cbc6b14	0.023000278
34	0x3d202b22	0.039103635
35	0xbe69d39d	-0.2283463
36	0x3e029e1c	0.12755626
37	0xbedc00a2	-0.42969233
38	0xbc083f9c	-0.008315947
39	0xbe5f8646	-0.21828565
40	0x3dc2629f	0.09491467
41	0xbddd4633	-0.10804405
42	0xbe22f91c	-0.1591534
43	0xbe646758	-0.22305048
44	0x3ea22a93	0.31673107
45	0xbec9e88f	-0.3943524
46	0xbde95942	-0.11393978
47	0xbe85d19a	-0.26136476
48	0x3d22bc96	0.03973063
49	0x3e981d3a	0.29709798
50	0xbc52cb09	-0.01286579
51	0x3e2ec0d4	0.17065746
52	0x3e8ff423	0.2811595
53	0x3d15b0d0	0.036545575
54	0xbdc3d968	-0.09562951
55	0x3def00a8	0.11670047
56	0x3db5c076	0.088746
57	0x3e9bea8a	0.30452377
58	0xbbbc0e0f	-0.0057389806
59	0x3c155f5e	0.009116976
60	0x3e583d7b	0.21117203
61	0x3e4467de	0.19180247
62	0x3c5c493f	0.013445198
63	0x3ced2c86	0.028951894
64	0x3e092615	0.13393433
65	0x3eb05f81	0.34447864
66	0xbdb17c89	-0.08666331
67	0xbc3bcbbf	-0.011462151
68	0x3e15b244	0.14618784
69	0x3d1fa278	0.0389733
70	0xbd24fde1	-0.04028118
71	0x3d82615c	0.06366226
72	0x3dcf4846	0.10121207
73	0x3d4c3da9	0.04986349
74	0xbc9487fe	-0.018131252
75	0xbe868d8d	-0.2627987
76	0xbdb35c24	-0.08757809
77	0x3da92836	0.08259623
78	0x3bba6995	0.005688856
79	0xbe8a1e03	-0.26976022
80	0x3d785ac3	0.060633432
81	0x3ccbb226	0.024865221
82	0x3d214332	0.039370723
83	0xbd8c317a	-0.068453744
84	0x3e47ef4e	0.19524881
85	0xba7871c5	-0.0009477402
86	0x3d9f5f6c	0.07781872
87	0x3b5e66fa	0.003393589
88	0x3db72604	0.08942798
89	0x3e068961	0.13138343
90	0xbdbb1f3a	-0.09136815
91	0x3c834fdb	0.016029289
92	0x3eb0b5c0	0.34513664
93	0xbd67d5ee	-0.056600504
94	0x3ba79070	0.005113654
95	0x3d3ab9ff	0.045587536
96	0xbdae5cbb	-0.08513781
97	0x3edaeb8b	0.4275783
98	0x3d6b80fc	0.057496056
99	0xbd88d956	-0.066820785
100	0x3ee4aed7	0.44664642
101	0xbe257807	-0.16159068
102	0xbd459fcb	-0.048248094
103	0xbe0e65d2	-0.13906029
104	0xbd8af54c	-0.06785068
105	0x3ebba606	0.36650103
106	0x3c149055	0.009067615
107	0xbdc48190	-0.095950246
108	0x3ea4be0a	0.32176238
109	0x3e52ef02	0.20598987
110	0x3cfe617d	0.031052345
111	0xbcea9692	-0.02863625
112	0x3cfcd574	0.030863501
113	0x3ec78add	0.38973132
114	0xbc9ce029	-0.019149857
115	0x3d5f165d	0.054464687
116	0x3d765ea7	0.06014886
117	0x3f0ded6d	0.5544041
118	0x3c9fae08	0.019492164
119	0x3dfb536d	0.122717716
120	0x3ecfd04e	0.4058861
121	0x3e0817ed	0.13290377
122	0x3c4f795a	0.01266321
123	0xbcad949a	-0.021189023
124	0xbe39295e	-0.18082187
125	0xbe8ba9c6	-0.27277964
126	0x3dba1d56	0.09087627
127	0xbb420642	-0.002960578
128	0x3ea83c34	0.3285843
129	0x3e2504fb	0.16115181
130	0x3d9a856c	0.075449795
131	0xbdf9175c	-0.121626586
132	0xbe06f748	-0.13180268
133	0xbe299805	-0.16561897
134	0x3e1279f1	0.1430433
135	0xbdc3e39f	-0.095649
136	0x3e9e7ccd	0.3095459
137	0x3e1f6d5f	0.15569066
138	0x3c4d0383	0.012513044
139	0x3d6d8f6a	0.0579981
140	0xbd612f41	-0.054976705
141	0x3e3d660f	0.18495964
142	0x3caa0558	0.020754501
143	0x3d0242a2	0.031801827
144	0x3bfcca8c	0.007714575
145	0x3d9de9c7	0.07710605
146	0x3bf76471	0.0075498153
147	0x3b8624fa	0.0040937634
148	0xbe8a6bce	-0.27035373
149	0xbf275cb2	-0.65375817
150	0x3d0f5759	0.03499541
151	0x3dbfc257	0.09363239
152	0x3da04287	0.07825189
153	0x3d6a5217	0.057207193
154	0x3c82a435	0.01594744
155	0xbe1493ae	-0.1450946
156	0xbe4991ac	-0.19684476
157	0xbea9c1d3	-0.3315569
158	0xbbad8f75	-0.0052966424
159	0xbe0c24a5	-0.13685854
160	0x3d8c0b17	0.06838053
161	0x3d270b5d	0.04078232
162	0x3bdbc06f	0.0067062895
163	0xbe90af87	-0.28258917
164	0x3cbe8dcd	0.023260975
165	0x3ce0029b	0.027344992
166	0x3b987813	0.004652986
167	0xbe80ef04	-0.25182354
168	0x3d3eef6a	0.04661504
169	0x3e84f691	0.25969365
170	0xbc6ec370	-0.014572963
171	0xbe386db6	-0.18010601
172	0x3e7f9ec5	0.2496291
173	0xbe109667	-0.14119874
174	0x3c5a87fc	0.013338085
175	0xbe675719	-0.22591819
176	0xbcffd1ce	-0.031227972
177	0x3e87b17e	0.26502603
178	0xbde96f60	-0.11398196
179	0xbda8028f	-0.08203613
180	0xbdb267bf	-0.08711194
181	0x3db43a89	0.08800227
182	0xbdcdf786	-0.10056977
183	0xbd98a29f	-0.074528925
184	0xbd69213c	-0.05691646
185	0x3e03eaac	0.12882489
186	0xbdabca16	-0.08388154
187	0xbcb662cf	-0.022263912
188	0xbe8f9c31	-0.28048852
189	0x3e9c64f0	0.3054576
190	0xbbf05a35	-0.0073349723
191	0xbd2b03ba	-0.0417516
192	0xbd4a4b24	-0.049388066
193	0x3ecaafb9	0.3958719
194	0x3d9a6c96	0.075402424
195	0x3d06c249	0.03290013
196	0x3e7d5def	0.24742864
197	0x3d1456f8	0.036215752
198	0x3d9f7331	0.07785643
199	0x3bf6f413	0.00753642
200	0xbb1e5de7	-0.0024164857
201	0x3ec4baa2	0.3842364
202	0xbcb40ecc	-0.021979712
203	0x3da5d874	0.08097926
204	0x3e19d307	0.15021907
205	0x3e87163c	0.2638415
206	0xbae792f1	-0.0017667693
207	0x3dd883a4	0.105719835
208	0x3dc4469e	0.09583782
209	0x3ee819c3	0.45332155
210	0x3c98efff	0.018669127
211	0xbd79063d	-0.060796965
212	0xbbf26937	-0.0073977965
213	0x3ea6b65c	0.32561004
214	0xbd71b766	-0.059012793
215	0xbe021d6d	-0.12706538
216	0xbd42e434	-0.047580913
217	0x3eac4fd0	0.33654642
218	0x3c4a1928	0.012335099
219	0x3e0d8381	0.13819696
220	0xbd1d6ca9	-0.038433705
221	0x3ed13185	0.40858093
222	0x3b88529d	0.004160239
223	0x3e1f862a	0.15578523
224	0xbe014734	-0.12624818
225	0x3ea45dd8	0.32102847
226	0xbc7441e6	-0.01490829
227	0x3e044866	0.12918243
228	0x3d95ac6a	0.07308276
229	0x3eb30fb0	0.34972906
230	0xbd767cab	-0.060177486
231	0x3d713179	0.05888507
232	0xb94817fa	-0.00019082418
233	0x3eb5d742	0.3551579
234	0xbd9a5888	-0.07536417
235	0x3db95eda	0.090512946
236	0x3e3b2bca	0.18278423
237	0x3e0bb93b	0.13644879
238	0x3cb0db1d	0.021588856
239	0x3d83df0d	0.06439028
240	0xbbb7790a	-0.005599146
241	0x3d493d8b	0.049130958
242	0xbb85e0ff	-0.0040856595
243	0x3e340b86	0.17582521
244	0xbea22cac	-0.31674707
245	0x3c698fdd	0.014255491
246	0xbd3e5099	-0.046463583
247	0x3e6d2790	0.23159623
248	0x3d236439	0.0398905
249	0x3d8ec992	0.0697204
250	0x3c665b20	0.014059812
251	0x3e470821	0.19436695
252	0xbd1dd83f	-0.038536306
253	0x3c7e8381	0.015534283
254	0xbcdfabf7	-0.027303679
255	0x3e5d07e0	0.21585035

fc1.bias f4 [256]
0	0xbe3e9fdf	-0.18615673
1	0x3cf952cb	0.030434987
2	0x3e118ab2	0.14213064
3	0x3e6f3e11	0.2336352
4	0xbdcaa90b	-0.09895524
5	0xbc365726	-0.011129176
6	0xbe3419c9	-0.17587961
7	0xbdaf8aad	-0.08571372
8	0xbdee8253	-0.11645951
9	0xbe45c58e	-0.19313642
10	0xbcbb0530	-0.022829622
11	0x3e7c2bf4	0.24626142
12	0xbda09742	-0.0784135
13	0xbd03e92e	-0.0322048
14	0xbcdd37dc	-0.027004175
15	0xbcdd550b	-0.02701809
16	0x3e3009c4	0.17191225
17	0x3da2fef2	0.07958783
18	0xbe75171c	-0.23934597
19	0x3d9525e6	0.07282619
20	0x3e9f051c	0.31058586
21	0xbee00d39	-0.43760088
22	0x3e733ba0	0.23753214
23	0xbe842c12	-0.25814873
24	0x3ae0b082	0.0017142447
25	0xbeade7a5	-0.33965793
26	0x3b783358	0.00378724
27	0x3e66fbfc	0.22557062
28	0x3e25d27e	0.16193578
29	0xbbf5f440	-0.0075059235
30	0xbe4ee942	-0.20206168
31	0xbe8f642d	-0.28006116
32	0xbc831416	-0.016000789
33	0x3d94b6c2	0.07261421
34	0x3d6c88b1	0.057747547
35	0x3de24426	0.110481545
36	0xbe22ccf8	-0.15898502
37	0x3e46f68f	0.19429992
38	0xbdb070bc	-0.086152524
39	0x3c93fc03	0.018064504
40	0x3e4e730a	0.20161071
41	0xbdbda9ab	-0.09260877
42	0x3d728f93	0.059218954
43	0xbe57de52	-0.21080902
44	0x3d02ded0	0.03195077
45	0x3c994a36	0.018712144
46	0xbeb9d9f8	-0.3629911
47	0xbeaadf21	-0.3337336
48	0x3ea9069d	0.33012858
49	0x3ec9fc36	0.39450234
50	0xbd35b1a0	-0.04435885
51	0xbe043497	-0.12910686
52	0xbe230882	-0.15921214
53	0xbe5a0278	-0.21290004
54	0x3cf39673	0.029734826
55	0xbdc74b00	-0.09731102
56	0xbde18198	-0.11011046
57	0xbd4f8d2c	-0.05067174
58	0xbe668dda	-0.2251505
59	0x3ec7a91e	0.38996214
60	0x3e8df422	0.2772532
61	0x3d718678	0.05896613
62	0xbe7e2e07	-0.24822246
63	0xbe8b15f1	-0.27165177
64	0xbe9c5965	-0.30536953
65	0xbe984817	-0.297425
66	0xbdd0ff3e	-0.102049336
67	0xbde5ef66	-0.11227302
68	0xbe8d27dc	-0.27569473
69	0xbeab037b	-0.33401093
70	0x3e405f12	0.18786266
71	0xbea14886	-0.31500643
72	0xbbae4457	-0.0053182053
73	0xbd7533aa	-0.059863724
74	0xbe9ba8c5	-0.30402198
75	0x3de1ac10	0.110191464
76	0xbdf36c51	-0.11885894
77	0xbd22ef80	-0.039779186
78	0xbd37f714	-0.044913366
79	0x3c043b60	0.008070797
80	0xbe6970ac	-0.22796887
81	0x3d0c3add	0.034235824
82	0xbef2c1c3	-0.47413453
83	0xbd5d09ee	-0.053964548
84	0x3ec0ec2a	0.3768018
85	0x3c8b9117	0.017036958
86	0xbe325c53	-0.17418031
87	0x3dbd2123	0.09234836
88	0x3d445553	0.047932934
89	0x3e1587f9	0.1460265
90	0x3db6b186	0.08920579
91	0x3e33b0ee	0.17547962
92	0x3d97abd5	0.07405821
93	0x3e1de3ca	0.15418926
94	0xbad6138e	-0.0016332732
95	0xbdb18127	-0.08667212
96	0xbe207fb7	-0.1567372
97	0xbeb205e7	-0.34770128
98	0x3e58e430	0.21180797
99	0xbd42c0e5	-0.04754724
100	0x3db4dc05	0.08831028
101	0x3d3d0f9b	0.04615746
102	0x3e3808da	0.17972127
103	0xbd5c3232	-0.053758807
104	0xbe97335c	-0.29531372
105	0x3daea0b2	0.08526744
106	0x3ede11d6	0.43372983
107	0xbe39c88f	-0.18142913
108	0x3e8f7d38	0.28025222
109	0xbdadfcc7	-0.08495479
110	0xbcaf9605	-0.02143384
111	0x3d0f1cc3	0.03493954
112	0xbe0beed5	-0.13665326
113	0x3cc0dd12	0.023542915
114	0x3dfa1b87	0.12212282
115	0x3e49a1c8	0.19690621
116	0x3d0ce0bc	0.03439401
117	0xbe1d42df	-0.1535754
118	0x3df38764	0.11891058
119	0xbd934f1a	-0.07192822
120	0xbe62c3d3	-0.22145014
121	0xbe8c3957	-0.27387497
122	0x3d361c35	0.044460494
123	0x3d72a850	0.059242547
124	0x3cc57732	0.024104688
125	0xbe9a75e9	-0.30168083
126	0x3e5adf08	0.21374142
127	0xbdc50287	-0.09619623
128	0x3e509085	0.2036763
129	0x3ccd5cfb	0.02506875
130	0xbd9c53f1	-0.07633198
131	0x3ea20214	0.3164221
132	0xbd8ae686	-0.0678225
133	0x3cb33ec8	0.021880522
134	0x3ee1dd68	0.44114232
135	0xbcacf974	-0.021115042
136	0xbe774541	-0.24147512
137	0xbdbf0ceb	-0.09328636
138	0x3cf8afc5	0.030357251
139	0x3e9d7da6	0.30759925
140	0x3e4a1e57	0.19738136
141	0x3dbfc0ab	0.093629204
142	0x3e2ad2c2	0.1668196
143	0x3e9c3b78	0.3051412
144	0x3e67d71b	0.2264065
145	0xbe50aab9	-0.20377626
146	0x3ca2bf16	0.019866508
147	0x3cc7b9cf	0.024380593
148	0x3e27f3b4	0.16401559
149	0x3eab441d	0.33450404
150	0x3e02510d	0.12726231
151	0x3e64d85a	0.22348157
152	0x3de119dc	0.109912604
153	0xbe87335e	-0.26406378
154	0x3de155dc	0.110027045
155	0xbd230d23	-0.03980745
156	0x3d909703	0.07060053
157	0x3e0b5066	0.13604888
158	0xbd706b97	-0.058696356
159	0x3e033905	0.1281472
160	0xbe16c7b2	-0.14724615
161	0xbdafe656	-0.08588855
162	0x3dd13dc3	0.10216858
163	0x3cdd28ca	0.026996989
164	0xbef71a30	-0.48262167
165	0x3ef28191	0.47364476
166	0x3e73da6b	0.23813789
167	0x3e10dfe6	0.1414791
168	0xbb8259d0	-0.0039779916
169	0xbc61a402	-0.013772013
170	0xbd35e423	-0.04440702
171	0xbe93a677	-0.2883794
172	0xbe94822c	-0.29005563
173	0xbe7476b9	-0.23873414
174	0xbe226caa	-0.15861765
175	0xbe84e29e	-0.25954145
176	0x3df35c95	0.11882893
177	0xbdd037c8	-0.101668894
178	0xbe6fd1e7	-0.23419915
179	0x3df29699	0.118451305
180	0xbe00ce17	-0.12578617
181	0x3e6245bf	0.22096919
182	0xbd952133	-0.07281723
183	0x3ebb9a8d	0.3664135
184	0x3eae0ee2	0.3399573
185	0xbdbdd057	-0.09268253
186	0xbcb83f74	-0.022491194
187	0xbe26f82c	-0.16305608
188	0xbe97d9c8	-0.2965834
189	0x3da3b3d0	0.07993281
190	0x3b65fbbb	0.003509267
191	0x3d8ac059	0.06774969
192	0x3e08e157	0.1336721
193	0xbe87c3f2	-0.26516682
194	0x3ede772f	0.43450305
195	0xbe7d3532	-0.24727324
196	0x3e0d096d	0.13773127
197	0x3d4a4cc6	0.049389623
198	0x3ef4e72e	0.47832626
199	0x3edb2557	0.42801926
200	0x3e434686	0.19069871
201	0x3d89232b	0.06696161
202	0x3e7f4647	0.24929152
203	0x3e044cc6	0.12919912
204	0x3eab3d57	0.33445236
205	0x3d037b99	0.032100294
206	0xbbb148b3	-0.0054102778
207	0x3eb7a628	0.35868955
208	0x3e02f6b9	0.1278943
209	0xbe613f3d	-0.2199678
210	0x3d99d7df	0.07511877
211	0xbdfbe792	-0.12300028
212	0x3da3c176	0.07995884
213	0x3e093eb9	0.13402833
214	0xbc859850	-0.01630798
215	0xbcce7f3f	-0.02520716
216	0x3da95180	0.08267498
217	0xbd146126	-0.03622546
218	0xbd36f554	-0.044667557
219	0xbd7ae9e2	-0.061258204
220	0x3d5bd2d9	0.053667877
221	0x3e236e69	0.15960087
222	0x3e9dc6da	0.30815774
223	0x3de261c5	0.11053804
224	0x3d93c123	0.07214572
225	0xbeb91d4d	-0.36155167
226	0xbe700f47	-0.23443328
227	0xbdc96ec2	-0.098355785
228	0xbeb10e0d	-0.34581032
229	0xbd8d3029	-0.068939514
230	0x3e9c81c9	0.30567768
231	0x3ebb8691	0.36626104
232	0xbe59bd7b	-0.21263687
233	0xbe6ed579	-0.23323621
234	0x3e725696	0.23665842
235	0xbe28731f	-0.16450165
236	0xbe8c2d4f	-0.27378318
237	0x3da03f28	0.07824546
238	0x3e007e66	0.12548217
239	0x3e975369	0.29555824
240	0x3cd0581c	0.025432639
241	0xbed84893	-0.4224287
242	0xbd4c7792	-0.04991872
243	0x3d81c245	0.06335882
244	0xbe02ab23	-0.12760596
245	0x3e3267f0	0.17422462
246	0x3d89bed3	0.0672585
247	0xbe43e474	-0.19130117
248	0xbd9b286a	-0.07576068
249	0xbec5ca8e	-0.386311
250	0xbe91e1b0	-0.28492498
251	0xbdcd8453	-0.100350045
252	0x3ec027e9	0.3753045
253	0x3e94cc0f	0.29061934
254	0xbd8f87f8	-0.07008356
255	0x3e9eaef3	0.3099285

fc2.weight f4 [128, 256]
0	0xbbfdf124	-0.0077496935
1	0xbd17f99c	-0.03710328
2	0x3e7483ad	0.23878355
3	0xbd9f6fb4	-0.077849776
4	0x3e20b2a3	0.15693145
5	0x3d0a0a9d	0.033701528
6	0xbd96d51d	-0.07364867
7	0x3d1479c8	0.036248952
8	0x3de9dd92	0.11419214
9	0x3dbdaada	0.09261103
10	0xbdd60f16	-0.10452096
11	0xbdf8acbb	-0.12142321
12	0x3baa17ba	0.0051908167
13	0xbe83a6cd	-0.25713196
14	0x3eede142	0.4646092
15	0x3e259e8b	0.1617376
16	0x3e01d3da	0.12678471
17	0x3d6b0d88	0.05738595
18	0x3db91a87	0.09038263
19	0x3c54c823	0.012987169
20	0x3d578882	0.05262042
21	0xbe04d46c	-0.12971658
22	0xbcb152c7	-0.021645917
23	0x3e720a50	0.23636746
24	0xbd676e30	-0.056501567
25	0xbe2ccbdd	-0.16874643
26	0xbd6abb4c	-0.057307526
27	0xbdcf2cfe	-0.101160035
28	0x3db3c110	0.08777058
29	0xbccfa38d	-0.025346542
30	0x3df8c9f1	0.12147892
31	0x3dd510ac	0.104035705
32	0x3e2a0ec2	0.16607192
33	0xbd35d4b4	-0.044392303
34	0x3d8c7d44	0.0685983
35	0x3d2f8cf9	0.04285905
36	0x3e4f31da	0.2023386
37	0xbe9312a5	-0.28725162
38	0x3e1b892e	0.15189049
39	0x3e5f98e8	0.21835673
40	0xbe1418e4	-0.1446262
41	0xbd4411fa	-0.047868706
42	0x3e0ee9a7	0.13956319
43	0xbd142aa7	-0.03617349
44	0x3c9dc748	0.019260064
45	0x3db90264	0.09033659
46	0x3e14e32d	0.14539786
47	0xbd496db4	-0.049176887
48	0x3cc09b40	0.023511529
49	0xbe2c7361	-0.16840889
50	0xbe14256d	-0.14467402
51	0x3ccc6260	0.024949253
52	0x3d82f1d0	0.06393778
53	0xbdbd91ae	-0.09256302
54	0xbd9f98b6	-0.07792799
55	0xbd54f259	-0.051988933
56	0xbd8890d3	-0.06668248
57	0xbe32ae87	-0.1744939
58	0xbc849b3b	-0.0161873
59	0xbdfefb8e	-0.12450324
60	0xbde7846b	-0.113045536
61	0x3e327c67	0.17430268
62	0x3e3596e7	0.17733346
63	0xbcb37d99	-0.021910476
64	0x3cfa4e36	0.030554872
65	0x3c194558	0.009354912
66	0xbd811cdd	-0.06304333
67	0x3df99f53	0.12188592
68	0x3cf6d0c3	0.030128842
69	0x3bee896d	0.007279566
70	0x3d12da58	0.03585276
71	0xbe0f9566	-0.14021835
72	0xbe274cc8	-0.16337883
73	0x3db7e813	0.089798115
74	0x3d8f0f5d	0.06985352
75	0xbcd199e1	-0.02558607
76	0xbcbf4afa	-0.023351181
77	0x3e0d7fcf	0.13818286
78	0x3c6199e7	0.013769603
79	0xbe949cb7	-0.29025814
80	0x3deb3d54	0.11486307
81	0xbeaf6c2d	-0.3426222
82	0x3d834328	0.064092934
83	0x3e47e2e8	0.19520152
84	0x3ddac0d5	0.10681311
85	0xbd34f783	-0.044181358
86	0xbeb5c4e8	-0.3550179
87	0xbcaeee3f	-0.021353839
88	0xbd497e03	-0.04919244
89	0x3cdf1abd	0.02723443
90	0x3cba1117	0.022713227
91	0x3d6cd3d2	0.057819195
92	0xbebd3565	-0.369548
93	0x3e5e3397	0.21699367
94	0xbdfe91b9	-0.12430138
95	0xbe7781ea	-0.24170652
96	0x3e5ea9fd	0.21744533
97	0xbe07ffa7	-0.13281117
98	0x3e168fa6	0.14703235
99	0x3cd37b70	0.025815696
100	0xbe25ed93	-0.16203909
101	0x3e62b94a	0.22140995
102	0x3d45b40d	0.048267413
103	0xbe1178f6	-0.14206299
104	0x3dad0bc5	0.084495105
105	0x3e484d23	0.19560675
106	0xbe5bda76	-0.21470055
107	0x3eafcf85	0.34338012
108	0xbe19cad0	-0.15018773
109	0x3daa1110	0.08304036
110	0x3e002611	0.12514521
111	0xbe186164	-0.14880902
112	0xbd068d08	-0.03284934
113	0x3d4c2ae7	0.049845602
114	0xbe2d8336	-0.16944584
115	0xbe80e2b5	-0.25172964
116	0x3dfd9b15	0.12383095
117	0x3e6a3480	0.2287159
118	0xbdffde09	-0.12493522
119	0xbdc5d24b	-0.09659251
120	0x3e1ff0af	0.15619157
121	0x3e672afc	0.22574991
122	0xbd762eee	-0.06010335
123	0xbce9770f	-0.028499154
124	0x3d631f8a	0.05545
125	0x3ea222b5	0.31667104
126	0x3d9536dd	0.07285855
127	0x3e081492	0.13289097
128	0x3d0ab010	0.033859313
129	0x3e8da9c7	0.27668592
130	0xbec7f7bc	-0.39056194
131	0x3dae4a8c	0.085103124
132	0xbdb9b83b	-0.09068342
133	0xbe111517	-0.14168201
134	0xbdb6cb27	-0.08925467
135	0xbcb1293b	-0.021626106
136	0x3e1b859f	0.15187691
137	0xbe2fc08b	-0.17163293
138	0xbe755715	-0.23959
139	0xbe09687f	-0.13418768
140	0xbd0db806	-0.034599327
141	0xbd6ea246	-0.058260225
142	0xbdce13ca	-0.10062368
143	0xbe7f26e7	-0.24917184
144	0xbdc4db08	-0.096120894
145	0xbe96fed5	-0.29491296
146	0xbc882923	-0.016621178
147	0xbc5dc700	-0.013536215
148	0xbe4dc4a7	-0.20094548
149	0x3ded3f78	0.11584371
150	0xbe3a2f4d	-0.18182106
151	0xbc4d0b23	-0.012514862
152	0x3d4a618f	0.049409445
153	0xbe0b524f	-0.13605617
154	0x3d834a89	0.06410701
155	0x3e457de5	0.19286306
156	0xbca2fd4b	-0.01989617
157	0xbd249a77	-0.04018637
158	0xbe36c601	-0.1784897
159	0xbd884b63	-0.06655004
160	0xbd59c05c	-0.053161964
161	0x3d82afe6	0.06381206
162	0xbd1b8fc5	-0.037978906
163	0x3c8aba2a	0.016934473
164	0x3e5f74f1	0.21821953
165	0xbe90ed91	-0.2830625
166	0xbe34af68	-0.17645037
167	0x3e0b9d94	0.1363433
168	0x3d54c2d8	0.05194363
169	0x3da3538f	0.07974922
170	0x3c71e551	0.014764146
171	0x3cc63c32	0.024198625
172	0x3b5c7f74	0.0033645304
173	0xbe10a77c	-0.1412639
174	0xbcda8dc3	-0.026678925
175	0x3cbfcb2a	0.023412306
176	0xbe1c9104	-0.15289694
177	0x3d56a1b2	0.0524003
178	0x3e71baf5	0.23606475
179	0x3e035ce2	0.128284
180	0x3d02cac4	0.031931654
181	0xbe3fd90b	-0.18735139
182	0x3c704c36	0.014666608
183	0x3d04ea1e	0.032449834
184	0xbe7c5505	-0.24641807
185	0x3e1c518c	0.15265483
186	0xbe8ee2a0	-0.27907276
187	0xbddb250e	-0.10700427
188	0xbc4bcaec	-0.012438517
189	0x3e1ab111	0.15106608
190	0x3d659d14	0.056058004
191	0xbd8e8666	-0.06959228
192	0xbe161a46	-0.1465846
193	0x3d95761c	0.07297918
194	0xbe109cf5	-0.14122374
195	0x3da6a53d	0.081369855
196	0xbccf3d20	-0.025297701
197	0x3e150015	0.14550813
198	0xbe51ef8c	-0.20501536
199	0xbc2c4c6c	-0.010516267
200	0x3e2aaad6	0.16666731
201	0x3d8c4d81	0.0685072
202	0xbe0d9006	-0.13824472
203	0xbc0f9a91	-0.008764879
204	0x3e5855f2	0.21126536
205	0x3e833b4d	0.2563118
206	0xbeaa7a38	-0.3329637
207	0x3d7302b5	0.059328754
208	0xbd88684c	-0.06660518
209	0x3e8a0ab3	0.26961288
210	0x3c4608f2	0.012087094
211	0xbde965e9	-0.11396391
212	0x3e49a8f0	0.19693351
213	0xbd89950f	-0.06717884
214	0xbe2918c4	-0.16513354
215	0xbd82ad4a	-0.063807085
216	0xbe29c390	-0.16578507
217	0xbdb04888	-0.08607584
218	0x3cd2ad9d	0.02571755
219	0xbd3b5754	-0.04573758
220	0x3d74d801	0.05977631
221	0x3e69a90b	0.22818391
222	0x3da68b5f	0.08132052
223	0x3dbf6c0f	0.093467824
224	0xbca3e597	-0.020006938
225	0x3d825032	0.06362952
226	0xbdb09da3	-0.08623817
227	0x3db4e0bd	0.08831928
228	0x3ca09f5d	0.01960724
229	0xbe02939f	-0.12751625
230	0xbb473575	-0.0030396853
231	0x3e11f9a4	0.14255387
232	0xbd8ae223	-0.067814134
233	0x3eb6049b	0.3555039
234	0xbe0451c5	-0.12921818
235	0x3e3d87fc	0.18508905
236	0x3d8fa189	0.07013232
237	0xbe0cabd5	-0.13737424
238	0xbd287179	-0.04112384
239	0x3cd5fd84	0.026121862
240	0xbdb1dfbb	-0.08685251
241	0xbd81ff27	-0.063474946
242	0x3d2d949e	0.04237806
243	0xbeb94d05	-0.36191574
244	0xbca8364c	-0.020533703
245	0x3da84747	0.0821672
246	0x3db13841	0.08653308
247	0xbdbeb3e8	-0.09311658
248	0x3e1152d6	0.14191756
249	0x3d92b2f8	0.07163042
250	0x3d836b82	0.0641699
251	0xbe0bf03e	-0.13665864
252	0xbe8049e3	-0.2505637
253	0x3d03a684	0.032141224
254	0x3e5b3487	0.21406756
255	0xbe1a43d9	-0.15064944

fc2.bias f4 [128]
0	0x3b5f9890	0.0034118034
1	0x3de0c3cd	0.10974846
2	0x3dc5d505	0.09659771
3	0x3c4fe9dc	0.012690034
4	0x3e0d6760	0.13808966
5	0xbdb531b9	-0.088473745
6	0xbe398760	-0.18118048
7	0x3cef05fa	0.029177655
8	0x3db665b7	0.08906119
9	0x3c79ec53	0.015254098
10	0x3dc8b284	0.09799674
11	0x3d16e293	0.03683717
12	0x3dfbb5e5	0.12290553
13	0xbe6dc902	-0.2322121
14	0xbe636664	-0.22207028
15	0x3e054eaa	0.13018289
16	0xbe27acd3	-0.16374521
17	0x3d3154e0	0.043293834
18	0x3ba7ffef	0.005126945
19	0xbd76f225	-0.06028952
20	0xbc9470d6	-0.01812021
21	0xbd87e33a	-0.06635137
22	0xbe4a91b6	-0.19782147
23	0x3d278a04	0.040903106
24	0xbda8bbc7	-0.08238941
25	0x3e2d8de7	0.16948663
26	0x3c32996d	0.010900837
27	0x3e835966	0.25654143
28	0x3c20bccc	0.009810638
29	0x3e0f9a32	0.14023665
30	0x3dedda54	0.116139084
31	0xbdc84aa4	-0.097798616
32	0x3db6e413	0.089302205
33	0xbe325787	-0.17416202
34	0xbd5ae93b	-0.053445082
35	0x3cf863cf	0.03032103
36	0xbdc86efc	-0.097867936
37	0x3daae6aa	0.08344777
38	0xbd282a9f	-0.04105627
39	0xbb998b8f	-0.004685826
40	0x3e21bbae	0.1579425
41	0x3d910441	0.070808895
42	0xbdf550cc	-0.119783014
43	0x3dcd0a84	0.10011771
44	0xbdac62cb	-0.08417281
45	0x3db4ca73	0.088276766
46	0x3bac6fe2	0.005262361
47	0x3e6dd8c6	0.23227224
48	0x3e265b78	0.1624583
49	0xbc4c08ed	-0.0124533
50	0x3e13f957	0.14450584
51	0xbe307cae	-0.17235062
52	0xbc13e3e2	-0.009026499
53	0xbe0dfc34	-0.13865739
54	0xbcc405fc	-0.023928635
55	0x3d27a029	0.040924225
56	0xbe134212	-0.14380673
57	0x3df72519	0.12067623
58	0xbc561b3a	-0.013068015
59	0xbd71078a	-0.05884508
60	0xbe2d3009	-0.16912855
61	0xbe1cc09c	-0.1530785
62	0xbdc753b4	-0.09732762
63	0x3df7bd32	0.12096633
64	0xbde33121	-0.11093355
65	0x3caa9f27	0.020827843
66	0x3d3724b1	0.044712726
67	0x3da5462b	0.08070024
68	0xbe846b0b	-0.25862917
69	0xbd48b271	-0.0489983
70	0x3da5228d	0.08063231
71	0x3cf291f3	0.02961061
72	0x3d2c010e	0.041993193
73	0x3d1e6ff7	0.038680997
74	0xbc4b1b78	-0.012396686
75	0x3e0e8150	0.13916516
76	0x3ceafec8	0.028685942
77	0xbc03ecb4	-0.00805204
78	0x3c4172b4	0.0118071325
79	0x3cce23a3	0.025163477
80	0x3dcc958a	0.0998946
81	0x3d377368	0.044787794
82	0x3da3c4fd	0.07996557
83	0xbe89a4e2	-0.26883608
84	0x3d3480e7	0.044068243
85	0x3d72bbc4	0.0592611
86	0xbe5cd106	-0.21564111
87	0x3d8d205b	0.06890937
88	0xbccc0bcd	-0.02490797
89	0x3dae1d00	0.08501625
90	0xbe0bbe63	-0.13646846
91	0x3e6103d0	0.2197411
92	0xbe79dc17	-0.24400364
93	0x3e07f5dc	0.13277382
94	0x3d344b83	0.044017326
95	0x3e2294e4	0.1587711
96	0xbe204793	-0.15652303
97	0xbe263435	-0.16230853
98	0x3e194389	0.14967169
99	0x3e893362	0.26797014
100	0x3e270c9a	0.16313401
101	0x3e1316a5	0.14364107
102	0x3d127449	0.03575543
103	0x3d58a8df	0.052895423
104	0xbd923698	-0.07139319
105	0x3b89d343	0.0042060926
106	0xbd95f8ce	-0.07322846
107	0x3dbcc0c6	0.09216456
108	0xbe07c604	-0.1325913
109	0x3d58bc8d	0.05291419
110	0x3de2533b	0.11051031
111	0x3da8f776	0.082503244
112	0xbbf7be30	-0.007560514
113	0x3ce9f5f6	0.028559666
114	0xbdbfe2cb	-0.09369429
115	0x3da22bbd	0.07918499
116	0xbdae84e2	-0.08521439
117	0x3d5f04aa	0.054447807
118	0x3d2443da	0.04010377
119	0x3db215e9	0.08695585
120	0x3df7d18a	0.12100513
121	0x3d0ac006	0.033874534
122	0x3ced7f4a	0.02899136
123	0x3d3b38e9	0.04570857
124	0x3e267c95	0.16258462
125	0xbd516f9a	-0.051131822
126	0x3e25c248	0.16187394
127	0xbe445f9c	-0.19177097

fc3.weight f4 [2, 128]
0	0xbe923319	-0.2855461
1	0xbe2c2bd7	-0.16813599
2	0xbe5927be	-0.21206567
3	0xbd9219b4	-0.07133809
4	0x3d83c5ab	0.064341865
5	0x3f09f7ce	0.53893745
6	0x3e99e7ac	0.30059564
7	0xbe2ae305	-0.16688164
8	0xbd0b6cd5	-0.034039337
9	0x3e55fb57	0.2089666
10	0xbd931b41	-0.07182933
11	0x3ee06061	0.4382353
12	0xbe3b6b13	-0.18302564
13	0x3ef5eb29	0.48030975
14	0x3e131a82	0.1436558
15	0x3eae4943	0.3404027
16	0x3e4ceb7e	0.20011708
17	0x3d495d3c	0.04916118
18	0xbcc8be3c	-0.024504773
19	0xbd319bce	-0.043361478
20	0xbc285d80	-0.010276198
21	0x3e69a11f	0.22815369
22	0x3e8f458d	0.2798275
23	0xbd287c4b	-0.04113416
24	0x3e336d56	0.17522177
25	0xbe2c2517	-0.16811024
26	0xbda09137	-0.078401975
27	0xbe931da8	-0.28733563
28	0xbd719525	-0.058980126
29	0xbd18c4fc	-0.037297234
30	0xbcd5cb2a	-0.026097853
31	0x3ddb5138	0.107088506
32	0xbf0e60b3	-0.556163
33	0x3de1776d	0.11009107
34	0x3d63535a	0.055499412
35	0x3d304e6d	0.043043543
36	0x3e013185	0.12616546
37	0x3e4f360f	0.20235465
38	0x3a8f57c2	0.0010936188
39	0x3dbd4db8	0.09243339
40	0xbe819ec3	-0.25316438
41	0x3e012ff6	0.12615952
42	0xbbb2b3a6	-0.0054535447
43	0xbe0cd903	-0.13754658
44	0x3e825b6e	0.2546038
45	0x3f06d53d	0.52669126
46	0xbe969bc3	-0.29415712
47	0xbe6dde57	-0.23229347
48	0xbd1fe7c5	-0.039039392
49	0x3e0b5d42	0.13609794
50	0xbd8b5ef5	-0.06805221
51	0x3e83285e	0.25616735
52	0x3ed884a1	0.42288688
53	0xbc8247d2	-0.015903387
54	0xbd99d3e2	-0.075111166
55	0x3e3e2b14	0.1857112
56	0x3ef36957	0.47541305
57	0xbe005ccf	-0.12535404
58	0xbe524a3f	-0.20536135
59	0x3cfb75c6	0.030695807
60	0x3d2604c3	0.040531885
61	0x3e1d9c24	0.15391594
62	0x3c704d4a	0.014666865
63	0xbd9b6bd4	-0.07588926
64	0xbd114f81	-0.03547621
65	0x3e77160e	0.24129507
66	0xbe399bf1	-0.18125893
67	0xbd99e402	-0.07514192
68	0x3e5cb19f	0.21552132
69	0x3ea6eb5f	0.3260145
70	0xbc894dd2	-0.01676074
71	0xbe192aee	-0.14957783
72	0x3e931c3b	0.28732476
73	0xbdf12eb9	-0.1177649
74	0x3e5e5b8c	0.2171461
75	0xbe0aa689	-0.1354009
76	0xbde44dfa	-0.11147685
77	0x3ec2e0c9	0.38062122
78	0xbd45cbdc	-0.04829012
79	0xbd8f3fac	-0.06994566
80	0xbdba99b3	-0.09111347
81	0xbda8326e	-0.08212744
82	0xbeca54b3	-0.39517745
83	0x3ea4753b	0.3212069
84	0x3e3514cf	0.17683719
85	0x3e22de34	0.15905076
86	0x3e9de0ec	0.30835664
87	0x3b8bea4d	0.004269874
88	0xbbae676d	-0.005322388
89	0xbc5adc46	-0.013358181
90	0x3de0ff11	0.1098615
91	0xbe04a119	-0.12952079
92	0x3e4875fd	0.19576259
93	0xbe41045a	-0.18849316
94	0x3e91a55f	0.2844648
95	0xbd294679	-0.041326974
96	0x3e5af46f	0.21382307
97	0x3e4e0063	0.20117335
98	0xbdf749bf	-0.12074613
99	0xbe921a11	-0.28535512
100	0xbd9c144e	-0.0762106
101	0xbe6c6b32	-0.23087767
102	0xbe323d1d	-0.17406125
103	0xbcce8b83	-0.025213009
104	0xbdb6b92a	-0.08922036
105	0x3d2762ff	0.040865894
106	0x3d0a6418	0.033786863
107	0xbdb3e999	-0.087847896
108	0xbc40d2f3	-0.011769044
109	0x3ec36a33	0.3816696
110	0x3e0546ba	0.13015261
111	0xbe832583	-0.25614557
112	0xbe042b67	-0.12907182
113	0x3ccd58ee	0.025066819
114	0x3e822946	0.25422114
115	0xbe1a4530	-0.15065455
116	0x3eddce80	0.4332161
117	0xbe4ef700	-0.2021141
118	0x3da82517	0.08210199
119	0xbd1a43fa	-0.037662484
120	0x3b10ecbc	0.002211376
121	0x3e3942e9	0.1809193
122	0xbdbe8d11	-0.0930425
123	0xbe76c682	-0.24099162
124	0xbebbe59f	-0.36698624
125	0x3ce62e9d	0.028098399
126	0xbe324ef0	-0.17412925
127	0x3e76c9e8	0.24100459
128	0xbef96fc0	-0.4871807
129	0x3aa8022f	0.0012818034
130	0x3e13f0cf	0.1444733
131	0x3e965ab2	0.2936607
132	0xbe845c68	-0.2585175
133	0xbdc36418	-0.09540576
134	0x3e3260fd	0.1741981
135	0xbd8f1361	-0.06986118
136	0x3da71578	0.08158392
137	0xbc863a1f	-0.016385136
138	0x3d69d379	0.05708644
139	0xbe5b5c08	-0.21421826
140	0x3e9cd630	0.30632162
141	0x3db2030a	0.08691986
142	0x3ebee080	0.37280655
143	0xbe032112	-0.12805584
144	0x3e9ab05c	0.30212677
145	0xbe8cf37e	-0.2752952
146	0x3d853d70	0.06505859
147	0xbdd5dfad	-0.104430534
148	0xbeb23dfb	-0.34812912
149	0xbf04ea1a	-0.5191971
150	0x3d669dae	0.05630272
151	0x3e8a9bf5	0.2707211
152	0xbe4651bc	-0.19367117
153	0xbe5957dd	-0.21224923
154	0x3e6bfa4e	0.23044702
155	0x3e3b8f1e	0.18316314
156	0x3d9324b9	0.07184739
157	0xbe61907a	-0.2202777
158	0x3ca24da2	0.019812409
159	0xbe2cf72e	-0.16891167
160	0xbe455ee7	-0.19274484
161	0x3de65df6	0.112483904
162	0x3e0fd7f4	0.14047223
163	0xbed55e84	-0.41673672
164	0xbc4b46ae	-0.012406988
165	0xbf1756e4	-0.5911696
166	0x3e9181aa	0.28419238
167	0xbe92eddc	-0.28697097
168	0xbea834fd	-0.32852927
169	0x3e6d9876	0.2320269
170	0x3e0ea6f3	0.13930874
171	0x3e125e9b	0.14293902
172	0xbd88ce29	-0.06679947
173	0x3e5ef30e	0.21772406
174	0x3e41770f	0.18893073
175	0x3daf9299	0.08572883
176	0xbec65911	-0.38739827
177	0x3ea8e9f5	0.32990995
178	0xbe24749a	-0.16060105
179	0xbdee8cd8	-0.116479576
180	0x3e3ea775	0.18618567
181	0x3e5f698e	0.2181761
182	0xbe403948	-0.18771851
183	0xbd08b088	-0.03337148
184	0x3e1be60d	0.15224476
185	0xbe24db47	-0.16099273
186	0xbea7391d	-0.3266076
187	0x3dd1b24c	0.102390856
188	0x3e6a95b8	0.22908676
189	0xbe0a726d	-0.13520212
190	0x3eb3aeb4	0.35094225
191	0x3cf87d9b	0.03033333
192	0x3e4e8e7a	0.20171538
193	0xbe9e0ee6	-0.30870742
194	0xbe55e9ea	-0.20890012
195	0xbd8f0e2e	-0.069851264
196	0xbd76c06a	-0.060242094
197	0x3d6c6d73	0.057721566
198	0x3ed85b6e	0.42257255
199	0xbebbd415	-0.36685243
200	0x3edddb43	0.43331346
201	0x3da530b4	0.0806593
202	0xbd46fcdb	-0.048580986
203	0x3c8d3e18	0.017241523
204	0x3e773ee3	0.24145083
205	0xbe510039	-0.20410241
206	0x3eb2316f	0.3480334
207	0x3eef2be9	0.46713188
208	0x3d766867	0.06015816
209	0x3d06f09c	0.032944307
210	0xbe8ddc41	-0.27707103
211	0x3eb4aa2d	0.35286084
212	0xbdbd91f6	-0.092563555
213	0xbe95751d	-0.29190913
214	0xbe8ce498	-0.27518153
215	0xbe3fa8f0	-0.18716788
216	0x3e66e3f3	0.22547893
217	0xbe345830	-0.17611766
218	0x3e01d0d2	0.12677315
219	0x3e3d13f2	0.1846464
220	0xbcc7eb93	-0.024404323
221	0xbe11a63c	-0.1422357
222	0x3ea5e9ca	0.3240493
223	0xbe329970	-0.17441344
224	0x3f13282a	0.5748316
225	0xbdc45975	-0.09587375
226	0xbe0249a3	-0.12723403
227	0xbe2f2bc8	-0.17106545
228	0xbac39ada	-0.0014923469
229	0xbd489f9d	-0.048980344
230	0xbd965e7d	-0.07342241
231	0x3dc1065e	0.094250426
232	0xbec8a6de	-0.3918981
233	0xbe80a985	-0.25129333
234	0x3f0d9af3	0.5531456
235	0xbd2aad04	-0.041668907
236	0xbe04db11	-0.12974192
237	0x3d32b957	0.043633785
238	0xbe9ecd85	-0.31016174
239	0xbe2a8186	-0.16650972
240	0x3e9ac5f5	0.30229154
241	0xbe4c54f2	-0.19954279
242	0x3e039dca	0.1285316
243	0xbd6ced4c	-0.05784349
244	0xbe9666f3	-0.2937542
245	0xbed87118	-0.42273784
246	0xbebc4632	-0.36772305
247	0xbe40772f	-0.18795465
248	0xbd8987cd	-0.06715355
249	0xbe54b7f4	-0.20773298
250	0xbf394df0	-0.7238455
251	0xbc52dca2	-0.012869986
252	0x3dd395f6	0.10331337
253	0x3e250383	0.16114621
254	0xbf225f68	-0.6342683
255	0x3e3dbf66	0.18530044

fc3.bias f4 [2]
0	0xbdff73e4	-0.12473276
1	0xbd24a6fc	-0.04019831
