checkpoint_actor_1.pth (torch_old, 541411 bytes, 6 tensors)

fc1.weight f4 [400, 33]
000000 88 e8 2b 3e fe d4 83 3c 82 6a 94 3d b1 9f bb bd
       0.16787922 0.016092774 0.07246877 -0.09161318
000010 8c 76 d8 3d ab 68 a8 3c 79 03 79 3d 3b 17 95 bb
       0.10569486 0.020557722 0.060794327 -0.0045498884
000020 da 3d 7a 3d ff d5 3f ba 79 55 fa 3c bf d0 1a 3d
       0.061094142 -0.00073179597 0.030558335 0.037796732
000030 24 b5 a2 3c 9d f1 45 be cb b2 81 bd fd 88 7e 3c
       0.019861765 -0.1933045 -0.0633293 0.01553559
000040 22 32 ad bd 71 7d 24 3e 5d 72 12 3e 6d 94 f5 bc
       -0.08456828 0.16063477 0.14301439 -0.029978001
000050 69 78 11 3d 46 b0 1a 3d 61 0a a9 bb e5 bf 02 3d
       0.035515223 0.037765764 -0.005158708 0.031921286
000060 c6 c4 6e bd 13 e7 8a 3d 0c 6b 75 3d ac 27 0f bd
       -0.058293127 0.06782355 0.05991654 -0.034949943
000070 72 00 e2 bd c3 d1 ab bc 27 0d c9 bc d7 89 f0 bc
       -0.11035241 -0.020974046 -0.024542404 -0.029362602
000080 55 e2 5a be 07 f7 1e be f4 23 c6 bc fa 89 10 3e
       -0.21375401 -0.15523921 -0.024187066 0.14115134
000090 8b 4f 81 bd 88 5c 68 bd bb be 39 3e e3 4e d4 3d
       -0.06314 -0.05672887 0.18139164 0.10366609
0000a0 d6 23 64 3d c2 c0 69 bd bd 21 11 3d 09 14 df bc
       0.05569824 -0.057068594 0.035432566 -0.027231233
0000b0 27 60 31 3d 8c 98 c9 bb 3f 60 04 3e 26 f7 93 bd
       0.04330459 -0.006152218 0.1292734 -0.07224874
0000c0 5d ef 1b be b2 e9 e3 bd 7f 7a 8c 3d aa f2 97 bd
       -0.15228029 -0.11128558 0.06859302 -0.07419331
0000d0 2f eb ac 3b 4f e6 ce bc 01 ee 6b 3c f3 43 fb 3a
       0.0052770595 -0.025256304 0.014400006 0.0019170031
0000e0 c5 12 0d bd 10 5d d2 bb 42 87 db 3a d5 8a 74 b9
       -0.03444173 -0.0064197853 0.0016748684 -0.00023321372
0000f0 50 5c c7 3c af 57 46 3d 35 60 3b bd 3e fd 89 bb
       0.02433601 0.048423465 -0.045746047 -0.004211097
000100 4e 2a 10 bd 24 2f 2e bd e2 03 ad 3c 0a e8 71 3c
       -0.035196595 -0.042525426 0.021120016 0.014764795
000110 c3 d0 23 be fd 1f a6 bc 06 9e 8e 3d 87 f8 b1 bd
       -0.15997605 -0.020278925 0.06963734 -0.08689981
000120 91 04 07 be 72 5a e1 bd 7b 56 74 bc cf e8 bf bd
       -0.13185336 -0.11003579 -0.014913197 -0.093705766
000130 93 e7 c9 bd 06 63 54 3e ce 1a 73 3d 5b cd 84 3d
       -0.098586224 0.207409 0.059351735 0.06484481
000140 5f 2b ba 3d 8f 19 cd 3d 7b 4e e6 3d 32 8d a5 bc
       0.09090304 0.100146405 0.11245438 -0.020208929
000150 d2 b7 0c 3d de 9f 11 bd 0d 23 63 3d 79 75 7c 3d
       0.034354992 -0.03555285 0.05545335 0.06163547
000160 f2 b5 80 3d 74 d5 be bd 1e ca 51 3c 2a 54 ca 3c
       0.06284703 -0.09318057 0.012804536 0.024698336
000170 2d 2f 13 bd 56 a7 77 3d 2d 33 05 be c3 f1 c9 bc
       -0.035933662 0.06046232 -0.13007803 -0.024651414
000180 a1 42 66 bc 49 b0 05 3d 12 ed 76 be 00 67 3b bd
       -0.0140539715 0.03263882 -0.24113873 -0.045752525
000190 05 52 e4 3c 32 f5 8d 3d 5c cd d7 bb 96 97 dd bd
       0.027871141 0.06931533 -0.00658576 -0.10819928
0001a0 03 1c 13 be 8e fc 99 3b d3 4a 5b bc 03 88 53 3d
       -0.14366154 0.0046992963 -0.013384539 0.051643383
0001b0 aa 2d 0e 3d 72 1e 44 ba af 31 8d bc 2c 83 dd bc
       0.034711517 -0.00074813433 -0.017235605 -0.027040087
0001c0 29 94 eb 3d 2d 24 1d 3e de 9d c9 bd 4f d5 2d 3d
       0.11502869 0.15345831 -0.09844564 0.042439755
0001d0 c5 52 66 bd be 92 10 be 02 dc f8 bb 03 f5 52 3d
       -0.05623128 -0.14118478 -0.0075945864 0.051503193
0001e0 25 1f 70 bc 5e 7d 82 3c 77 e0 fe bc 61 cb 6c 3d
       -0.014655863 0.01592892 -0.031112893 0.057811145
0001f0 cc 96 c3 bd 7e 7b 18 be e9 74 d9 bc d6 a6 60 bd
       -0.095502466 -0.14890859 -0.026545005 -0.054846607
000200 d4 10 14 3c b7 47 95 bb a7 57 29 3d 97 3a b0 3d
       0.009037215 -0.004555668 0.041343357 0.08604925
000210 76 fe 4b be d9 bc 39 bb d6 aa 49 bc 2d 16 08 3d
       -0.19921288 -0.0028341322 -0.012308797 0.033224273
000220 17 fb 88 bd b2 24 d4 3d eb 15 8b bd b9 fb 08 bd
       -0.066885166 0.103585616 -0.0679129 -0.033443186
000230 4e 52 a4 bc 80 fd 73 bd cf b4 0f bd e7 a4 e0 bc
       -0.020058777 -0.05956793 -0.035084542 -0.027422382
000240 ca be 27 3d 76 6e c8 3d 54 3e 16 bd b3 f3 8b bb
       0.040953435 0.09786694 -0.036680534 -0.0042709946
000250 2a f6 31 3b aa f4 88 3c bc cf b0 bd 09 b4 12 3d
       0.0027154782 0.016718227 -0.08633372 0.035816226
000260 38 7f bd 3b eb 4f 84 bc a5 03 6e 3c d5 e8 3a 3d
       0.005782988 -0.01615139 0.014527236 0.045632202
000270 94 62 b5 3d 99 e8 be 3d 21 b1 2e bc a9 a8 cc 3c
       0.08856693 0.09321708 -0.010662348 0.024982767
000280 52 03 be 3c c3 71 a0 bc 6c fc 65 3d b2 76 c8 3c
       0.023194943 -0.019585496 0.05614893 0.02447066
000290 ea 40 f6 bd d5 3d cc bd 91 05 14 3d fa 0e ee 3d
       -0.120241 -0.09972731 0.03613812 0.1162395
0002a0 d4 77 05 bd 25 25 40 be 25 fe 38 3e 8b 98 20 3d
       -0.03258498 -0.1876417 0.18065698 0.039207976
0002b0 62 dd 48 bd 72 04 dd 3d 88 cf 86 3d df 94 b8 3d
       -0.049039252 0.107918635 0.06582552 0.0901277
0002c0 23 d3 99 3c fc 9c 41 3d ee ae 97 bc ec 13 c5 3d
       0.018777436 0.047268853 -0.01851603 0.096229404
0002d0 a7 9e 8f bc 40 d3 54 bc 68 60 06 bd 46 fe 5b 3d
       -0.017531706 -0.012989819 -0.032806784 0.05370929
0002e0 e9 57 0c 3c e5 09 17 3d 3b cf 42 3d b6 a2 8b bd
       0.008565881 0.03687467 0.04756091 -0.06818144
0002f0 b6 a7 cf 3d 06 6d f5 3c ca a4 39 3d 10 a8 e2 bd
       0.1013941 0.029959213 0.04532317 -0.11067212
000300 29 cc b0 3d 1b 55 a0 3d 23 ca 24 3d 2c de b5 bb
       0.086326905 0.078287326 0.040231835 -0.0055501666
000310 fd 16 f9 bc 06 74 11 3e a1 fd 15 bd f5 67 42 3d
       -0.03040647 0.14204416 -0.036618832 0.047462422
000320 79 87 12 bd ec 0a 65 3d 11 bc ca bb b9 80 0f bd
       -0.035773728 0.05591862 -0.00618697 -0.03503487
000330 bb 2f 5a 3c 71 da c9 bd 01 8f 36 3d 20 88 99 bb
       0.013317044 -0.098561175 0.044569973 -0.004685417
000340 26 8a cf ba dd b9 e7 bd 29 51 8d 3d 49 02 8b 3d
       -0.0015834018 -0.113147475 0.06900246 0.06787545
000350 f7 e0 b6 bc 9e 99 1f 3e a9 a6 19 3e 14 01 bf 3b
       -0.022324068 0.15585944 0.15004982 0.005828986
000360 2f 0a a0 3d e1 8f 5b 3d bf 67 2f bd c2 de 99 bd
       0.07814442 0.05360401 -0.04282355 -0.07513191
000370 de e2 92 3b 6e 2d 22 3d 0a 44 fc 3c 2c 08 68 3e
       0.004482611 0.039594106 0.030794162 0.22659367
000380 0d 7a b0 bd ca 37 43 3d e5 31 8b bc f3 e5 1d 3d
       -0.08617029 0.047660626 -0.016991565 0.038549375
000390 b6 fe 8d 3c 74 a5 74 3c 9d 8c 4b bf 67 fc 20 3e
       0.01733337 0.014932025 -0.79511434 0.15721284
0003a0 2f bc a0 3c fc 00 91 3e c4 c5 fe 3c 00 70 51 3e
       0.019620983 0.28321064 0.031100161 0.20452881
0003b0 47 e3 67 bd 33 34 ea 3d 0c 65 a1 3b 3f 5b 94 bd
       -0.056613233 0.114357375 0.004925376 -0.07243966
0003c0 b3 f4 9b bc 84 c3 13 bc 15 b5 dc 3c 95 d6 03 3d
       -0.01903758 -0.0090187825 0.026941815 0.032187063
0003d0 8a 1e 17 be 84 6f 94 bd aa 44 7f bd 78 9b 6d be
       -0.14757743 -0.072478324 -0.062321343 -0.23203838
0003e0 f2 07 5b 3d 71 ca 24 3e 7e 09 4d 3d 7d d0 11 3d
       0.053474374 0.1609285 0.05005788 0.03559922
0003f0 11 a0 17 be be e2 1f 3d d8 aa 8a bd 42 ac 03 3d
       -0.14807154 0.039034598 -0.06770867 0.0321467

fc1.bias f4 [400]
000000 7f 2a 33 3e b0 a1 02 3e e9 92 88 3d 48 72 e5 3d
       0.1749668 0.12756991 0.06668646 0.11203438
000010 0a 7f e9 3d a1 81 f7 3d d7 f7 f5 3d ea 78 43 bc
       0.11401184 0.120852716 0.12010162 -0.011930684
000020 2a 73 08 3e f3 e6 84 bc ba 97 1d 3e 6a f0 2a 3e
       0.13325182 -0.016223406 0.1538991 0.16693273
000030 b5 c9 c6 bc e3 42 0f be 58 33 03 3e 03 c8 26 3d
       -0.024266103 -0.13990359 0.12812555 0.04071809
000040 ac e2 c6 3d 86 1f 11 be 9b 4a ea bd 35 86 2b 3e
       0.09711203 -0.14172181 -0.11440011 0.16750415
000050 4b a6 0b be e2 61 cf 3d a1 62 05 3e 03 a5 86 bd
       -0.13637654 0.101260915 0.13025905 -0.06574442
000060 a0 89 e7 bd b9 37 b9 bb 23 71 1d bd ca e8 39 be
       -0.11305547 -0.0056523946 -0.038437974 -0.18155208
000070 af 39 96 bd 54 a8 03 be 6e ea 0b be c8 d5 3e 3e
       -0.07335221 -0.12857181 -0.13663647 0.18636239
000080 03 f9 cc 3d bc 38 5f bc 28 c9 28 3d a4 61 d3 bd
       0.10008433 -0.013624366 0.041207463 -0.10321358
000090 04 ff f2 3b 0e 3c 8a bd 2a 9e f4 3d dd e6 af bd
       0.007415654 -0.06749736 0.1194423 -0.085889556
0000a0 9a b0 ba bc 0b 9c 32 be 77 0a 71 3d c8 73 30 be
       -0.022789288 -0.17442338 0.05884787 -0.17231667
0000b0 f9 af ac bb d6 9c ac bd 10 02 cd bd 67 7c cd 3d
       -0.005270001 -0.084283516 -0.10010159 0.100334935
0000c0 75 85 c1 3d 69 90 4c be 53 3f 43 be 36 ad 88 3d
       0.09449283 -0.19976963 -0.19067125 0.06673662
0000d0 47 7c 90 bd 8f 43 bf bd ab 0f 2c be f2 84 80 3d
       -0.07054954 -0.09339058 -0.16802852 0.06275357
0000e0 89 2b 0f 3c eb 25 ac 3d 12 94 bc bb 8e c7 6c 3d
       0.008738407 0.0840567 -0.005754956 0.057807498
0000f0 c4 5a 85 3d 81 55 c6 bc 5e e5 b1 3c 4d a0 0d be
       0.06511453 -0.024210693 0.021715816 -0.13830681
000100 0b 72 d3 bd 86 05 1b 3e 55 9b 41 be 1c da 14 be
       -0.10324486 0.15138826 -0.1890691 -0.14536327
000110 8f 16 24 bd 60 87 bc 3d a8 b8 50 be ee db 99 bc
       -0.040060576 0.09205508 -0.20382941 -0.018781628
000120 e7 f2 8c ba ec b2 e6 bd af 50 82 bd 1c 2b cc bd
       -0.0010753543 -0.112645954 -0.063630454 -0.0996916
000130 ff 98 98 bd b5 32 56 be 2d 7e 38 be 27 44 e8 bd
       -0.07451057 -0.2091778 -0.18016882 -0.11341124
000140 ad be e3 bd 26 fa af 3c b4 26 21 be e1 e8 80 bd
       -0.11120353 0.021481585 -0.1573742 -0.06294418
000150 b0 89 b0 bd c9 49 13 be 2e 4a 91 3d 29 55 27 3e
       -0.08620012 -0.14383616 0.07094227 0.1634108
000160 28 9f 57 bd ca 6a c7 bd 73 ff 43 3e 48 df 02 3e
       -0.052642018 -0.09737165 0.19140415 0.12780488
000170 d8 c5 97 3d 0a 04 fe bd dc 4c 10 be 3d 06 83 3c
       0.074107826 -0.12403114 -0.1409182 0.015994186
000180 49 4c ce 3d 04 6d 22 be 37 f0 c4 3c f5 93 18 be
       0.10073144 -0.15861899 0.024040325 -0.14900191
000190 f5 a3 26 bd 66 87 6a bc 1f 42 1c bd b1 5a 5e 3e
       -0.040683705 -0.014314508 -0.038148995 0.21714284
0001a0 8e 7f a4 3c 1c 2f b2 bd ea 4b 27 3e 0d 15 d9 3d
       0.020080354 -0.08700392 0.16337553 0.10599718
0001b0 2f e9 95 bd 3b 4b 4b be 9c ad 06 3e 97 e9 87 3d
       -0.07319867 -0.19852917 0.13152164 0.066363506
0001c0 44 7b 38 3e 5e 16 33 be 34 77 e1 3d 95 52 e2 bd
       0.18015772 -0.17489001 0.11009064 -0.110509075
0001d0 a9 08 2d be 33 6d 8b 3d ac e2 b4 3d 1b 9c 89 3d
       -0.16897835 0.068079375 0.08832297 0.06719228
0001e0 ad 4f c0 3d 73 d1 2a be e7 f4 1e 3e 3c f1 18 3e
       0.09390197 -0.16681461 0.1552311 0.14935774
0001f0 35 88 1b be 26 65 ee 3d ef ad 0f 3e 3c ac 33 3e
       -0.15188678 0.11640386 0.14031194 0.17546171
000200 59 8f f7 bd 3c a4 24 3d 25 c4 5f bd 52 82 b3 bc
       -0.12087888 0.04019569 -0.054630417 -0.021912728
000210 c0 58 02 3d 34 aa 45 bb 59 fd b0 bc dc 15 00 bd
       0.03182292 -0.0030161263 -0.02160518 -0.031270847
000220 d2 22 89 be 05 04 fa bd 9b 26 3c be 9b 31 a2 bd
       -0.26784378 -0.12207798 -0.18374102 -0.07919618
000230 01 2b 7e bc bc 63 fc 3d 47 99 36 be 27 ca 37 3e
       -0.015513183 0.1232371 -0.17831908 0.17948209
000240 6f 8e fc 3c da 38 5b be cc 24 37 3d 69 53 9e 3d
       0.030829636 -0.21408406 0.044712827 0.07730753
000250 0e 3b 81 be 17 08 bf 3d b4 7d c9 bd c2 33 88 3d
       -0.25240368 0.09327715 -0.09838429 0.06650497
000260 59 c3 07 3d e0 87 42 bd a5 f3 01 be 72 f1 8d 3d
       0.033145282 -0.04749286 -0.126906 0.06930818
000270 8f ec 19 be 76 4a 2f be 47 2e 35 3d e1 d0 65 ba
       -0.15031646 -0.17118248 0.044233587 -0.0008766782
000280 11 da 4f 3e 9c ad 90 bc 61 38 9d 3b dd 89 a0 bd
       0.2029803 -0.017660908 0.0047979807 -0.07838795
000290 13 97 1c 3e 80 46 a9 bd ec 29 20 3c e2 bb b0 bd
       0.15292005 -0.082654 0.00977562 -0.08629586
0002a0 e1 7d 22 be 8c 48 a6 3d a8 39 19 3e ce 19 11 3d
       -0.15868331 0.08119306 0.149634 0.035425
0002b0 e6 a2 2b bd 8e 41 3d be fb 7a a9 3d 8e c0 96 be
       -0.0419034 -0.18482038 0.0827541 -0.29443783
0002c0 84 15 6d bd 33 20 a5 3d cf b5 c2 3d e4 e9 22 bd
       -0.057881847 0.08062782 0.095073335 -0.039773837
0002d0 e3 32 02 be c2 16 c4 bd 08 e2 62 3d 4e ca a1 3d
       -0.12714724 -0.09574653 0.05539134 0.07899915
0002e0 09 4b 5e 3d 7e a5 b1 bd 0a 50 5f 3d 91 f1 77 3c
       0.054270778 -0.08674143 0.05451969 0.0151332775
0002f0 2a 17 74 bd d5 1d dc 3c 6c 4b 42 3d be bc e6 bd
       -0.059592403 0.026869694 0.04743521 -0.112664685
000300 79 22 00 be d9 3a 9c bd a2 9d 87 bd 37 c5 e8 bd
       -0.1251315 -0.07628412 -0.06621863 -0.11365741
000310 9d 30 d7 bd 9e 0f af bd 22 a9 2f 3d 43 59 71 3b
       -0.10507319 -0.085479006 0.042885907 0.0036826886
000320 65 c2 02 be 5d ea 7d 3d 62 d9 1e 3d f4 2b 94 3d
       -0.12769468 0.061991084 0.03878153 0.07234946
000330 94 03 84 bd f7 ee 48 bd 9e 25 ae bd 9c 17 c9 bd
       -0.06445995 -0.04905602 -0.08503269 -0.09818956
000340 f7 18 ee bb db e3 37 be 56 00 d2 bc 5d 67 af bd
       -0.0072661596 -0.17958014 -0.025634926 -0.08564637
000350 8d 7a 00 be 93 33 89 3d 59 08 c5 bd c4 95 9b bd
       -0.1254675 0.0669929 -0.09620733 -0.07596925
000360 cf 40 15 3d 1f a4 4b 37 5b 31 12 bd df 13 ec 3d
       0.03643876 1.2137955e-05 -0.0356916 0.115272276
000370 0a eb 44 3d c5 0f 03 be 1a 38 8c 3c 29 ac cb bd
       0.048075713 -0.12798984 0.017116595 -0.09944946
000380 a4 79 86 bd 2e 46 95 3d 8c 40 35 3e 63 3c 4e be
       -0.0656617 0.07288776 0.17700404 -0.20140223
000390 cd 49 ef bd 67 98 0f be 6f 84 37 be ed fd 44 be
       -0.11683998 -0.1402298 -0.17921613 -0.1923749
0003a0 e2 96 f1 bd bb 16 a9 bc f4 fe 03 3b a7 5b 1e 3e
       -0.11796357 -0.020640722 0.0020140978 0.1546465
0003b0 ba f1 16 3e b5 0b dc bd 93 c7 9f bc 95 72 be bd
       0.14740649 -0.107444204 -0.019504344 -0.092991985
0003c0 4f 35 00 3e 22 4c 9c bd 93 35 a6 3c 19 96 8a bd
       0.12520336 -0.07631709 0.020289218 -0.0676691
0003d0 54 3c 0b 3e ac 45 12 be 20 21 06 bd 81 8c 44 bc
       0.13597232 -0.1428439 -0.032746434 -0.011996389
0003e0 e9 ee bc bc 31 af a6 bd 09 14 ce 3d cb 9b 5d 3d
       -0.02306314 -0.08138884 0.10062415 0.054103654
0003f0 78 a6 bf 3d 1c 05 07 be 15 87 a3 bd b8 73 c4 3d
       0.09357923 -0.13185543 -0.07984749 0.09592384

fc2.weight f4 [300, 400]
000000 2a 9a c1 bd 5d ca 86 3d e3 cf 39 3e e7 b1 4c 3e
       -0.094532326 0.065815665 0.18145709 0.1998974
000010 92 6d 85 3c 75 7a b0 bd 50 80 f0 3d 25 98 8c bd
       0.016287599 -0.08617107 0.11743224 -0.06864957
000020 46 f4 b9 bd 1a e0 d7 bd f2 c3 b4 3c 16 22 fd bd
       -0.090797946 -0.10540791 0.02206609 -0.12360017
000030 75 b7 86 bd 33 60 af 3d d5 98 ac bd f5 53 2d bd
       -0.065779604 0.085632704 -0.08427588 -0.042316396
000040 c9 94 5e bd ce 14 1c be fa bd b2 bc 87 d5 0c be
       -0.05434111 -0.15242311 -0.021819104 -0.13753329
000050 3a a7 6c bd a4 32 8c bd 7a e7 cc 3d 30 95 cb 39
       -0.057776667 -0.068455964 0.10005088 0.0003883033
000060 46 1b cf 3d a1 84 e2 bd 41 da 51 3d ee 3e 71 3d
       0.10112624 -0.11060453 0.051233534 0.058897905
000070 6e 0c e8 bd 63 66 67 be 48 c3 4e 3e 7d 19 03 be
       -0.11330496 -0.22597651 0.20191681 -0.12802692
000080 bd f6 1b bd 96 9e b4 3d 02 15 42 3d c8 39 27 bd
       -0.038077105 0.0881931 0.047383316 -0.04082659
000090 a5 2f a4 bd d3 2f b3 bb 04 0a 4b bd 34 10 84 be
       -0.080169 -0.0054683476 -0.0495701 -0.25793612
0000a0 ec 5a 72 3c ac c7 64 bd 7e db c1 3d 47 b6 18 be
       0.014792185 -0.055854484 0.09465693 -0.14913283
0000b0 47 3e 1e 3d be 72 e6 bd 9e 71 1f be 74 62 e5 bd
       0.03863361 -0.11252354 -0.15570685 -0.11200419
0000c0 41 26 e8 3c bd de 81 3d e6 e1 83 bd cf c5 57 3d
       0.028338553 0.06341312 -0.06439571 0.05267888
0000d0 f4 60 8a 3c 16 30 9d bd f3 fb 13 be 5e a3 f5 3d
       0.016891934 -0.07675187 -0.1445158 0.119940504
0000e0 8d 4c 22 3e 3d e9 b5 3d a2 a0 04 bd 6e 12 85 3d
       0.15849514 0.08882377 -0.032379754 0.06497656
0000f0 4c a1 5f be 18 be 22 be 53 c9 5a bd 7f 3c 90 bc
       -0.21838874 -0.15892828 -0.053414654 -0.017606972
000100 ff 2d 0f bd a7 6d 2f bd 9b 4b 39 bd dc d1 9b 3c
       -0.034955975 -0.042829182 -0.04523812 0.019020967
000110 0b 27 3a be 87 0d a4 bb a8 e3 03 3e 6d 31 b3 bd
       -0.18178956 -0.0050064954 0.12879813 -0.087496616
000120 2d fa bf 3d cd 02 09 ba b0 0a 33 3e 7d 19 52 be
       0.09373889 -0.00052265526 0.17484546 -0.20517536
000130 4c ac 01 3d 38 b6 18 bd 91 ce 78 bc fd b5 13 bc
       0.031658456 -0.037283152 -0.015185968 -0.009015557
000140 d9 2b 4a be 6b 63 13 3e a8 74 9e 3d 3c b9 38 3c
       -0.19743289 0.14393394 0.07737094 0.011274632
000150 3d 0d 49 3d 7b 96 a7 3d 4c 3c 91 bd 94 0e 44 bd
       0.04908489 0.08182999 -0.07091579 -0.047865465
000160 ae 35 52 bd 64 c2 2b 3d 69 1e 37 3e 66 3c 13 bd
       -0.051320724 0.041933432 0.17882694 -0.035946272
000170 b2 5d 35 be d3 09 84 3d 76 3d f1 3c 03 4c 9c 3c
       -0.17711523 0.06447186 0.029448252 0.019079214
000180 1d 45 36 be a6 10 c6 3c db 09 a4 3c 07 1d 49 be
       -0.17799802 0.02417786 0.02002423 -0.1963998
000190 cd 4b 45 be fb 57 17 3e 99 c8 4c be fb cb ef bd
       -0.19267197 0.14779656 -0.19998397 -0.11708828
0001a0 05 83 23 3c fb 11 47 bd 69 a7 2e be c6 00 92 3d
       0.009979968 -0.048601132 -0.1705605 0.07129054
0001b0 3e cf c8 3d 9a 12 09 bc be 05 93 3d 29 5e 49 3e
       0.09805153 -0.008366251 0.071788296 0.19664825
0001c0 09 70 12 bd 7b 69 c3 3c 10 53 db bd d1 82 aa bd
       -0.035751376 0.023854008 -0.10709202 -0.083257325
0001d0 42 d9 8a be 41 b7 a8 bd 14 38 8f bc fe a6 40 3d
       -0.2711888 -0.08238078 -0.017482795 0.047034256
0001e0 90 69 5d bd b0 02 64 3d ec 34 e8 3d f2 44 b6 3d
       -0.05405575 0.055666625 0.11338219 0.08899869
0001f0 5f c4 0e be 0e e4 07 3d aa 1e a1 3d 4b 45 79 bb
       -0.13942097 0.033176474 0.07867177 -0.0038035687
000200 db 15 94 3c 6c b1 26 3e 51 84 01 3e 04 d7 19 3d
       0.018076828 0.16278619 0.12648131 0.03755857
000210 e4 c3 bf 3c 07 32 2e be 59 4d e0 bd 75 a6 94 3c
       0.023408838 -0.17011271 -0.10952253 0.01814578
000220 c0 28 1e be 31 0a bc bd 1b da 14 bd a2 f7 4f bc
       -0.15445232 -0.09181631 -0.036340814 -0.012693318
000230 9c 51 b9 3d a8 07 9e 39 ca ab 04 bd fb c6 10 bd
       0.09048769 0.00030141813 -0.032390393 -0.035346013
000240 b2 c2 1e 3e 4d 1b 3c 3e 00 7d 3e bb 7f f3 f7 3d
       0.15503958 0.1836979 -0.0029066205 0.1210699
000250 a5 28 58 be eb 64 07 3d 7c 19 41 3d 29 57 0f be
       -0.21109255 0.033055227 0.047143444 -0.13998093
000260 b8 4c 9e bd bb 74 4c 3e e7 06 a6 bd 4b 3b 37 3e
       -0.07729477 0.19966404 -0.08106785 0.17893712
000270 6d 78 47 be e4 db 46 3e ac fe 22 be 06 e7 20 3d
       -0.19479533 0.19419819 -0.15917462 0.03928282
000280 cb 70 a8 be 89 04 9e bc c0 76 65 bd d5 fa 0f be
       -0.32898554 -0.019289272 -0.056021452 -0.14060529
000290 2a 29 54 3d 8b 14 5d be 9c 93 3d be c5 90 77 be
       0.05179707 -0.21589868 -0.1851334 -0.24176319
0002a0 41 43 08 3e d5 1a 00 be 60 30 f6 bd 44 34 97 bd
       0.13306905 -0.12510236 -0.120209455 -0.07383016
0002b0 38 93 b0 bc 61 41 6c be 1e ed 09 bc 83 bd f1 3c
       -0.021554574 -0.23071815 -0.00841835 0.029509312
0002c0 53 b7 13 3d f2 35 7a be 79 f9 44 3d 88 ea 8b 3b
       0.036063503 -0.24434641 0.04808948 0.0042699017
0002d0 41 37 b9 3d cd 2a 30 be 5e 62 f3 bc e0 f0 80 be
       0.09043742 -0.17203827 -0.029709991 -0.25183773
0002e0 09 14 5c 3c f1 92 bd 3c 56 2a cb 3c fb e9 62 3e
       0.013432511 0.023141356 0.02480046 0.22159569
0002f0 b7 bf 17 3e 06 df 04 3d dc c8 5c bc 3d f8 d8 3d
       0.14819227 0.032439254 -0.013475623 0.10594223
000300 fc 60 46 3e 54 2a c2 be 27 15 be 3c a4 75 c0 3d
       0.19372934 -0.3792292 0.023203446 0.09397438
000310 4f a4 f9 3d 6c cd 86 3d 61 cd a8 bd 48 1d 82 bd
       0.121895425 0.0658215 -0.08242298 -0.06353241
000320 9d 5a e0 bc 42 04 71 bd 24 b5 5a bd 33 e5 86 be
       -0.027386958 -0.05884195 -0.053395405 -0.2634674
000330 cf a2 c4 3d 67 96 89 3c 25 82 2d be 66 67 b3 3d
       0.09601366 0.01679535 -0.16944177 0.08759956
000340 ea 38 06 3d 77 cf 31 bd ae 6b b1 bd ce 23 ce bd
       0.03276912 -0.043410745 -0.086631164 -0.10065423
000350 ae d7 57 bd b7 2f 76 be c5 75 9a bd f0 19 92 bc
       -0.052695923 -0.2404164 -0.07541994 -0.017834634
000360 42 e2 d0 3d 62 74 3f be 79 7d 8f bd 44 30 17 be
       0.10199405 -0.1869674 -0.07006354 -0.14764506
000370 d0 7e f5 bd c8 46 bb 3d f3 cd 91 3c 5b c9 31 3e
       -0.11987078 0.0914436 0.0177984 0.17361967
000380 90 bc 91 bd 58 2b b7 bb f3 fd 18 be 23 a1 c6 3d
       -0.071160436 -0.005589884 -0.14940624 0.09698703
000390 c1 1c 76 3d a0 94 13 3d 48 50 0e 3d 0b 03 5b 3d
       0.060086016 0.03603041 0.03474453 0.0534697
0003a0 e9 60 9b bb 78 70 43 3c c2 d5 33 bd d7 5d 98 be
       -0.004741777 0.01192867 -0.043905027 -0.29759094
0003b0 f9 73 f6 3c 43 cd dc bd 7a b6 89 3c 1b 72 45 be
       0.030084597 -0.10781338 0.016810644 -0.19281809
0003c0 85 9c 8d bd d4 a3 d0 bc d5 c2 5e bd 2f a7 d8 bd
       -0.06914619 -0.025468744 -0.054385025 -0.10578763
0003d0 eb d8 6d 3d 98 78 61 bd f6 17 c4 3d 5d 80 bc ba
       0.058068197 -0.055046648 0.09574883 -0.0014381517
0003e0 d2 29 3c be 2a fb 37 3e e7 6f c4 3d ae bc a2 3c
       -0.18375328 0.17966905 0.09591656 0.01986536
0003f0 ca dd 14 3b 6e 7b 35 bd 87 dc da bd 8c 17 d8 bd
       0.0022715204 -0.044307165 -0.106865935 -0.10551366

fc2.bias f4 [300]
000000 31 e6 f3 bc a3 b9 f9 bb 74 b1 fb 3b 39 ff fc 3c
       -0.02977285 -0.0076210066 0.007681066 0.030883418
000010 6a 5c c3 3c 67 bd 99 bc 78 1d 64 3c 2a 71 81 bb
       0.023847777 -0.018767072 0.0139230415 -0.003950258
000020 37 ab 33 bc 76 d0 4a 3c 4a 87 ee 39 16 c1 2e bd
       -0.010966114 0.0123788025 0.00045495696 -0.04266461
000030 f3 a9 4c bc ff fb 82 3d 1f c9 83 bd 06 9b 13 bc
       -0.012491691 0.06395721 -0.06434845 -0.009009128
000040 3d 83 ea 3c ab 01 64 bc 1b ff 50 3d 2c 1f 9b bc
       0.028627032 -0.013916413 0.051024538 -0.018935762
000050 db 07 d7 3c 63 46 dc bc e6 c5 67 bd 66 56 da bc
       0.026248863 -0.026889032 -0.056585215 -0.026652526
000060 2b c7 a8 3c f6 58 5a 3d 6d 40 1e 3d 45 de 26 3c
       0.020602783 0.053307496 0.03863566 0.010184829
000070 b6 34 89 3d 1b ae bd bc a8 a4 ec bc ab 5f 44 3d
       0.06699507 -0.023154309 -0.028887108 0.0479428
000080 ee df 27 3d 2b 43 d0 3c 22 49 08 bc 67 e9 0b bd
       0.04098504 0.025422653 -0.0083182175 -0.034158137
000090 29 52 34 3d e3 2d 94 bc f7 f3 33 3c b2 e0 17 bd
       0.044023667 -0.018088287 0.010983459 -0.03707952
0000a0 2d 7f b8 3a 72 48 91 3b 9c d8 c9 bc 59 f6 ad 3b
       0.0014075987 0.004433685 -0.02463942 0.005308908
0000b0 a5 18 35 3c ce 29 61 3c ec af c9 3c 24 fe 0c bc
       0.011053239 0.013742877 0.024620019 -0.008605514
0000c0 86 db 62 bd be 1c 2b 3d 00 0c c7 bc 3f b5 99 bb
       -0.055385135 0.041775458 -0.024297714 -0.0046907957
0000d0 46 c7 7f 3c e2 2d eb 3c f4 50 1b 3d 57 5f 22 3c
       0.015611475 0.028708402 0.037919 0.009910426
0000e0 2d 80 19 bd b9 fc 24 bd b4 3e 2c 3c 05 61 b3 bc
       -0.037475754 -0.040280078 0.010512996 -0.021896848
0000f0 20 7a 2a 3d a7 77 e3 3c 77 5d 8c 38 60 c1 70 3d
       0.041620374 0.027767016 6.6931294e-05 0.058778167
000100 a9 eb db bb 88 04 18 3d 65 85 85 3d 62 dc a0 3d
       -0.0067114425 0.037113696 0.065195836 0.07854535
000110 a3 5f 3a bd 56 f8 a0 bc 3a aa cd 3c 19 da ab bd
       -0.045501363 -0.019649666 0.025105584 -0.08391208
000120 1b 32 c9 3b 30 2a c6 3d be c5 16 3b 7d 9f f7 bd
       0.0061400062 0.096760154 0.0023006047 -0.12090967
000130 5b c1 07 3d 96 7c d6 bc fc 8f 83 3c 03 0e fb bc
       0.033143383 -0.026182454 0.016059868 -0.03064633
000140 f0 71 8a 3d 04 32 96 bc e1 01 3b 3d bb ce 7e bc
       0.06760013 -0.018334396 0.04565609 -0.015552218
000150 39 04 2c 3b cb 8d 12 bd 20 6a 21 3c d9 da c2 bc
       0.0026247634 -0.035779756 0.009851962 -0.023785995
000160 f7 f4 bf bc 7b 11 2d bd 1b 10 46 3d db c6 0a 3d
       -0.023432238 -0.042253 0.048355203 0.03388105
000170 8f 58 0b 3d 03 d1 bf bc c1 5f 19 3d f8 d3 48 bd
       0.034020003 -0.023415094 0.037444834 -0.049030274
000180 92 f6 8d bd ac 59 21 bc bb 98 c1 3c 30 16 59 3d
       -0.06931795 -0.00984804 0.023632398 0.052999675
000190 1e e5 cf bc 7f ff fb 3c d2 3c 2d 3c 09 84 fd 3c
       -0.025377806 0.030761478 0.010573583 0.030946748
0001a0 7c bf 0d bd 2b 94 0d 3d 8a 6f 9c bd 8e 9a 8c 3d
       -0.03460644 0.034565132 -0.07638462 0.068654165
0001b0 36 c2 31 bd 32 e2 69 3d 4b 62 75 bb 0d 92 2c 3d
       -0.043398105 0.057100482 -0.003744262 0.042131472
0001c0 ca 99 3e 3d b6 e3 f0 3c 1e ed b4 bd 49 76 d9 3b
       0.046533383 0.029405456 -0.08834289 0.006636415
0001d0 a2 d7 99 3b 7f 12 2c 3d 88 b2 c3 bc aa bd 82 3b
       0.004694895 0.042009827 -0.023888841 0.003989895
0001e0 f6 9d 18 3d 42 30 98 3d b7 db 86 bc 82 6c 1a 3d
       0.03726002 0.074310794 -0.01646219 0.037701137
0001f0 02 49 0a 3d 95 1e 13 3d 41 10 5d bd cc 87 35 bc
       0.033761032 0.035917837 -0.05397058 -0.01107974
000200 8b 85 39 3c 8a 20 eb bc 21 4f 1b bc 66 bd 8e 3c
       0.011323343 -0.02870204 -0.009479315 0.017424297
000210 62 e1 5a ba 3e e9 25 3d 31 93 95 bd 91 9c ba bc
       -0.00083496247 0.04050564 -0.07303465 -0.022779735
000220 3e 97 1b 3d 2e 99 e1 bc af e4 0c 3d 06 84 5b bd
       0.037986033 -0.027538862 0.034397777 -0.053592704
000230 05 9a c7 3d 99 68 f6 3c ad 9d 31 3d 7c b2 03 bc
       0.09746174 0.030079173 0.043363262 -0.008038159
000240 85 11 8b 3d d4 5b 23 bc 7e 69 d0 3b f6 ef 37 3d
       0.06790451 -0.009970624 0.006360232 0.04490658
000250 01 e6 71 3d 04 9e 80 3a ff 79 73 bc 51 4f 3b bc
       0.05905724 0.0009812717 -0.014860629 -0.011432485
000260 c0 5b 64 bc 67 f1 dd 3d 9c ed bf bc b8 4f e9 bc
       -0.0139378905 0.108370595 -0.02342873 -0.028480396
000270 2f b3 25 bc a9 2f 98 bb f6 0c 6f 3d b0 fe 91 3c
       -0.0101135215 -0.0046443534 0.05836197 0.01782164
000280 42 c9 62 bd c4 c9 82 bd 08 2c 72 3d 38 43 46 3d
       -0.055367716 -0.0638614 0.059124023 0.04840395
000290 e1 54 c3 bc 64 69 13 bd 9b 55 41 bc 26 20 84 bb
       -0.023844184 -0.03598918 -0.011800195 -0.0040321527
0002a0 ec 8b 52 3a 56 59 9e bc 1e 26 dd bc e6 b6 ef bc
       0.0008031714 -0.019329708 -0.026995715 -0.029262017
0002b0 f7 fa 5d bc 6c da e6 bd 1c 34 98 bd 5d 94 a8 bd
       -0.013548604 -0.112721294 -0.07431814 -0.08231423
0002c0 89 3d d1 3c b3 d4 12 3d 0a c7 79 bd 4c f4 73 3d
       0.025542038 0.035847377 -0.060980834 0.05955915
0002d0 70 6a df 3c 9c c4 ec 3c 3d 3c 19 bd fa 3a 5b bb
       0.027272433 0.028902344 -0.037410963 -0.00334519
0002e0 eb 83 f4 3d 34 b1 0e bd e9 2c 52 bd b0 1c 31 3d
       0.11939224 -0.034836963 -0.05131236 0.04324025
0002f0 ef 78 86 bc db 43 7d bc 1d aa d8 bd b3 b3 34 3d
       -0.016415088 -0.015458073 -0.105793215 0.044116687
000300 e9 2f 44 3c cb fb 13 bd be f3 96 bd d6 c3 da b7
       0.011974313 -0.0361288 -0.07370709 -2.6078818e-05
000310 23 a3 f4 3c 58 a0 4c bc 46 7a 7e bd 3a 0b 0c 3d
       0.029862946 -0.012489401 -0.062128328 0.034190394
000320 8f d2 99 3b f3 2d 0d bd 25 16 8a bc 3a 33 f4 bc
       0.00469429 -0.03446765 -0.016856262 -0.029809583
000330 55 4b 6c 3a 6b df 8f 3c cc f0 34 3c 97 90 83 bd
       0.0009013911 0.017562589 0.011043739 -0.06424063
000340 d0 d4 b9 3d cd 92 10 3d 51 f0 9e 3c 4d 38 52 bd
       0.09073794 0.03529625 0.019401701 -0.051323224
000350 b7 8d f0 bc 76 37 47 3c d1 06 19 bc ae c9 96 bc
       -0.02936445 0.012159219 -0.009340004 -0.018406715
000360 ad 30 ce 3d 9e cb 2d bc 2c 94 1e bc d6 25 eb 3b
       0.10067878 -0.010607628 -0.009678882 0.0071761413
000370 06 b7 ef bc 51 c2 54 bd 5c 3e 4e bb 9c 4e 64 bc
       -0.029262077 -0.051943127 -0.0031470275 -0.013934758
000380 3c ca 1e bd 88 62 1e bc bc 6c 6e 3d df 1c 0f bd
       -0.038767084 -0.009667046 0.058209166 -0.034939643
000390 ee b8 99 bc 92 48 58 bc 6d 8c 1c bd 45 df 17 3e
       -0.01876494 -0.013200896 -0.038219858 0.14831264
0003a0 9c 5b 12 3d 17 18 a6 bc 5d 36 1d 3b 7f 15 53 bd
       0.035731897 -0.020275159 0.0023988702 -0.051534172
0003b0 fd cb 7c bd 05 be f7 3c 36 97 f3 bc 92 2d 2c 3b
       -0.061717976 0.030241976 -0.029735189 0.002627228
0003c0 28 00 65 bd 28 bb 89 3d 6c 8b e7 bc 14 36 e7 3c
       -0.055908352 0.0672515 -0.028264724 0.028224029
0003d0 82 cf 30 3d bc c8 12 bd b1 f5 d1 3c 76 7c e4 3a
       0.043166645 -0.035835966 0.02562985 0.0017432112
0003e0 6b 13 85 bd c9 66 e7 3c e5 7c ea 3c 38 18 57 3d
       -0.06497844 0.028247254 0.028624007 0.05251333
0003f0 9d 80 0e bd 4c c6 ad bb d2 d6 43 3d 7e 86 87 3d
       -0.034790624 -0.00530318 0.04781229 0.06617449

fc3.weight f4 [4, 300]
000000 07 6a ae be f4 69 ec 3b 2b 09 16 bd 1e a3 12 be
       -0.34065267 0.007214779 -0.036629837 -0.14320037
000010 10 de 08 be d1 c2 24 3e 31 be 96 be 2c e0 7c bd
       -0.1336596 0.16089942 -0.2944198 -0.061737224
000020 bf 82 91 3b 38 6b 73 bc df fc 1c be ee b3 5d be
       0.004440635 -0.014857106 -0.15330838 -0.21650669
000030 69 b7 0c bf 1c 10 82 3c 9e c1 bb 3e 7b 5b bc 3e
       -0.5496736 0.015876822 0.36671156 0.36788544
000040 92 14 80 3d b6 5e 1e 3e ef be f1 bd 15 88 0d 3e
       0.062539235 0.15465817 -0.11803996 0.13821442
000050 57 73 c6 3d 96 44 6b bd ff 50 1a bd a6 c7 5b b8
       0.09689968 -0.057438456 -0.0376749 -5.2399606e-05
000060 01 72 b5 3d 5b 40 44 3e ab 09 4c bc be 8c 82 bc
       0.08859635 0.19165175 -0.012453477 -0.015936252
000070 b1 21 bc 3d 7b db 52 be 65 41 32 3e 8c b8 46 bd
       0.091861136 -0.20591538 0.17407759 -0.04851584
000080 7e f3 82 3e c2 0c c7 3d fc 83 c3 be 9e 8e ed bd
       0.25576395 0.0971923 -0.38186634 -0.11599468
000090 4f 1a 4e be 89 de e7 bd d2 3f 32 3b f5 34 51 3e
       -0.20127223 -0.11321742 0.0027198684 0.20430358
0000a0 c5 ba e3 bc 26 94 24 3d 3e cf 7b be 7c a4 f7 bd
       -0.02779902 0.040180348 -0.24590775 -0.1209192
0000b0 ec 1b 00 bd cc a2 43 be aa 36 c1 bc 59 c0 b0 3e
       -0.03127663 -0.19105071 -0.023585636 0.3452175
0000c0 c6 7a 73 bd a6 e0 70 3e 5f ad 42 be e0 f1 0e be
       -0.059443258 0.23523197 -0.19011448 -0.13959455
0000d0 81 f0 96 bd 9d 4a 04 3d 72 dd 7d be 4f 97 21 bd
       -0.07370091 0.03229772 -0.24791506 -0.03945094
0000e0 d4 a6 27 be e9 36 ce be e0 da 24 be 6b a3 3c 3d
       -0.16372234 -0.40276268 -0.16099119 0.046054285
0000f0 82 c8 f1 be 78 e2 28 be b7 0b 4d bd 17 52 87 bd
       -0.47223288 -0.16492641 -0.05006 -0.06607454
000100 cb e3 2d bc dd 9b 3e be 44 54 7f bd 16 3b 50 3d
       -0.010613392 -0.18614145 -0.06233622 0.0508376
000110 be 60 14 be bd 28 20 3e 15 22 7b 3d 6b 12 77 3e
       -0.14490029 0.1564054 0.0613118 0.2412812
000120 b9 64 24 be 80 cb 99 be da 93 f2 bd 6e df 8f 3e
       -0.16054048 -0.3003807 -0.11844607 0.2810015
000130 07 54 15 bd fd 84 10 be 0c 9e cc 3e c8 8b 59 3e
       -0.036457088 -0.14113231 0.3996433 0.21244729
000140 0b ff d4 3d f1 b5 56 be 23 07 09 be 10 42 87 bd
       0.10400208 -0.20967843 -0.13381629 -0.06604397
000150 be 4a 27 3d 1f 7d 2b 3e 33 8d 1d 3e d9 5d 6e be
       0.040842764 0.16746949 0.15385894 -0.23277988
000160 ac 5d 8d 3b 75 0c 8d 3e 65 6c 04 3d 45 37 bb bd
       0.004314145 0.27548566 0.032329936 -0.09141401
000170 14 86 89 3e 18 f9 46 3e 6a 30 e5 3e dc 3e c3 bc
       0.26860106 0.19430959 0.447635 -0.023833685
000180 3b 35 46 be 72 41 19 3e 49 4a 87 be 4f 8a e0 be
       -0.19356243 0.14966372 -0.26423863 -0.4385552
000190 e7 82 09 3e 05 f5 fe be 8a d1 f1 3d 07 be a8 be
       0.13428842 -0.4979631 0.118075445 -0.3295748
0001a0 9e 0a a1 3e 84 b9 88 3e 91 07 f7 bc 42 71 93 be
       0.31453413 0.26704037 -0.030154975 -0.28797346
0001b0 db c5 bb be d7 59 56 bd a7 3c 06 be 5d 00 95 bc
       -0.3667439 -0.05233177 -0.13109075 -0.01818865
0001c0 83 ed 5e bd 15 e7 1c be c4 3e e4 bd ee e4 8a be
       -0.054425728 -0.15322526 -0.11144784 -0.27127784
0001d0 5f fe ca 3d a3 d5 95 bd 9d c9 4f 3d df dd 91 be
       0.09911799 -0.073161386 0.050729383 -0.28489587
0001e0 23 d3 9e 3e 99 fe 5d 3d c0 fb 72 be 21 7c a0 bc
       0.3102046 0.05419788 -0.23728848 -0.01959044
0001f0 22 ac 2e be 4f d2 02 be d1 e9 03 be 3b b0 a7 3e
       -0.17057851 -0.12775539 -0.12882163 0.3275164
000200 20 80 f0 be 62 e1 9d be f4 c8 f8 bd 5c ac 91 be
       -0.46972752 -0.30836016 -0.12147704 -0.28451812
000210 40 7a bc 3d 72 a1 1b bd b8 ab 0c 3e 71 2c f2 3d
       0.09203005 -0.037995763 0.1373738 0.11824883
000220 91 ea 68 3e c5 29 6e 3d a2 d8 04 3e 49 e4 12 3e
       0.2274573 0.058145303 0.12973264 0.14344896
000230 2b eb 00 be 34 f5 c6 bd ea 01 02 3d 88 a3 00 3d
       -0.1258971 -0.097147375 0.031740107 0.031405956
000240 c9 48 f2 be 0a df 8f bd 1e b8 1b 3d 93 43 06 be
       -0.47321156 -0.07024963 0.038017385 -0.13111715
000250 c9 f8 b3 3e 06 ff d5 bd 18 ee 48 be 62 3d 01 bc
       0.35150746 -0.104490325 -0.19622076 -0.00788817
000260 65 21 62 bd bc c3 36 3e bd c9 a7 be f9 d7 af 3d
       -0.05520763 0.17848104 -0.32771102 0.085861154
000270 85 10 72 3e ff 8e 0b bd 30 9d 90 3e 24 c4 de 3e
       0.23639114 -0.03407192 0.28244925 0.43509018
000280 bd 90 1d 3e 20 57 22 3d 2b 3e f9 3d c4 7c a3 3b
       0.15387245 0.03963387 0.12170061 0.0049892385
000290 05 15 f6 3d e5 f3 0b be aa 69 78 bd fd e9 fe bd
       0.12015728 -0.13667257 -0.060647644 -0.124469735
0002a0 8c d8 97 3d af bb a1 3d 43 bd 03 3e ff c6 e8 3e
       0.0741435 0.07897126 0.12865166 0.45464322
0002b0 90 7f 6d 3e 27 a6 48 3e 71 8b a8 3e 52 19 e7 3d
       0.23193192 0.19594632 0.32918885 0.11284126
0002c0 6b 33 a1 bd 65 93 d5 3e 64 e1 0a bd 54 ba c6 3e
       -0.07871135 0.41714016 -0.033906356 0.38814032
0002d0 13 d1 43 bd 0a 22 6a be e7 d4 18 3e 8b 0c 48 bd
       -0.04780681 -0.22864547 0.14924966 -0.048840087
0002e0 f2 bc b6 3e ba d9 0c bd f8 67 43 bd 6a ec fb bc
       0.3569103 -0.034387328 -0.047706574 -0.03075238
0002f0 d1 50 6c 3e ed a4 bd 3d 6d 65 b4 3c b1 9d e4 bd
       0.23077704 0.09259973 0.02202102 -0.1116289
000300 3d 4c 3b 3c 1a 1f e1 3b 1e 8e 07 3f c8 ab 80 bc
       0.011431751 0.0068701627 0.5295123 -0.015706912
000310 90 cf 47 bd 6c 00 50 be e2 fd f1 be 06 cc a5 3e
       -0.04878193 -0.20312661 -0.4726401 0.3238222
000320 05 9b 14 3e b8 2b 22 bd 67 ba c0 3e 8e d7 4d bd
       0.1451226 -0.039592475 0.37642214 -0.050254397
000330 36 71 a1 bd 4e 75 b3 3e 01 e3 3d be b8 a8 17 3c
       -0.078829214 0.35050434 -0.18543626 0.009256534
000340 19 57 3b be 04 88 93 3d be da d5 be 2b 0f 15 bf
       -0.18294944 0.07203677 -0.4176845 -0.5822627
000350 d6 a8 83 bd 89 06 aa bc d8 69 23 bd d0 28 0c be
       -0.06428687 -0.02075507 -0.039895862 -0.13687444
000360 da 92 27 3f 09 de 8d be 9f 29 23 be 29 8a 1d be
       0.6545845 -0.27708462 -0.15933846 -0.15384735
000370 db 00 b9 bd 7a c2 eb 3e 9b 44 5f 3e 98 3b 42 3e
       -0.09033366 0.4604681 0.21803515 0.18968046
000380 d7 47 4b 3f 41 7a 02 3d ce c3 03 bd 8c c5 8f 3e
       0.79406494 0.03185487 -0.032169156 0.28080404
000390 fd 93 89 3e 5c 8b 62 3e c6 30 3e bd 69 a0 bb be
       0.2687072 0.22123474 -0.046433233 -0.3664582
0003a0 d1 1e 56 bd 54 55 a1 3e 38 db b3 3e 82 ce c5 3e
       -0.052275483 0.31510413 0.35128188 0.38634115
0003b0 8e 51 63 bd d3 53 52 bd 8c 5a 3e 3d b9 12 2a 3d
       -0.0554977 -0.051349472 0.04647307 0.04152176
0003c0 0c 42 27 3e 83 7b e3 bd fb 98 6d be 69 4b 43 3d
       0.16333789 -0.11107542 -0.23202889 0.04767934
0003d0 ca 0a 94 3d 9f c6 80 3d 3b dc 81 be fb ef fe 3d
       0.0722862 0.06287884 -0.25363335 0.124481164
0003e0 95 14 d1 3e 37 f6 db 3c 60 38 25 bd 26 1c 32 3c
       0.40836015 0.026850803 -0.040336967 0.010870969
0003f0 64 40 bb bd 62 99 d7 3d fa f7 c2 3e bf c3 d4 be
       -0.09143141 0.10527302 0.38079816 -0.41555592

fc3.bias f4 [4]
000000 75 11 44 bd bf 8b 2d bc 13 a7 0e 3d f7 9e a8 3c
       -0.04786821 -0.0105924 0.034827303 0.020583613
