checkpoint_critic_2_1.pth (torch_old, 187375 bytes, 5 tensors)

fc1.weight f4 [256, 52]
0.34544533 2.2205253 -0.03852212 0.40346816 -0.6602579 0.053228233 -0.032503653 0.3985356
0.69386584 2.7652667 -0.037379183 0.5279959 -0.56225955 -0.7215329 -0.069770195 0.58379596
1.4645458 2.8549635 -0.04715681 -0.045616437 -0.2904158 -1.6380963 -0.08260561 -0.11987394
-1.0821626 -1.5722971 0.037213933 -0.012031533 0.56589484 0.04659153 -0.0038161718 -0.08159828
-0.78736264 -1.8009496 0.015341085 -0.05710099 0.48773864 -0.7754774 -0.05298916 -0.07927326
1.7829888 -2.3417876 -0.04633453 -0.035828076 0.26270786 -1.6085904 -0.11069726 -0.08958092
-0.11024634 3.08116 3.7903652 0.4801092 -0.4028363 -0.11587862 -0.10040455 -0.030173773
0.42733705 -1.7917725 -0.067072436 0.03760203 0.11178164 -0.34357408 -0.022916516 -0.42959782
0.66688144 -1.4626267 -0.060639944 -0.42531326 0.44966868 -0.27076182 0.10547504 0.8749608
1.0722266 -1.6841348 0.17213431 0.9553577 1.6092801 0.3642676 -0.08244057 0.47535998
-0.4578593 -1.823142 -0.018831475 0.48218122 2.254976 0.47228134 -0.17961033 -0.025079772
-0.65165174 -1.3875426 -0.24954472 0.069125086 3.7681506 0.41701016 0.08640328 0.108427696
-1.0313773 -1.5834407 0.112726375 0.063360736 0.85025793 -1.4914467 -1.476691 -2.674328
-0.042598896 0.3407123 0.025330367 0.9868863 0.22870463 0.060484182 0.044944473 0.9856959
0.12225304 0.63974196 -0.20114923 0.33640337 0.30124632 -1.3218949 -0.09588311 0.3238294
0.5421424 0.9934725 0.03949275 1.4088898 0.08984928 -1.7943285 0.045324188 1.3292049
1.97712 1.7569622 -0.115890555 -0.25979465 -0.270264 -0.056086972 -0.12739718 -0.2232752
0.40754002 1.6163679 -0.13098545 -0.1819826 -0.30010015 -1.394399 -0.19672194 -0.23717795
1.4875573 1.239192 -0.04179803 -0.13700195 -0.043351304 -1.720929 -0.054614194 -0.15613589
2.5495448 3.9192324 -5.095127 -0.45308307 -0.40505686 3.0782046 -0.07413813 0.19342108
-0.2277402 0.17560118 0.035572603 0.16965985 -0.49954474 3.7105784 0.0133415675 0.1413981
0.48922634 -0.46110272 -0.042079028 0.22072995 -0.5104811 3.585061 -0.08864434 0.81729406
0.72814435 -2.5975344 -0.09834487 0.8062552 -0.21631062 0.30552006 0.028261183 -0.0877589
0.2829418 0.20800287 0.0010998673 -0.05328724 -0.08307586 0.255175 0.0034577572 -0.027945537
-0.3849411 -0.50228477 -0.03985864 0.014427396 0.53321123 0.4270297 -0.04559502 0.1154398
-0.7196361 -2.5925777 0.03485575 0.14793855 1.865119 2.1593604 0.2541274 0.25569898
0.10662508 0.1618454 -0.031206012 -0.20881201 0.7774966 0.47247982 -0.10073329 -0.26430878
0.123655766 -0.33902422 -0.08617775 -0.2908138 -0.07600346 -0.9247214 -0.09943111 -0.34552866
0.1462423 -0.063844346 -0.08054333 0.31455517 -0.67506325 -2.8877175 -0.089318275 0.352357
-0.28343445 2.43514 0.012693852 0.13499695 -0.7818253 0.52972853 0.06981472 0.16568683
0.04145012 2.5774112 -0.15332891 0.41665637 0.09001095 -1.0332083 -0.081911884 0.384963
0.61621493 3.0653164 -0.10039483 0.07685747 0.6748267 -2.9233932 -0.10049052 0.13787358
00000000: 36de b03e 161d 0e40 5fc9 1dbd 6193 ce3e
00000010: a906 29bf d905 5a3d 8d22 05bd dc0c cc3e
00000020: 31a1 313f 21fa 3040 ea1a 19bd bd2a 073f
00000030: 3ef0 0fbf 61b6 38bf ade3 8ebd a773 153f
00000040: 3d76 bb3f b9b7 3640 8027 41bd 4dd8 3abd
00000050: 61b1 94be 24ad d1bf 212d a9bd 7880 f5bd
00000060: 4e84 8abf 0841 c9bf a36d 183d e81f 45bc
00000070: 7cde 103f c3d6 3e3d bd18 7abb 001d a7bd
00000080: 9990 49bf 8485 e6bf 2d59 7b3c bae2 69bd
00000090: e1b8 f93e b085 46bf 290b 59bd 055a a2bd
000000a0: fa38 e43f d9df 15c0 47c9 3dbd 76c0 12bd
000000b0: a581 863e 4ae6 cdbf 3fb5 e2bd 3476 b7bd
000000c0: d5c8 e1bd ba31 4540 5895 7240 e0d0 f53e
000000d0: 8f40 cebe c551 edbd e7a0 cdbd fd2e f7bc
000000e0: eccb da3e cd58 e5bf 465d 89bd 9604 1a3d
000000f0: c6ed e43d f1e8 afbe 6bbb bbbc 3ff4 dbbe
00000100: beb8 2a3f 5a37 bbbf 9761 78bd a9c2 d9be
00000110: f93a e63e 4ba1 8abe 4c03 d83d 6efd 5f3f
00000120: b93e 893f bb91 d7bf fa43 303e 5292 743f
00000130: e4fc cd3f 4881 ba3e 9ad6 a8bd 6262 f33e
00000140: 896c eabe b85c e9bf 7744 9abc 75e0 f63e
00000150: 8751 1040 dcce f13e c5eb 37be 1874 cdbc
00000160: a6d2 26bf ff9a b1bf a788 7fbe 7491 8d3d
00000170: 6129 7140 5b82 d53e 34f4 b03d 570f de3d
00000180: 2c04 84bf 2fae cabf 16dd e63d 46c3 813d
00000190: 81aa 593f bae7 bebf 3604 bdbf 3128 2bc0
000001a0: 2e7c 2ebd d871 ae3e a181 cf3c 95a4 7c3f
000001b0: 8c31 6a3e 43be 773d b217 383d 9156 7c3f
000001c0: cd5f fa3d 21c6 233f 10fa 4dbe 103d ac3e
000001d0: f53c 9a3e da33 a9bf 5d5e c4bd f8cc a53e
000001e0: d8c9 0a3f 3754 7e3f 26c3 213d 8056 b43f
000001f0: e602 b83d 8eac e5bf dba5 393d 6323 aa3f
00000200: 4512 fd3f 23e4 e03f 0758 edbd ce03 85be
00000210: 0b60 8abe 74bb 65bd 6874 02be 41a2 64be
00000220: 16a9 d03e 25e5 ce3f 0d21 06be a659 3abe
00000230: baa6 99be ab7b b2bf 7a71 49be c7de 72be
00000240: 4768 be3f d89d 9e3f 6934 2bbd 3d4a 0cbe
00000250: 2391 31bd 6747 dcbf 22b3 5fbd 16e2 1fbe
00000260: be2b 2340 b4d4 7a40 480b a3c0 81fa e7be
00000270: 9d63 cfbe 4e01 4540 bbd5 97bd 2d10 463e
00000280: ba34 69be ccd0 333e 94b4 113d 50bb 2d3e
00000290: 54c4 ffbe 1e7a 6d40 9796 5a3c aaca 103e
000002a0: e07b fa3e a815 ecbe 0f5b 2cbd 0807 623e
000002b0: e4ae 02bf a471 6540 2a8b b5bd 2f3a 513f
000002c0: ab67 3a3f 013e 26c0 0969 c9bd be66 4e3f
000002d0: 8880 5dbe 206d 9c3e ff83 e73c f0ba b3bd
000002e0: bfdd 903e b4fe 543e 6c29 903a b943 5abd
000002f0: ad23 aabd 4ca6 823e 8a9b 623b 0aee e4bc
00000300: 0017 c5be bc95 00bf d042 23bd e260 6c3c
00000310: 8880 083f a3a3 da3e d8c1 3abd b46b ec3d
00000320: 123a 38bf cbec 25c0 e7c4 0e3d 347d 173e
00000330: 38bc ee3f f632 0a40 fd1c 823e faea 823e
00000340: 405e da3d cdba 253e c0a3 ffbc d1d2 55be
00000350: 040a 473f e0e8 f13e 414d cebd 7b53 87be
00000360: 3c3f fd3d 9594 adbe f67d b0bd 8ce5 94be
00000370: b4a7 9bbd 8bba 6cbf 8aa2 cbbd 22e9 b0be
00000380: 8bc0 153e d3c0 82bd e7f3 a4bd 600d a13e
00000390: f2d0 2cbf 5dd0 38c0 80ec b6bd 2368 b43e
000003a0: 521e 91be 55d9 1b40 e0f9 4f3c a43c 0a3e
000003b0: b425 48bf 4a9c 073f 05fb 8e3d cfa9 293e
000003c0: 9ac7 293d 4ef4 2440 4102 1dbe fc53 d53e
000003d0: a957 b83d 2b40 84bf 6bc1 a7bd df19 c53e
000003e0: 43c0 1d3f 252e 4440 ce9b cdbd 7367 9d3d
000003f0: 71c1 2c3f e018 3bc0 f9cd cdbd bb2e 0d3e

fc1.bias f4 [256]
-0.820303 -2.330295 -1.437942 -1.2653698 -1.699487 -1.1833175 -2.6179833 0.34239832
-1.9108006 -4.0881166 -3.4826102 -1.3375602 -1.4807854 -1.0300885 2.0263753 -0.48388365
-0.45924982 -2.612204 -0.22263667 -1.4277102 -0.6318281 -1.5094503 -0.26330143 -1.547244
-2.700737 -0.17504957 -0.7015579 -0.48328373 5.026339 -1.1143935 0.5843524 -1.5994115
3.638496 -1.9742911 -2.0425308 -1.2108763 -0.37026465 -3.5406213 -1.23646 -1.977296
-2.4407537 -1.4539009 -1.8763531 -1.5163718 -1.231701 -1.5193318 -2.2271352 -0.8558069
-1.2691456 -1.4614508 0.7977828 -1.1750405 -2.2213895 -0.99742806 -0.5404763 -3.6785402
-1.1586684 -0.15807198 -1.9172533 -0.6903869 -1.4936839 0.89460355 -0.69657344 -0.9484844
-2.609991 -0.9598644 -2.8619862 -1.9717507 0.26538065 -1.4169468 -0.88582003 -2.7821867
-2.7659354 -0.8201231 -1.9207522 -2.3514638 0.5680729 -1.2244576 -0.55007756 2.3968134
-1.5568384 -0.48112896 -2.2933853 -0.025317535 -0.9298707 -0.63941276 -1.7584703 -1.4562012
-4.931294 -1.1772478 -0.08991346 -0.23213595 -1.8449806 -2.7876575 -5.0946994 -1.8722744
-2.1512983 -1.8245429 -0.41053683 -2.4003885 -1.9628222 0.14145698 -0.99987173 -2.4237113
-0.59176445 -0.82204384 -1.966845 -3.6563816 -2.372119 0.8656988 0.37861523 -4.264928
-1.8285036 -1.9169661 0.071377665 -1.5496469 -1.1571641 -2.555173 -1.5294873 -0.552053
-3.0521889 -0.9299188 -1.27048 -1.5132864 -0.93755805 -1.6753806 -0.13712084 -1.1253477
-0.2720854 -1.972495 -3.7859116 -3.239122 -1.4849497 -3.5791705 -1.4119565 -0.9232939
-1.0087099 -1.3118653 -2.4685671 -0.8694972 -3.4052029 0.8515118 -1.9752345 -0.96770865
-1.0908517 -1.4473064 -0.7886484 -1.2586644 -3.9959364 -1.4234393 0.3433246 -0.16063
-1.3254141 -1.0072917 -0.8606394 -1.5156692 -2.6038394 -2.2882311 -1.2277538 -0.9600683
0.22522345 -1.550955 -0.47705296 -1.5258654 -1.9922117 -1.4739339 1.4307522 -1.8648012
-1.4173621 -0.5734567 -2.450163 -0.25382325 -1.7199086 -2.0444705 -0.81346864 0.005429241
-0.13596098 -0.86249644 -0.2996552 -1.4767545 -0.17966107 -1.6370826 -0.394556 -1.1181241
-0.6167095 -0.97563845 -1.7612753 -0.68276584 -1.5949917 -0.716201 -0.55635804 -2.848284
-0.76222813 -0.33181027 -0.95656586 -1.2044529 -1.3564028 -1.1910466 -1.3625579 -0.52039534
-2.5477254 -2.5317087 0.30668145 -2.494788 -0.6076478 -1.0752169 -2.4144762 -3.324844
0.190055 0.81606 -1.4893979 -2.3559058 -1.4169517 -3.6612377 1.1994734 -1.1989266
-1.1014249 -2.1754823 -1.8899764 -0.55710036 -5.0081286 -2.2163413 -1.7810606 -0.83960897
-1.4879348 0.3941132 -1.0464585 -0.6396129 0.05885777 -1.7125798 -2.6913137 -3.7458048
-1.0851575 -1.7053356 -0.19084789 1.3867104 -2.290284 0.3254389 -0.17841844 -2.2644718
-2.0677254 -1.8080578 0.8396696 -1.9461819 -1.6963328 0.3325941 -1.8175546 -2.359176
-7.7404943 -0.006603199 -0.46390605 -0.29468918 -1.2526842 -1.6030558 -2.3915935 -1.859624
00000000: 61ff 51bf 8e23 15c0 7c0e b8bf a3f7 a1bf
00000010: ca88 d9bf f376 97bf 0a8d 27c0 d54e af3e
00000020: 1d95 f4bf dad1 82c0 16e3 5ec0 2c35 abbf
00000030: 608a bdbf f1d9 83bf 22b0 0140 99bf f7be
00000040: cb22 ebbe 5a2e 27c0 defa 63be 35bf b6bf
00000050: 7dbf 21bf ab35 c1bf 72cf 86be 170c c6bf
00000060: e0d8 2cc0 3240 33be 4c99 33bf f770 f7be
00000070: c5d7 a040 72a4 8ebf 1e98 153f 84b9 ccbf
00000080: 1edd 6840 92b5 fcbf d3b8 02c0 fffd 9abf
00000090: 5493 bdbe 8a99 62c0 5244 9ebf 0918 fdbf
000000a0: 4f35 1cc0 6d19 babf 572c f0bf 7918 c2bf
000000b0: 61a8 9dbf 7779 c2bf 6289 0ec0 2916 5bbf
000000c0: 5d73 a2bf d210 bbbf 7e3b 4c3f ba67 96bf
000000d0: 3f2b 0ec0 7257 7fbf a85c 0abf 346d 6bc0
000000e0: 3f4f 94bf 9fdd 21be 8e68 f5bf 32bd 30bf
000000f0: 0931 bfbf bd04 653f a352 32bf e0cf 72bf
00000100: 180a 27c0 acb9 75bf c82a 37c0 5462 fcbf
00000110: f9df 873e 835e b5bf 1ac5 62bf 590f 32c0
00000120: 1605 31c0 96f3 51bf 35db f5bf 627e 16c0
00000130: 3a6d 113f 07bb 9cbf e2d1 0cbf 6465 1940
00000140: 7b46 c7bf 8956 f6be d3c6 12c0 b866 cfbc
00000150: 020c 6ebf 8eb0 23bf 8e15 e1bf cd64 babf
00000160: 29cd 9dc0 0eb0 96bf 8c24 b8bd 0cb5 6dbe
00000170: 5328 ecbf fb68 32c0 c707 a3c0 b0a6 efbf
00000180: dfae 09c0 9f8a e9bf e231 d2be f79f 19c0
00000190: c23d fbbf 19da 103e 98f7 7fbf 161e 1bc0
000001a0: e07d 17bf 7771 52bf 94c1 fbbf 2802 6ac0
000001b0: ccd0 17c0 709e 5d3f dbd9 c13e 4a7a 88c0
000001c0: 680c eabf 255f f5bf 742e 923d d45a c6bf
000001d0: f41d 94bf f487 23c0 3dc6 c3bf 5853 0dbf
000001e0: 1057 43c0 290f 6ebf 179f a2bf 5eb3 c1bf
000001f0: ce03 70bf df72 d6bf 6869 0cbe 650b 90bf
00000200: c74e 8bbe b77a fcbf 604c 72c0 c64d 4fc0
00000210: d512 bebf 2111 65c0 feba b4bf fd5c 6cbf
00000220: 681d 81bf 34eb a7bf 01fd 1dc0 5e97 5ebf
00000230: d8ee 59c0 adfc 593f 7cd4 fcbf c1bb 77bf
00000240: 07a1 8bbf 5641 b9bf dde4 49bf ea1b a1bf
00000250: 6cbd 7fc0 4233 b6bf 3ec8 af3e 317c 24be
00000260: 2ba7 a9bf efee 80bf dd52 5cbf 7301 c2bf
00000270: 4ea5 26c0 6172 12c0 0927 9dbf 09c7 75bf
00000280: faa0 663e b285 c6bf 4940 f4be 8f4f c3bf
00000290: cb00 ffbf dea9 bcbf e322 b73f ceb1 eebf
000002a0: 1f6c b5bf 0fce 12bf 78cf 1cc0 1ff5 81be
000002b0: f725 dcbf 9bd8 02c0 7b3f 50bf c6e7 b13b
000002c0: 5b39 0bbe 91cc 5cbf 686c 99be 4b06 bdbf
000002d0: 12f9 37be ec8b d1bf 3e03 cabe b11e 8fbf
000002e0: ace0 1dbf 71c3 79bf 7871 e1bf bec9 2ebf
000002f0: b028 ccbf f358 37bf 7b6d 0ebf 494a 36c0
00000300: 6221 43bf 09e3 a9be 80e1 74bf 832b 9abf
00000310: 9b9e adbf 3774 98bf 4c68 aebf a138 05bf
00000320: ef0d 23c0 8407 22c0 5a05 9d3e 9baa 1fc0
00000330: ce8e 1bbf b5a0 89bf c786 1ac0 3eca 54c0
00000340: c79d 423e 4fe9 503f 97a4 bebf 29c7 16c0
00000350: ac5e b5bf b851 6ac0 5888 993f 6d76 99bf
00000360: 7efb 8cbf 1a3b 0bc0 bfea f1bf 219e 0ebf
00000370: 9742 a0c0 89d8 0dc0 cbf9 e3bf 9df0 56bf
00000380: a674 bebf 35c9 c93e 5af2 85bf acbd 23bf
00000390: d814 713d d135 dbbf 7c3e 2cc0 44bb 6fc0
000003a0: 71e6 8abf 7048 dabf a16d 43be ba7f b13f
000003b0: 0394 12c0 ed9f a63e 53b3 36be 1bed 10c0
000003c0: 9d55 04c0 706e e7bf 96f4 563f 7d1c f9bf
000003d0: 6f21 d9bf c649 aa3e a1a5 e8bf bdfc 16c0
000003e0: 21b2 f7c0 a65f d8bb 1885 edbe 80e1 96be
000003f0: f557 a0bf ef30 cdbf de0f 19c0 2908 eebf

fc2.weight f4 [128, 256]
-0.06183953 -0.00791099 -0.08018002 -0.063793726 0.056002047 0.035712745 -0.07482854 -0.09159879
0.005215938 -0.0020618555 -0.09149268 -0.045829255 -0.026203072 0.00022239394 -0.12874706 -0.0067129503
-0.013612657 0.019321814 -0.08997704 -0.08599428 0.021111485 -0.07693813 -0.015353767 -0.04009142
-0.09085782 -0.07322991 0.030939067 0.0557497 -0.10872488 -0.038065966 -0.05184326 -0.08782297
-0.13195172 0.039294064 -0.0067851576 -0.080174364 0.009300936 -0.036492206 -0.053539153 -0.0512646
-0.022025159 -0.08831738 0.019953946 -0.054209415 0.014340977 -0.0061886883 0.06125453 -0.07306868
-0.10946735 -0.0075585963 -0.034694724 0.016320882 -0.018744443 -0.07742149 -0.029220061 -0.053225614
-0.063003086 0.037202872 -0.09679918 0.03837257 0.05290591 0.031177144 -0.06788365 -0.0070922207
-0.006097492 -0.11166209 -0.061985195 0.017611727 -0.0825789 -0.08620344 0.042931702 -0.08476771
-0.06756033 -0.08680413 -0.09132401 -0.04928297 -0.020640172 -0.04848775 -0.06118155 0.009668931
0.042992994 -0.048013642 -0.0315794 -0.051389553 -0.05421026 -0.06360937 0.037793893 0.004334695
-0.12044718 -0.06103732 0.015633121 -0.05021455 0.036853638 -0.00035883245 0.065819286 0.049066663
-0.023813551 0.042653598 0.06776571 0.060507074 -0.025423443 0.051804185 -0.031191695 -0.054456647
-0.06283717 0.049220208 -0.028616825 0.0007986712 0.02322864 0.06321637 0.020566849 -0.029279256
-0.0025990019 -0.026133973 0.011275738 -0.11132925 0.0072195814 -0.091992326 -0.07329833 0.03360448
-0.080423295 -0.07654252 -0.06324461 -0.07518606 -0.099875316 -0.07631084 -0.06780569 -0.098610215
0.055431865 0.035720587 -0.025227806 0.023829425 -0.015074193 -0.02731887 -0.04441873 0.038251963
0.04954838 -0.04562219 -0.085390225 -0.0693772 0.027455999 -0.0100621125 -0.007875825 -0.101473615
0.010036635 -0.03916578 -0.05494569 -0.052152425 -0.0034843225 0.007820235 -0.09520792 -0.043216847
-0.039687537 -0.0017680465 -0.047302064 0.048352614 0.009752412 -0.11561088 0.0058728913 -0.06360426
-0.060169432 -0.053178214 0.066800624 -0.05830651 0.06512226 -0.06517163 0.0044758883 -0.08748417
0.032030355 -0.04341911 0.0626943 0.002627462 -0.09358478 0.032311637 -0.07388556 -0.027334547
-0.049016047 0.046282914 0.07706651 0.074841745 -0.08748536 0.02421545 0.037375007 -0.1131113
-0.104849726 0.01265249 -0.038565423 -0.00064396823 0.016419142 -0.045271482 0.008817548 0.008226486
-0.0039719483 -0.03604177 -0.11682728 0.02348896 0.005156359 -0.0689443 0.038325205 -0.08468086
-0.07849658 0.022801608 0.047491353 -0.007229417 -0.0055046254 -0.016170705 -0.003878633 -0.09881961
-0.067778446 0.040441025 -0.038597956 -0.03159121 0.027441386 0.059231896 -0.08772129 0.012950861
-0.049457163 0.021213504 -0.030443484 0.00383965 -0.023211237 -0.007913484 -0.04476316 0.009397905
0.0134109 0.0040890886 -0.09401909 0.033549212 -0.04187573 -0.07352153 0.07938984 -0.10474315
-0.0030213664 -0.0887014 0.02535134 0.001836712 0.053431947 -0.0005171619 0.02159825 -0.08905855
-0.06577765 -0.08759347 -0.06999321 -0.065154135 -0.046832934 -0.060963508 -0.08112177 0.009518729
0.07093025 -0.08834326 -0.090905644 0.015804924 -0.07030263 0.04995667 -0.03473368 0.02420429
00000000: 724b 7dbd 199d 01bc 6c35 a4bd 49a6 82bd
00000010: 6762 653d 8747 123d b53f 99bd 2598 bbbd
00000020: 76ea aa3b 3220 07bb 8460 bbbd 75b7 3bbd
00000030: d3a7 d6bc 6b32 6939 45d6 03be 4ff8 dbbb
00000040: 9f07 5fbc c848 9e3c e245 b8bd c51d b0bd
00000050: fef1 ac3c bd91 9dbd 5e8e 7bbc e736 24bd
00000060: aa13 babd 90f9 95bd ed73 fd3c cc59 643d
00000070: 26ab debd 0feb 1bbd 9959 54bd 87dc b3bd
00000080: 5a1e 07be d0f2 203d 0756 debb 7532 a4bd
00000090: f462 183c da78 15bd df4b 5bbd d4fa 51bd
000000a0: 1b6e b4bc bedf b4bd 7576 a33c b10a 5ebd
000000b0: 6bf6 6a3c 7bca cabb 08e6 7a3d 08a5 95bd
000000c0: 6b30 e0bd 1aae f7bb 0e1c 0ebd 5fb3 853c
000000d0: f28d 99bc 288f 9ebd e95e efbc 1a03 5abd
000000e0: c307 81bd 0a62 183d a63e c6bd 8e2c 1d3d
000000f0: deb3 583d 3667 ff3c 9506 8bbd dc65 e8bb
00000100: 78cd c7bb 18af e4bd 30e4 7dbd 7846 903c
00000110: 201f a9bd 6e8b b0bd 27d9 2f3d b19a adbd
00000120: 125d 8abd 5dc6 b1bd 1508 bbbd f1dc 49bd
00000130: 9415 a9bc 179b 46bd 8199 7abd 706a 1e3c
00000140: 6c19 303d f4a9 44bd 6759 01bd da7d 52bd
00000150: 940b 5ebd a145 82bd c5cd 1a3d 0f0a 8e3b
00000160: 03ad f6bd 4502 7abd 0811 803c c6ad 4dbd
00000170: d7f3 163d ad21 bcb9 43cc 863d 20fa 483d
00000180: a314 c3bc 8ab5 2e3d c0c8 8a3d 44d6 773d
00000190: d344 d0bc a030 543d ba85 ffbc ef0d 5fbd
000001a0: c6b0 80bd 219b 493d d56d eabc eb5d 513a
000001b0: fd49 be3c 9677 813d cf7b a83c 0ddb efbc
000001c0: 0454 2abb ea16 d6bc dfbd 383c 9700 e4bd
000001d0: 3d92 ec3b 7966 bcbd 6f1d 96bd daa4 093d
000001e0: f8b4 a4bd 53c2 9cbd 6486 81bd 26fb 99bd
000001f0: 6e8b ccbd dc48 9cbd b6dd 8abd 27f4 c9bd
00000200: 860c 633d c04f 123d 8baa cebc ed35 c33c
00000210: bff9 76bc d3cb dfbc 6af0 35bd 17ae 1c3d
00000220: 3ef3 4a3d 55de 3abd 12e1 aebd a215 8ebd
00000230: 67eb e03c 8fdb 24bc 9b09 01bc 66d1 cfbd
00000240: b370 243c 4c6c 20bd bb0e 61bd c89d 55bd
00000250: 3b59 64bb 7120 003c 5ffc c2bd 2604 31bd
00000260: 668f 22bd ccbd e7ba cfbf 41bd 640d 463d
00000270: 95c8 1f3c 66c5 ecbd 6271 c03b f342 82bd
00000280: 3974 76bd 66d1 59bd c4ce 883d cfd2 6ebd
00000290: d25e 853d b478 85bd 79aa 923b e72a b3bd
000002a0: 4332 033d 3dd8 31bd df65 803d 7f31 2c3b
000002b0: 61a9 bfbd 3559 043d 5051 97bd b3ec dfbc
000002c0: 0dc5 48bd 2793 3d3d 0cd5 9d3d a146 993d
000002d0: 862b b3bd 7b5f c63c 8916 193d e6a6 e7bd
000002e0: 74bb d6bd 644c 4f3c c7f6 1dbd facf 28ba
000002f0: 7081 863c 976e 39bd 7a77 103c 62c8 063c
00000300: 1e27 82bb 89a0 13bd 2443 efbd eb6b c03c
00000310: adf6 a83b ab32 8dbd e4fa 1c3d 296d adbd
00000320: d1c2 a0bd 70ca ba3c 4b86 423d bfe4 ecbb
00000330: 2560 b4bb 6d78 84bc aa30 7ebb f061 cabd
00000340: 6dcf 8abd 7da5 253d e418 1ebd c965 01bd
00000350: c2cc e03c 259d 723d 38a7 b3bd d92f 543c
00000360: 9893 4abd f1c7 ad3c 9d64 f9bc a3a2 7b3b
00000370: 7e25 bebc 8fa7 01bc 9359 37bd acf9 193c
00000380: 64b9 5b3c c3fd 853b 158d c0bd e66a 093d
00000390: e385 2bbd 7592 96bd 2497 a23d 9483 d6bd
000003a0: 1e02 46bb 14a9 b5bd 9dad cf3c d4bd f03a
000003b0: 75db 5a3d 2692 07ba d0ee b03c 5464 b6bd
000003c0: 6fb6 86bd 3564 b3bd 9a58 8fbd 886f 85bd
000003d0: e4d3 3fbd dfb4 79bd 2c23 a6bd 71f4 1b3c
000003e0: e143 913d 50ed b4bd bd2c babd 5479 813c
000003f0: d3fa 8fbd 5d9f 4c3d e744 0ebd 1348 c63c

fc2.bias f4 [128]
-0.06517879 -0.008324482 -0.123473175 -0.08013005 -0.12349329 -0.12545191 -0.108679116 -0.13425812
-0.1810487 -0.038720418 -0.07159998 -0.0058767986 -0.06365901 -0.106031984 -0.15589952 -0.12224871
-0.061578512 -0.121555015 -0.07956594 -0.050019763 -0.09943223 -0.042609997 0.03376485 -0.18788895
-0.15337324 -0.028064089 -0.6811366 -0.02674739 -0.1544462 -0.07378042 -0.14011598 -0.047519278
-0.094600946 -0.068938866 -0.06958359 -0.15275069 -0.16489287 -0.06014817 -0.01178908 0.43678948
-0.092630036 -0.020534605 -0.036205523 -0.102247536 -0.11802287 -0.06675336 -0.133518 0.00089707464
-0.14822833 -0.08947531 -0.07570674 -0.11525879 -0.03997381 -0.12895623 -0.028610785 -0.07643455
-0.05851359 -0.037189063 -0.08573948 -0.06816395 -0.06874877 -0.059123695 -0.07662626 -0.08267059
-0.056456476 -0.022746056 -0.15766925 -0.12763445 -0.093337804 4.076904 -0.022522269 0.045876753
-0.012506019 -0.15249859 -0.09451451 -0.06882731 -0.16132301 -0.12204172 -0.024871977 -0.10399784
-0.08309457 -0.10227588 -0.06902636 -0.06997029 -0.109356925 -0.015421027 -0.11013957 -0.090967424
-0.12403644 -0.13752177 -0.091078825 -0.12036467 -0.05292076 -5.0980558e-05 -0.042198602 -0.020876158
-0.08313562 0.011816194 2.4265769 1.3738565 2.5900507 -0.048523925 -0.17095171 -0.1211428
-1.7912372 -0.102913514 -0.16972622 -0.09115942 -0.088270664 -0.125901 -0.05782859 -0.014531728
-0.08317826 -0.14345038 -0.12374609 -0.04201659 -0.1269387 -0.06333638 -0.058081087 -0.08340632
-0.108847335 -0.16997325 -0.10578068 -0.1092624 -0.12727956 -0.007287106 -0.07661464 -0.037246525
00000000: 757c 85bd 6863 08bc 81df fcbd 391b a4bd
00000010: 0dea fcbd 7776 00be 2893 debd f67a 09be
00000020: d564 39be 4d99 1ebd 03a3 92bd 2992 c0bb
00000030: a85f 82bd 4c27 d9bd 20a4 1fbe 885d fabd
00000040: c039 7cbd d6f1 f8bd 78f3 a2bd 86e1 4cbd
00000050: 20a3 cbbd d287 2ebd 034d 0a3d f665 40be
00000060: e00d 1dbe a9e6 e5bc f85e 2ebf 581d dbbc
00000070: 2527 1ebe 301a 97bd 907a 0fbe 93a3 42bd
00000080: 24be c1bd d22f 8dbd d781 8ebd ad6a 1cbe
00000090: add9 28be ed5d 76bd fc26 41bc dfa2 df3e
000000a0: d1b4 bdbd 3038 a8bc 3e4c 14bd 2867 d1bd
000000b0: f9b5 f1bd fcb5 88bd f1b8 08be a929 6b3a
000000c0: 2bc9 17be d53e b7bd 230c 9bbd cd0c ecbd
000000d0: 94bb 23bd 1a0d 04be 2a61 eabc b889 9cbd
000000e0: f2ab 6fbd 8f53 18bd 2e98 afbd 8b99 8bbd
000000f0: 28cc 8cbd b02b 72bd 3bee 9cbd 334f a9bd
00000100: e83e 67bd f055 babc 0c74 21be 9bb2 02be
00000110: e427 bfbd ff75 8240 9f80 b8bc 43e9 3b3d
00000120: 0ce6 4cbc 9728 1cbe d390 c1bd 55f5 8cbd
00000130: dc31 25be 02f1 f9bd 51c0 cbbc d2fc d4bd
00000140: 7c2d aabd 0476 d1bd b15d 8dbd 954c 8fbd
00000150: 86f6 dfbd 7aa8 7cbc db90 e1bd 214d babd
00000160: d106 febd 82d2 0cbe 8987 babd c181 f6bd
00000170: 70c3 58bd f5d3 55b8 71d8 2cbd 7a04 abbc
00000180: 0243 aabd b698 413c 094d 1b40 88da af3f
00000190: 64c3 2540 06c1 46bd f70d 2fbe b719 f8bd
000001a0: 4347 e5bf 52c4 d2bd b6cc 2dbe cab1 babd
000001b0: 40c7 b4bd 31ec 00be acdd 6cbd 7c16 6ebc
000001c0: 5d59 aabd a8e4 12be 976e fdbd 9619 2cbd
000001d0: 38fc 01be 81b6 81bd 6fe6 6dbd efd0 aabd
000001e0: 5aeb debd 780d 2ebe 8ba3 d8bd f7c4 dfbd
000001f0: 9355 02be adc8 eebb 23e8 9cbd d08f 18bd

fc3.weight f4 [1, 128]
0.007559217 0.017929621 0.008590573 -0.0014445778 -0.0103438115 -0.010077642 -0.025146138 -0.005939938
-0.0042020897 -0.018864049 -0.014737878 -0.012400611 -0.005018008 0.0063344585 -0.016990881 0.010690116
-0.025664922 0.025081197 -0.0012652614 0.007905521 0.002141703 0.0008545684 -0.012145349 0.025826342
0.0016075203 -0.018669516 -0.00041356086 -0.009587812 0.00036105159 0.0054640793 0.0045519387 0.020609211
-0.013489273 -0.0013360864 -0.0052319253 -0.0037017977 0.010747247 -0.000492346 -0.0069402875 -0.008802541
0.026577668 0.002805505 0.024886226 0.009285728 -0.0037779436 -0.009748059 -0.019818058 -0.0074989367
0.009264875 0.0044192537 0.0008537028 0.00923073 -0.021774838 0.030220583 0.017058766 0.029479902
-0.019232884 -0.00067074836 -0.021554703 -0.015306137 -0.007567066 0.023619872 0.016215764 0.019062618
0.02510975 -0.0074251182 0.016042558 0.011221895 0.0053249956 0.0027600843 0.016599623 0.025340911
-0.009676578 -0.016411303 0.016908398 -0.00914045 -0.020514125 0.0012979606 0.008605749 -0.013188539
-0.008274885 -0.010126699 -0.014883781 -0.022556799 0.023538101 -0.009591623 -0.014784603 -0.011042653
-0.0053587095 0.005479867 -0.012782198 -0.009544123 0.01252181 0.020303424 0.018299818 0.00082122604
0.014794904 0.029208405 0.004885894 -0.00735706 -0.004170469 0.023200002 0.02374035 0.004597834
-0.00256629 -0.02451174 0.005856552 0.0068648946 -0.02310329 -0.0045423517 -0.008381393 0.00026440952
-0.029035693 -0.00081715605 -0.0048072296 -0.017211976 0.0068988255 0.012720294 -0.008355321 -0.011582226
-0.016638048 -0.00072035985 -0.004799538 0.013885552 0.028907336 0.019342367 0.014894826 0.008264176
00000000: 4fb3 f73b 24e1 923c 7abf 0c3c fd57 bdba
00000010: 1779 29bc b21c 25bc 46ff cdbc d0a3 c2bb
00000020: afb1 89bb c788 9abc 2477 71bc ef2b 4bbc
00000030: 1a6e a4bb 4a91 cf3b 7630 8bbc 9925 2f3c
00000040: 3e3f d2bc 1577 cd3c 21d7 a5ba 2986 013c
00000050: d05b 0c3b 1d05 603a 49fd 46bc c491 d33c
00000060: 6eb3 d23a d0f0 98bc 33d3 d8b9 3316 1dbc
00000070: 864b bd39 050c b33b 6e28 953b a6d4 a83c
00000080: 1d02 5dbc 9f1f afba 9270 abbb dc99 72bb
00000090: 3915 303c c810 01ba 5a6b e3bb 8838 10bc
000000a0: 69b9 d93c 90dc 373b 33de cb3c 2b23 183c
000000b0: 6097 77bb 53b6 1fbc 7b59 a2bc a4b9 f5bb
000000c0: b4cb 173c 63cf 903b 06cb 5f3a 7d3c 173c
000000d0: 2561 b2bc 2891 f73c d3be 8b3c d67f f13c
000000e0: 488e 9dbc 29d5 2fba 7d93 b0bc 97c6 7abc
000000f0: 26f5 f7bb 767e c13c ecd6 843c 3529 9c3c
00000100: f6b2 cd3c 684e f3bb af6b 833c 0adc 373c
00000110: 4d7d ae3b 88e2 343b effb 873c be97 cf3c
00000120: 838a 1ebc ff70 86bc 7b83 8a3c d3c1 15bc
00000130: 3d0d a8bc 5520 aa3a 21ff 0c3c be14 58bc
00000140: 6293 07bc 74ea 25bc 1adb 73bc 09c9 b8bc
00000150: fad2 c03c 2f26 1dbc 1f3b 72bc 3eec 34bc
00000160: 1d98 afbb 7590 b33b 6d6c 51bc f45e 1cbc
00000170: 4728 4d3c 5e53 a63c 80e9 953c 8c47 573a
00000180: 5366 723c 7746 ef3c d919 a03b 7e13 f1bb
00000190: 6ea8 88bb ee0d be3c 1f7b c23c 6da9 963b
000001a0: 342f 28bb d8cc c8bc 52e8 bf3b e9f2 e03b
000001b0: 1c43 bdbc 02d8 94bb 1c52 09bc 72a0 8a39
000001c0: 43dc edbc 6a36 56ba f785 9dbb 2100 8dbc
000001d0: 8b0f e23b c868 503c c2e4 08bc 60c3 3dbc
000001e0: 844c 88bc 88d6 3cba 7145 9dbb 3a80 633c
000001f0: 14cf ec3c e273 9e3c 6e09 743c 7766 073c
