checkpoint_actor_1.pth (torch_old, 159146 bytes, 6 tensors)

fc1.weight f4 [256, 24]
0	0x3d7b806f	0.06140178
1	0x3a341fc0	0.0006871186
2	0x3c74e697	0.014947555
3	0xbd569dc5	-0.052396554
4	0xbd262d04	-0.040570274
5	0xbb915e63	-0.0044363006
6	0x3c9fadf1	0.019492121
7	0x3cc9a0c5	0.024612794
8	0x3ce05170	0.027382582
9	0x3d2a9d5d	0.04165398
10	0xbca503fa	-0.020143498
11	0xbd0af387	-0.033923652
12	0x3ce49ff6	0.027908307
13	0xbd086a2a	-0.03330437
14	0x3d2babbd	0.04191183
15	0x3c9de3f3	0.019273734
16	0xbc0f4cbf	-0.008746325
17	0xbc920d59	-0.01782863
18	0xbd00256e	-0.031285696
19	0x3d3ae870	0.045631826
20	0x3b4740f5	0.0030403708
21	0xbcb88523	-0.022524422
22	0x3d0bbfb3	0.034118365
23	0x39f318fd	0.0004636719
24	0xbb824010	-0.003974922
25	0x3d26677b	0.04062603
26	0xbd4d25ca	-0.050084867
27	0x3d584cfb	0.05280779
28	0xba1d67eb	-0.00060045597
29	0xbd142be4	-0.03617467
30	0xbd2a42c6	-0.041567586
31	0xbd23a0dd	-0.039948333
32	0xbcabc31e	-0.020967063
33	0xbccbbfa1	-0.02487165
34	0x3d49c7c2	0.04926277
35	0xbade8ddb	-0.0016979532
36	0xbd042579	-0.0322623
37	0xbae3376d	-0.0017335244
38	0x3af185ac	0.0018426678
39	0x3c0904fc	0.008363005
40	0x3c3ebabe	0.0116412025
41	0xbd8262a3	-0.0636647
42	0xbd69225a	-0.056917526
43	0x3cd53c8e	0.026029851
44	0x3d6f17b6	0.058372222
45	0x3d77cd56	0.060498558
46	0xbc3fc0b7	-0.011703662
47	0xbc494cc3	-0.012286368
48	0xbd7d4805	-0.06183626
49	0x3d31c22f	0.04339808
50	0x3d193309	0.037402187
51	0xbb809491	-0.0039239605
52	0xbbb76fb7	-0.0055980342
53	0x3cc72a47	0.024312152
54	0xbd39cdb3	-0.045362186
55	0xbd6d15db	-0.05788217
56	0x3cd2d77d	0.025737518
57	0x3d1eb331	0.03874511
58	0xbd115438	-0.035480708
59	0xbd64f0c6	-0.055893682
60	0x3c6dafa2	0.014507206
61	0xbc01791f	-0.007902413
62	0xbc858092	-0.016296659
63	0xbd13b152	-0.036057778
64	0x3d1ab257	0.037767734
65	0x3ce76dc3	0.02825058
66	0xbd3c5a9e	-0.045984857
67	0xbc821b23	-0.01588208
68	0x3b4439ac	0.0029941602
69	0xbc8f774e	-0.017512944
70	0x39cf29e3	0.00039513325
71	0x3d72a6fc	0.05924128
72	0xbb5c688b	-0.0033631648
73	0x3cb79ba5	0.022413084
74	0x3cdff880	0.027340174
75	0xbd167da9	-0.036740933
76	0xbc066f8a	-0.008205304
77	0x3cc00a75	0.023442486
78	0x3d518d2e	0.05116003
79	0xbd330061	-0.043701533
80	0xbd1e9100	-0.0387125
81	0x3a97f7f9	0.0011594287
82	0xbcf61a31	-0.030041786
83	0xbc5bd925	-0.0134184705
84	0x3d1dc4eb	0.038517874
85	0xbbc6db0a	-0.006068592
86	0x3c09bb5f	0.008406489
87	0x3d6f51dd	0.05842768
88	0x3cf4f09f	0.029899893
89	0x3d2bd38c	0.041949794
90	0xbd0bfb29	-0.034175072
91	0x3cd86e79	0.026419865
92	0x3cc54a2f	0.024083225
93	0x3d28022c	0.041017696
94	0x3d7f3589	0.062306914
95	0x3d6548a4	0.05597748
96	0xbd467ca7	-0.04845872
97	0xbd72334d	-0.059130955
98	0x3d670930	0.056405246
99	0x3cb4d1c3	0.022072678
100	0x3ca4694a	0.020069737
101	0xbc96fa18	-0.0184298
102	0xbd4a1736	-0.049338542
103	0xbd4d772e	-0.050162487
104	0xbd194e03	-0.037427913
105	0xbcaf12af	-0.021371214
106	0x3d07628b	0.033052962
107	0xbd642ad6	-0.055704914
108	0x3d86934a	0.06571062
109	0x3d4bbb2c	0.049739048
110	0x3d616db1	0.05503625
111	0x3c3e26dd	0.011605945
112	0x3d29dd34	0.04147072
113	0x3ca73e87	0.020415558
114	0xbbfc488f	-0.0076990793
115	0xbc7e5f0a	-0.015525589
116	0xbd13cf30	-0.03608626
117	0x3d2c55e8	0.042074114
118	0x3cfd7f14	0.030944385
119	0x3d57f9ac	0.05272834
120	0x3bad4417	0.005287658
121	0x3d1f31be	0.038865797
122	0xbd118d83	-0.035535347
123	0xbd250fe1	-0.040298346
124	0x3c7d8018	0.015472434
125	0x3c9b0056	0.018921059
126	0x3d2ecf8b	0.042678397
127	0xbcb4cbab	-0.022069773
128	0xbcd84a2a	-0.026402552
129	0x3d4b3b4e	0.049617104
130	0xbbe78683	-0.0070655956
131	0xbd7e661a	-0.06210909
132	0xbd6b19ef	-0.05739778
133	0x3bc5568f	0.0060222815
134	0x3d77ed1b	0.060528856
135	0xbd1401b6	-0.036134444
136	0x3c5ecbf4	0.013598431
137	0xbd772925	-0.060341973
138	0x3d6009dc	0.054696903
139	0x3cc02052	0.023452912
140	0x3c25959c	0.01010647
141	0x3d32a542	0.043614633
142	0x3d80e5fc	0.06293866
143	0xbb33c5d5	-0.002743115
144	0xbd843492	-0.064553395
145	0x3d5f228e	0.054476313
146	0x3c4d1ee3	0.012519571
147	0xbd1cd684	-0.038290516
148	0x3d30397a	0.043023564
149	0xbd1703bd	-0.0368688
150	0x3d23b3d6	0.039966427
151	0x3d51e8e6	0.0512475
152	0x3cdc0a11	0.026860269
153	0x3c3c5d76	0.011496892
154	0x3cc19758	0.023631737
155	0xbc73ff2c	-0.014892381
156	0xbcfd90d8	-0.030952856
157	0x3d7565e5	0.059911627
158	0x3b1c7b8e	0.0023877355
159	0xbbda1d03	-0.0066562905
160	0xbcb9bd63	-0.022673314
161	0x3b8dfb8e	0.004332966
162	0x3d2c04f7	0.041996922
163	0x3b0daf79	0.0021619482
164	0x3cdc22aa	0.026871998
165	0xbce86bf5	-0.02837179
166	0x3d239bdd	0.039943565
167	0x3d06dec9	0.03292731
168	0xbd1d513f	-0.03840756
169	0xbd0bdcf9	-0.034146283
170	0xbd8024c2	-0.06257011
171	0x3d4000d7	0.0468758
172	0xbbdb19a3	-0.0066864057
173	0x3c90e77c	0.017688505
174	0xbd0df66c	-0.034658834
175	0x3a8b5528	0.0010630237
176	0xbd1e2bbb	-0.038615923
177	0x3c654b9f	0.01399508
178	0xbd553f53	-0.052062344
179	0xbcf63dbb	-0.030058732
180	0xbd678a77	-0.056528535
181	0x3d38c44e	0.045109086
182	0xbd1e5015	-0.03865059
183	0xbcb8be27	-0.02255161
184	0xbb9dc37f	-0.0048145647
185	0xb9c611bc	-0.00037778716
186	0xbc8a78dd	-0.016903335
187	0x3cbe3e47	0.023223056
188	0xbd17c549	-0.03705338
189	0x3cc86e84	0.02446676
190	0x3d744cf8	0.059643716
191	0x3b74c49b	0.0037348631
192	0xbd6a9a8c	-0.057276294
193	0x3d613d28	0.054989964
194	0x3d7876a7	0.06066003
195	0x3d453a8c	0.048151538
196	0xbc182cc8	-0.00928802
197	0xbbbf8c8c	-0.005845612
198	0x3d8141ef	0.06311404
199	0x3cbaad28	0.022787645
200	0x3c7ac367	0.015305377
201	0x3d02d52b	0.031941574
202	0x3ccb25a4	0.024798222
203	0xbd1f305d	-0.038864482
204	0x3c909a21	0.01765162
205	0x3d271a97	0.040796842
206	0x3d385e7d	0.045011986
207	0xbc6760f0	-0.014122233
208	0x3d67a9d4	0.056558445
209	0xba905748	-0.001101234
210	0x3c88e8fd	0.01671266
211	0x3badbc77	0.005302008
212	0xbccd6485	-0.025072346
213	0x3d7400e8	0.059571177
214	0xbd79badd	-0.060969222
215	0xbd79bbf7	-0.060970273
216	0x3c6f7e7e	0.01461756
217	0x3d06b895	0.032890875
218	0xbca906e4	-0.020633169
219	0x3d160b72	0.03663201
220	0xbcae2d8d	-0.021261955
221	0x3d627f12	0.055296965
222	0xbcebfed8	-0.028808042
223	0x3d5e17fa	0.054222085
224	0xbd83d22f	-0.06436574
225	0xbb96634c	-0.004589474
226	0x3d3cb469	0.04607049
227	0x3c87477a	0.016513575
228	0xbc947060	-0.01811999
229	0x3d824b49	0.06362016
230	0x3a522de4	0.00080177025
231	0xbd5c4d51	-0.053784672
232	0x3c6c6643	0.014428678
233	0xbcf3e10f	-0.029770402
234	0xbd4d52b4	-0.0501277
235	0x3d81fd5e	0.06347154
236	0xbc3696eb	-0.01114438
237	0xbd3748a8	-0.044747025
238	0x3d3fcc3e	0.04682564
239	0x3d18fc19	0.037349794
240	0xbd0d77c6	-0.034538053
241	0x3c84c044	0.01620496
242	0xbb0d420b	-0.0021554257
243	0x3c1e0950	0.009645775
244	0xbd26aa09	-0.040689502
245	0x3d85a253	0.065251015
246	0xbd3668c2	-0.0445335
247	0x3d85f8e5	0.065416135
248	0x3bb8d2e9	0.005640377
249	0x3cf6ada2	0.030112091
250	0xbc80a488	-0.015703455
251	0x3d04b8d8	0.032402843
252	0x3d5866e0	0.052832484
253	0xbb407b0f	-0.0029370224
254	0xbd69bfc5	-0.05706765
255	0x3d5cb7ce	0.053886227

fc1.bias f4 [256]
0	0xbda1dbdc	-0.07903263
1	0x3dec9522	0.11551882
2	0x3dc8726a	0.09787448
3	0x3de8ae81	0.11361409
4	0xbd506f72	-0.050887533
5	0xbe355cc6	-0.17711172
6	0xbe4b3168	-0.19843066
7	0x3cae8ac9	0.021306412
8	0xbe4acb91	-0.19804217
9	0xbe06d5e5	-0.13167532
10	0x3e0ccc2f	0.13749765
11	0xbcf5f239	-0.030022727
12	0x3d917613	0.07102599
13	0xbe264f4f	-0.16241191
14	0x3d0f8396	0.0350376
15	0x3e3c3887	0.18380938
16	0x3d1113e6	0.035419367
17	0x3d108092	0.035278864
18	0xbe00ce42	-0.12578681
19	0xbe14ae3c	-0.1451959
20	0x3df82fab	0.12118467
21	0xbe3c29a5	-0.18375261
22	0xbc5841ec	-0.013199311
23	0xbe26ea84	-0.16300398
24	0x3c581349	0.013188192
25	0xbe4bf039	-0.19915856
26	0x3d868864	0.06568983
27	0x3710f4c8	8.640061e-06
28	0xbe082171	-0.13294007
29	0xbd98789a	-0.07444878
30	0xbda2f167	-0.079562
31	0xbdbc0e9b	-0.09182473
32	0xbd552922	-0.05204118
33	0x3d13781a	0.03600321
34	0xbdeee6c4	-0.11665109
35	0x3d5db5f6	0.05412861
36	0xbe2bf177	-0.1679133
37	0x3e48d70a	0.19613281
38	0xbdf6e5e2	-0.120555654
39	0x3db2edc6	0.08736758
40	0xbe10ee72	-0.1415346
41	0xbe0d2bde	-0.13786265
42	0xbd016f2f	-0.031600174
43	0xbde77881	-0.11302281
44	0xbd64d7d7	-0.055869903
45	0xbdb8b3a1	-0.090186365
46	0xbd6e7e03	-0.058225643
47	0xbe1dba5d	-0.15403123
48	0x3e4fa1e0	0.20276594
49	0x3df27628	0.11838943
50	0xbd905892	-0.070481434
51	0x3e147527	0.14497815
52	0xbdb29d22	-0.08721377
53	0xbe287025	-0.1644903
54	0x3d8249a4	0.06361702
55	0xbd90a740	-0.070631504
56	0x3e1ce649	0.15322222
57	0xbd5a1c80	-0.053249836
58	0xbe27b039	-0.16375817
59	0x3e2deeda	0.16985646
60	0x3d396962	0.045266517
61	0x3d807747	0.0627275
62	0xbc91ed38	-0.01781331
63	0xbe26acd0	-0.1627686
64	0x3d8f4eac	0.06997427
65	0x3aa3ac45	0.0012487253
66	0xbe079537	-0.13240515
67	0x3debda94	0.115163
68	0xbe428e88	-0.18999684
69	0xbe01fad4	-0.1269334
70	0xbd3c8d3a	-0.04603312
71	0xbe434a8f	-0.1907141
72	0xbe3872b7	-0.1801251
73	0xbd78296e	-0.060586385
74	0xbd179756	-0.03700956
75	0x3e184df8	0.14873493
76	0x3dc6c3ca	0.097053126
77	0x3e445b26	0.19175395
78	0x3d853142	0.06503536
79	0x3cdad321	0.026712002
80	0xbd197739	-0.037467215
81	0xbdac6f47	-0.08419662
82	0xbe3aa3fa	-0.18226615
83	0xbe3e2e18	-0.18572271
84	0x3db5b973	0.08873262
85	0xbe0480d3	-0.12939768
86	0xbda899f2	-0.08232488
87	0x3dc31ab0	0.095265746
88	0xbdfc6314	-0.12323585
89	0x3da2a100	0.079408646
90	0xbbf5481b	-0.0074854023
91	0x3d2ac186	0.041688465
92	0xbdbdd946	-0.09269957
93	0x3e1b1054	0.15142947
94	0xbe2d89a2	-0.16947034
95	0xbe3f52e1	-0.1868396
96	0x3e267a2d	0.16257544
97	0xbe0ee8b1	-0.13955952
98	0x3e4bf6cf	0.19918369
99	0x3dbd50b0	0.092439055
100	0x3da93950	0.082628846
101	0xbcc0ebb4	-0.023549892
102	0x3d18f74a	0.03734521
103	0x3d50904d	0.050918866
104	0xbdc2dbb7	-0.095145635
105	0x3e1ae9f0	0.15128303
106	0x3e03acbb	0.1285886
107	0x3c30143f	0.010747015
108	0x3d69a0a0	0.05703795
109	0xbcc86b14	-0.024465121
110	0xbd9397be	-0.07206677
111	0xbe21fe3d	-0.1581964
112	0xbd9ed8c8	-0.077561915
113	0xbe4886af	-0.19582628
114	0xbd81abac	-0.06331572
115	0x3de2ea28	0.11079818
116	0x3e49caf2	0.19706324
117	0xbe3fa92c	-0.18716878
118	0xbe2dadcc	-0.1696083
119	0x3e30d9a5	0.17270525
120	0xbd8e4e85	-0.0694857
121	0x3b3c0781	0.0028690996
122	0x3e04205d	0.1290297
123	0x3e35f3b3	0.17768745
124	0x3da055c9	0.07828862
125	0x3d4cf47c	0.050037846
126	0xbb0537d9	-0.0020327477
127	0x3ba4db65	0.0050310367
128	0x3da9335a	0.08261748
129	0xbe448e76	-0.1919497
130	0xbe4bf1c8	-0.19916451
131	0x3e105346	0.14094266
132	0xbe4cba25	-0.19992884
133	0x3dd3a1e7	0.10333615
134	0x3e16fe60	0.14745474
135	0x3e0c3c95	0.13694985
136	0x3d841fcd	0.06451378
137	0x3cbab780	0.022792578
138	0x3dc72ed9	0.09725732
139	0x3df67ea9	0.12035877
140	0x3be4f6b5	0.0069874176
141	0xbe18b8d0	-0.1491425
142	0x3e03167d	0.12801547
143	0x3cb04f3f	0.021522162
144	0x3e008267	0.12549745
145	0xbe0a94d5	-0.13533337
146	0xbd4a2b20	-0.049357533
147	0xbe05cfcf	-0.13067554
148	0x3c72bf77	0.014816157
149	0x3e32f378	0.17475688
150	0x3d178895	0.03699549
151	0x3e33c85f	0.17556904
152	0x3e1df3b6	0.15425
153	0xbe11dc7d	-0.14244266
154	0x3e4c3e3f	0.1994562
155	0x3c12f754	0.0089701
156	0x3e3191d1	0.17340781
157	0x3d29ce8f	0.041456755
158	0xbd0d5760	-0.034507155
159	0x3e333e1a	0.17504159
160	0xbe177535	-0.14790805
161	0x3b14d14d	0.002270776
162	0xbce94ff3	-0.028480506
163	0x3bdba084	0.0067024846
164	0xbd68c1d0	-0.05682546
165	0x3e287ff2	0.16455057
166	0xbc0648a8	-0.008196034
167	0x3db0ac0a	0.08626564
168	0x3db402a4	0.08789566
169	0x3e424bb6	0.18974194
170	0x3d9699b5	0.07353536
171	0xbe4dc383	-0.20094113
172	0xbe300c46	-0.17192182
173	0xbe46e252	-0.19422272
174	0xbe4a2fd7	-0.19744812
175	0xbe2e40da	-0.17016926
176	0xbb1ddc18	-0.0024087485
177	0x3e446e16	0.1918262
178	0xbe088901	-0.13333513
179	0x3daf48f6	0.08558838
180	0xbdbccf65	-0.09219245
181	0x3e23b856	0.15988287
182	0x3e0627f7	0.13101183
183	0x3dc2dc34	0.09514657
184	0x3e3bd3c3	0.183425
185	0xbe1c7385	-0.15278442
186	0xbe2e28aa	-0.170077
187	0xbddb8515	-0.10718743
188	0x3d3543b6	0.044254027
189	0x3e398c25	0.18119867
190	0x3e08ac5a	0.13346997
191	0x3d8906a9	0.066907234
192	0xbd17054b	-0.036870282
193	0xbdede87b	-0.11616608
194	0x3e516541	0.20448782
195	0xbe345ba9	-0.1761309
196	0xbe0d3e9d	-0.13793416
197	0x3dfb9c18	0.12285632
198	0x3e22ad5c	0.15886444
199	0x3d541eb0	0.05178708
200	0xbb0545ba	-0.002033575
201	0xbcafbd6c	-0.021452628
202	0x3cd36b5e	0.025808033
203	0xbdd671ea	-0.10470946
204	0x3e52d140	0.20587635
205	0x3e50f1ea	0.20404783
206	0xbda37d78	-0.07982916
207	0x3e151c5b	0.14561598
208	0xbd4f7ede	-0.0506581
209	0xbe170659	-0.14748515
210	0x3d014f68	0.03156987
211	0xbd1b7f88	-0.03796342
212	0x3e2eca33	0.1706932
213	0x3c473336	0.012158206
214	0xbd3a8225	-0.04553427
215	0xbe2580ac	-0.16162366
216	0x3e0b5b5f	0.13609074
217	0x3e0ff17e	0.14056966
218	0x3cd9eaa7	0.026601149
219	0xbcacb00d	-0.021080041
220	0xbd88a5dd	-0.06672261
221	0x3d41aa76	0.047281705
222	0x3e49b4fd	0.19697948
223	0xbd139b67	-0.036036875
224	0x3ca6fcc9	0.02038421
225	0xbe453510	-0.19258523
226	0x3d54934b	0.051898282
227	0xbdb12c16	-0.08650987
228	0xbd3d1403	-0.046161663
229	0xbde1fd26	-0.11034612
230	0x3e4252b3	0.1897686
231	0x3e108241	0.14112188
232	0xbdb3da9a	-0.08781929
233	0xbd51965d	-0.05116879
234	0x3d85e3f2	0.06537618
235	0x3d990742	0.074720874
236	0xbdc9fe60	-0.09862971
237	0x3daeda6f	0.08537757
238	0x3d02ce29	0.03193489
239	0x3de9ae89	0.11410243
240	0xbde44030	-0.11145055
241	0xbe0a0dee	-0.13481876
242	0x3dc09046	0.09402518
243	0xbba30929	-0.004975457
244	0xbdb55b03	-0.0885525
245	0x3e20aec7	0.15691672
246	0xbc9ef7c2	-0.01940525
247	0xbe08f6c4	-0.13375384
248	0xbccb3dde	-0.024809774
249	0xbdc62d97	-0.09676664
250	0xbd8fb661	-0.07017208
251	0xbe2e45cb	-0.17018811
252	0x3e28daee	0.16489765
253	0x3e3a664d	0.18203087
254	0xbe3081bf	-0.17236994
255	0x3e080663	0.13283686

fc2.weight f4 [128, 256]
0	0xbd557bfb	-0.05212019
1	0xbda78f18	-0.0818159
2	0x3addfb90	0.0016935933
3	0xbc0825b8	-0.008309774
4	0x3cb550c3	0.022133237
5	0xbb6716b2	-0.003526133
6	0x3c0da3c5	0.008645003
7	0x3d867ab8	0.065663755
8	0xbc97c807	-0.018527998
9	0x3d80ef0a	0.06295593
10	0xbd99aa9e	-0.07503246
11	0xbd8af84c	-0.0678564
12	0xbd802d5c	-0.062586516
13	0xbd7df8d2	-0.06200487
14	0x3c454a6a	0.0120416675
15	0x3d782e69	0.060591135
16	0x3c4ccf2e	0.012500567
17	0xbd32b3f0	-0.043628633
18	0xbc92d808	-0.017925277
19	0xbda7208d	-0.081605054
20	0xbd5bfe93	-0.053709578
21	0x3da34aba	0.07973237
22	0x3d16d869	0.03682748
23	0x3c8f7270	0.017510623
24	0xbd08b733	-0.033377837
25	0xbd6c139c	-0.05763589
26	0xbd4858b2	-0.04891271
27	0xbd93c68c	-0.07215604
28	0xbcd4a6c4	-0.025958426
29	0xbd9cb9af	-0.07652604
30	0x3daeb806	0.085311934
31	0xbd83d769	-0.064375706
32	0x3d631319	0.055438135
33	0x3b5637f7	0.0032687166
34	0x3d9659a3	0.073413156
35	0x3c2a8733	0.010408211
36	0x3d09c444	0.03363444
37	0xbd756f01	-0.059920315
38	0x3cdc8da6	0.026923012
39	0x3d9cfb9c	0.07665178
40	0x3b3b7b61	0.0028607475
41	0xba83097b	-0.0009997332
42	0xbc000092	-0.007812636
43	0xbdb36d40	-0.08761072
44	0x3d881062	0.0664375
45	0x3db0da8c	0.086354345
46	0x3d6dc1ff	0.058046337
47	0xbd2a3f70	-0.041564405
48	0x3bd60feb	0.0065326593
49	0xbc380471	-0.011231528
50	0xbd5dab29	-0.05411831
51	0xbd77594a	-0.060387887
52	0xbc529197	-0.012852094
53	0xbd5bc254	-0.053652123
54	0xbbb8c4e6	-0.0056387065
55	0xbcd20e23	-0.025641507
56	0x3cf0e8c4	0.029407866
57	0xbc82b552	-0.0159556
58	0xbdb1c872	-0.0868081
59	0xbd5b9536	-0.053609096
60	0xbd93c8d2	-0.07216038
61	0x3d866eaa	0.06564076
62	0x3d224e83	0.039625656
63	0x3aa38680	0.0012475997
64	0xbd88d399	-0.06680984
65	0x3b6e759f	0.0036386026
66	0x3be80e44	0.0070817787
67	0xbc022a55	-0.007944663
68	0xbd8a93d4	-0.06766477
69	0x3a58484d	0.000825052
70	0xbc574182	-0.013138177
71	0xbd8fabfd	-0.07015226
72	0xbd7d6f2a	-0.061873592
73	0x3d84ff3e	0.06493996
74	0xbae0bb1a	-0.0017145604
75	0xbb9742fd	-0.00461614
76	0xbd6330c7	-0.05546644
77	0xbd7ab9d3	-0.061212372
78	0xbbd17b52	-0.0063928748
79	0xbd99852f	-0.07496106
80	0xbcd039ef	-0.02541825
81	0xbda65978	-0.081225336
82	0xbcfdec24	-0.03099639
83	0x3d7b9fb0	0.061431587
84	0x3d85a203	0.06525042
85	0xbdb2de40	-0.08733797
86	0xbd8ea3d4	-0.069648415
87	0xbcfd0c62	-0.030889694
88	0xbd8a1f04	-0.06744197
89	0x3b63a3db	0.0034735117
90	0x3d845f17	0.064634494
91	0xbd2944e8	-0.04132548
92	0xbda2c3ef	-0.079475276
93	0x3d0dce26	0.034620427
94	0xbd10d08c	-0.035355136
95	0x3c5e494e	0.013567282
96	0x3d4e414d	0.050355244
97	0xbd9911fa	-0.07474132
98	0x3d82f9ce	0.06395303
99	0xbd8bb5cd	-0.06821785
100	0xbcd8469b	-0.026400855
101	0x3d9c7e35	0.076412596
102	0x3cd11431	0.025522323
103	0x3d82047d	0.06348512
104	0x3d76dea1	0.06027091
105	0xbcfe87da	-0.031070638
106	0xbc8e5013	-0.017372167
107	0x3d970825	0.073746
108	0xbd30f2d8	-0.043200344
109	0x3d7b97aa	0.061423935
110	0xbd766fb4	-0.060165122
111	0xbd2e10e7	-0.042496588
112	0xbcf4d55f	-0.0298869
113	0x3d198046	0.037475847
114	0xbd40ed35	-0.04710122
115	0x3c856c23	0.016286915
116	0x3cb005a4	0.021487065
117	0x3d817134	0.0632042
118	0xbd8ef549	-0.06980378
119	0x3d1b053d	0.037846792
120	0x3d0c93d6	0.034320675
121	0xbdb12d83	-0.08651259
122	0xbda27a60	-0.079334974
123	0xbbc7c0bb	-0.0060959733
124	0xbcc2004c	-0.023681782
125	0x3d9d49d5	0.07680098
126	0x3c8aaf5c	0.016929321
127	0xbd1be1df	-0.038057204
128	0xbca6c9ff	-0.020359991
129	0x3da5a5eb	0.08088287
130	0xba4f581a	-0.00079095515
131	0x3d62b470	0.05534786
132	0xbcb4a3bc	-0.02205073
133	0x3dad1f44	0.08453229
134	0x3db1bf66	0.086790845
135	0xbdace0c2	-0.08441307
136	0x3bfab94a	0.0076514827
137	0x3ce25b6a	0.02763148
138	0xbd8bdcd5	-0.0682923
139	0xbce1bc44	-0.027555592
140	0xbd36cff2	-0.044631906
141	0x3c72a491	0.0148097435
142	0x3dabd307	0.0838986
143	0xbd934a7e	-0.07191943
144	0x3be37b77	0.0069422084
145	0x3d5075d9	0.05089364
146	0xbcba6547	-0.02275337
147	0x3ba39ffe	0.004993438
148	0xbd5f345a	-0.054493286
149	0x3cf48b94	0.029851712
150	0x3d39418b	0.045228522
151	0xbdb2d655	-0.08732287
152	0xbd267c66	-0.04064598
153	0xbd463703	-0.048392307
154	0x3d168d7a	0.036756016
155	0x3d0f898b	0.03504328
156	0xba621a76	-0.0008625159
157	0x3cb5f710	0.022212535
158	0x3bb22174	0.005436117
159	0x3d89df9e	0.06732105
160	0x3d3efe15	0.04662903
161	0xbd6cbc1e	-0.05779659
162	0x3d8608a9	0.065446205
163	0xbc969405	-0.018381128
164	0x3d8674e6	0.06565265
165	0xbda143f7	-0.078742914
166	0xbd88e7ee	-0.06684862
167	0x3c34f83a	0.01104551
168	0x3c69ccbe	0.014270006
169	0x3c20981c	0.009801891
170	0xbd8a8734	-0.06764069
171	0xbd4deb2c	-0.050273106
172	0xbdb02d5e	-0.08602403
173	0xbcc159a0	-0.023602307
174	0xbce5064d	-0.027957106
175	0xbd5c7e78	-0.053831547
176	0x3ca36b1b	0.019948533
177	0xbca01ea5	-0.019545862
178	0x3c889d3c	0.016676538
179	0x3d6a15e5	0.057149787
180	0x3d31e27a	0.043428876
181	0xbd242872	-0.040077634
182	0x3d856f29	0.06515343
183	0xbd124699	-0.03571186
184	0x3d43e683	0.047827255
185	0x3bbc9f3d	0.0057562874
186	0x3d2e43a2	0.04254497
187	0xbc9d1e3a	-0.019179452
188	0x3c8b0fd8	0.016975328
189	0x3d9f273c	0.07771155
190	0xbd9cdcdc	-0.07659313
191	0xbd1671a4	-0.03672947
192	0xbdae74dc	-0.08518383
193	0xbd5bd229	-0.05366722
194	0xbd8b4e2e	-0.06802021
195	0x3c967efd	0.0183711
196	0xbd96fdf7	-0.07372659
197	0xbc531836	-0.01288419
198	0x3ce0d595	0.027445594
199	0xbc96f67a	-0.018428076
200	0x3ce8a687	0.028399719
201	0xbd12590c	-0.035729453
202	0x3bf4f180	0.007475078
203	0x3cc45afe	0.02396917
204	0x3d1dda72	0.038538404
205	0x3d3bcd1f	0.045849916
206	0xbdb2c5cf	-0.08729135
207	0x3da3d163	0.07998922
208	0xbc912835	-0.017719368
209	0x3d67477f	0.05646467
210	0x3a386423	0.00070339645
211	0x3ce7540b	0.028238317
212	0x3d4716fc	0.048605904
213	0x3d6558fb	0.05599306
214	0x3d791977	0.0608153
215	0xbd8588b7	-0.06520217
216	0x3c430582	0.011903169
217	0x3d5e003d	0.054199446
218	0xbd9cd583	-0.07657912
219	0xbdb40fd1	-0.08792079
220	0xbcd87e9c	-0.02642756
221	0x3d26c58e	0.040715747
222	0x3bf93e20	0.007606283
223	0x3daa6017	0.08319109
224	0xbd016b9d	-0.03159677
225	0xbd030f38	-0.031996936
226	0xbd822431	-0.06354559
227	0x3dad58d4	0.08464208
228	0xbd47781d	-0.048698533
229	0xbd71f380	-0.05907011
230	0x3c5e93c1	0.013585032
231	0xbb305565	-0.0026906368
232	0xbd77f0bf	-0.060532328
233	0xbcfe2050	-0.031021267
234	0xbd8402e4	-0.06445864
235	0x3d085be0	0.033290744
236	0x3d05f8bd	0.03270792
237	0x3ca3045a	0.019899536
238	0x3cc35d6c	0.023848258
239	0xbd2d2ed7	-0.042280998
240	0xbc5fb341	-0.013653577
241	0xbd8454d8	-0.06461495
242	0x3d732ff1	0.059371892
243	0xbd9ef6e2	-0.07761933
244	0xbc5bc270	-0.013413057
245	0x3d91cb83	0.07118895
246	0x3da7a830	0.08186376
247	0xbda14a5a	-0.078755096
248	0x3d37379f	0.04473078
249	0xbd2cb9bd	-0.04216932
250	0x3c6c79a9	0.014433303
251	0xbd7de1da	-0.061982967
252	0xbd1be919	-0.038064096
253	0xbcd731f1	-0.026268931
254	0xbc535cc1	-0.012900532
255	0xbd8dbb1f	-0.06920456

fc2.bias f4 [128]
0	0x3d7850d8	0.060623974
1	0x3cb5f808	0.022212997
2	0xbd1f46a6	-0.038885735
3	0x3b9f4bd1	0.004861333
4	0x3c51b5af	0.012799664
5	0x3c6ef23d	0.014584121
6	0x3c697741	0.014249624
7	0xbd6daf3a	-0.058028437
8	0x3c902220	0.017594397
9	0x3d549da7	0.05190816
10	0x3d1a5c79	0.037685845
11	0x3d22ecb2	0.03977651
12	0xbd0ad934	-0.033898547
13	0xbcde89fb	-0.027165404
14	0xbd11a82e	-0.03556078
15	0xbae52678	-0.0017482778
16	0xbd58afaf	-0.05290192
17	0x3c9947fd	0.018711084
18	0xbd0c088b	-0.034187835
19	0xbca2ab9e	-0.019857224
20	0xbce7f9e3	-0.028317397
21	0xbb80ce9d	-0.00393088
22	0x3c89fa85	0.01684309
23	0x3c98ebcf	0.01866713
24	0x3d57ec8f	0.052715834
25	0xbb5c834a	-0.003364759
26	0xbd675e73	-0.05648656
27	0x3cbe004e	0.023193505
28	0x3c9d607b	0.019211045
29	0xbd157fd0	-0.036498845
30	0x3c7fbe96	0.015609404
31	0x3c942a04	0.01808644
32	0xbd673d66	-0.05645504
33	0xbd062ad3	-0.032755684
34	0xbd6f6447	-0.05844524
35	0xbc97b4a4	-0.018518753
36	0x3d47f2c9	0.048815522
37	0x3cc7a922	0.024372641
38	0x3c331f6d	0.010932785
39	0xbd4c4c20	-0.049877286
40	0x3ceef9b2	0.029171798
41	0x3d8064de	0.06269239
42	0x3c83e716	0.016101401
43	0x3d1a77c4	0.037711874
44	0x3d1884e6	0.037236117
45	0xbc5f2ace	-0.013621045
46	0xbd3280a0	-0.043579698
47	0x3d37f4e4	0.04491128
48	0xbce8508a	-0.028358717
49	0xbd28ef3f	-0.041243788
50	0xbd50042f	-0.05078524
51	0xbca7398b	-0.02041318
52	0xbcd58062	-0.026062194
53	0x3ca2d7e5	0.019878337
54	0xbc8cbafa	-0.017179001
55	0x3d7db03e	0.061935656
56	0xb966fa81	-0.00022027829
57	0x3d3842b4	0.044985488
58	0xbbcfe2cb	-0.0063441745
59	0x3d567d87	0.052365806
60	0xbc32efcc	-0.01092143
61	0xbcd81d43	-0.02638114
62	0xbd123a19	-0.035699937
63	0x3d008053	0.03137238
64	0x3cf43dc5	0.02981461
65	0x3d676d2b	0.056500595
66	0xbd001202	-0.031267174
67	0xbcaf5585	-0.021403084
68	0xbd331077	-0.043716874
69	0x3d2bfd5e	0.041989677
70	0x3ca83557	0.020533247
71	0xbd585af6	-0.052821122
72	0x3cd515af	0.026011316
73	0xbc23f0ae	-0.010006113
74	0x3c89d0ea	0.01682325
75	0x3cc32b89	0.02382447
76	0xbd494157	-0.04913458
77	0x3d495a32	0.049158283
78	0xbd09e248	-0.033663064
79	0xbd5de31a	-0.05417166
80	0xba895678	-0.001047804
81	0xbc888084	-0.016662844
82	0xbb920bfc	-0.004456995
83	0xbd244e44	-0.040113702
84	0x3ba351c8	0.0049841143
85	0x3a09a3e9	0.000525056
86	0xbc9c8d33	-0.019110298
87	0xbd49e505	-0.049290676
88	0x3d57a58c	0.052648112
89	0xbd2e82fb	-0.04260538
90	0x3d0bcca5	0.03413071
91	0x3d750c04	0.059825912
92	0x3bb7c118	0.0056077354
93	0xbb27564f	-0.0025533622
94	0x3c4d6391	0.0125359455
95	0x3c35cd27	0.011096275
96	0x3d7c1df8	0.061552018
97	0x3b7b52ac	0.0038348837
98	0x3cbce5e0	0.023058832
99	0x3ca64c92	0.020300183
100	0x3d1c36d6	0.038138233
101	0x3d1bd467	0.03804436
102	0xbd007a61	-0.03136671
103	0x3d24c495	0.040226538
104	0xbd374909	-0.044747386
105	0xbd03c019	-0.03216562
106	0xbc42b981	-0.011885048
107	0x38a5bae0	7.902621e-05
108	0x3b935daa	0.0044972496
109	0x3d69193a	0.056908824
110	0xbd0d8d62	-0.03455866
111	0xbd4c0b7f	-0.04981565
112	0xbc0a44c6	-0.008439248
113	0x3d4acdd5	0.049512703
114	0x3c4e5fd0	0.012596086
115	0x3cbc544c	0.022989415
116	0xbc5b9749	-0.013402768
117	0xbca04918	-0.019566104
118	0x3cf7ee95	0.030265132
119	0xbbbf458e	-0.005837149
120	0x3d06d057	0.032913532
121	0x3d76388b	0.060112517
122	0x3d04c4a3	0.03241409
123	0xbc8eab38	-0.017415628
124	0x3b80d79b	0.003931952
125	0x3d32158b	0.043477576
126	0x3d38ea4f	0.04514533
127	0xbcba4f25	-0.022742817

fc3.weight f4 [2, 128]
0	0x3a981cba	0.0011605241
1	0xbba48416	-0.0050206287
2	0xbac95ba7	-0.0015362398
3	0xbbab0779	-0.0052193967
4	0xbb2b8ed9	-0.0026177673
5	0xbbe87e25	-0.0070951157
6	0x3b05728a	0.002036246
7	0xbbc515c9	-0.00601456
8	0xbb368def	-0.0027855595
9	0x3ad82cc9	0.0016492839
10	0xb990744d	-0.0002755247
11	0xbaa7953a	-0.0012785562
12	0xbc0fd554	-0.008778889
13	0x3a57bbcd	0.00082295836
14	0xbb956500	-0.0045591593
15	0x3aa7daa9	0.0012806255
16	0xbb89db74	-0.004207069
17	0xbc123dd3	-0.008925873
18	0xbba2c202	-0.004966975
19	0xbb42d466	-0.002972865
20	0xbbf60018	-0.0075073354
21	0x3a2a8e91	0.00065062294
22	0xbc019a1b	-0.007910277
23	0xbba437db	-0.0050115413
24	0xbb8a3cdf	-0.004218682
25	0xbaa1833f	-0.001232244
26	0xbbe5126a	-0.0069907205
27	0xbb50ae9a	-0.0031842352
28	0xbb8891d2	-0.0041677738
29	0xbba66993	-0.0050785034
30	0xbb8d5400	-0.004312992
31	0x3a7893b1	0.0009482457
32	0xbb3a61ad	-0.0028439567
33	0x3a101c26	0.00054973585
34	0xbb521593	-0.0032056316
35	0xbaa1bd38	-0.0012339717
36	0xbbb57f8c	-0.0055388864
37	0xbc186512	-0.009301441
38	0xbb877380	-0.0041336417
39	0xbbcd354a	-0.006262456
40	0xbbc01662	-0.0058620432
41	0xbbb508b4	-0.005524719
42	0xbbb6a922	-0.0055743614
43	0x3b1c8a38	0.0023886096
44	0xbbe78d35	-0.0070663937
45	0xbc03be1e	-0.008040933
46	0xbb0c1ad1	-0.0021378289
47	0x3a856ae1	0.0010178947
48	0xbbca913c	-0.006181864
49	0x3b000f4d	0.001954037
50	0xb8ee262f	-0.000113558366
51	0x3b08b8a7	0.0020862014
52	0xbbb09f6b	-0.005390098
53	0xbb4daec0	-0.0031384677
54	0xbc14f184	-0.009090785
55	0x3b359d53	0.002771218
56	0xbb4b7a09	-0.003104808
57	0xbba167c3	-0.0049256994
58	0xbbc3748e	-0.005964822
59	0xba99fdb8	-0.0011748588
60	0xb86999d8	-5.5694807e-05
61	0xbb36c6ae	-0.0027889418
62	0xbba0d118	-0.0049077384
63	0xbb3bd177	-0.0028658786
64	0x3abe19b6	0.0014503512
65	0x3a6296b6	0.00086436735
66	0xbc0c0756	-0.008546671
67	0xbbf64aa9	-0.0075162244
68	0xbb11e7e7	-0.0022263469
69	0x3ab0732d	0.001346206
70	0x3add37ff	0.001687765
71	0xbb7a3784	-0.0038180063
72	0xba7fa102	-0.000975147
73	0xbbda8d74	-0.0066696946
74	0xbc2da613	-0.010598677
75	0xbb8b4135	-0.0042497166
76	0xbc2cf526	-0.010556495
77	0xb9239baa	-0.00015602881
78	0xbacf74ce	-0.0015827657
79	0xbb4ac108	-0.003093781
80	0xbc0e085d	-0.008668986
81	0xbc03e7da	-0.008050883
82	0xbb3d3005	-0.0028867733
83	0xbb788d9c	-0.0037926203
84	0xb9696483	-0.00022258055
85	0x39ba627a	0.00035550055
86	0x37a72f28	1.992991e-05
87	0xbb53f209	-0.003234031
88	0xbbbb7b07	-0.005721453
89	0xbbad641a	-0.005291474
90	0x3afe364f	0.0019394847
91	0xbaef0710	-0.0018236358
92	0x3a9759f7	0.0011547197
93	0xbbff0d53	-0.007783571
94	0x3aa2aace	0.0012410523
95	0xbab254e6	-0.0013605624
96	0xbb134a8c	-0.0022474853
97	0xbb8ec0e3	-0.00435649
98	0x3a8f2152	0.0010919964
99	0x3942d70d	0.00018581394
100	0x3b0fe262	0.0021955003
101	0xbbec0d93	-0.0072037666
102	0xbbbfeff0	-0.00585746
103	0xb9ea698e	-0.00044710602
104	0xba888d0e	-0.0010418014
105	0xbbb9e33e	-0.0056728413
106	0xbba3f28f	-0.0050032805
107	0x3a81d110	0.0009904224
108	0xbb565bb0	-0.0032708459
109	0x38a4b643	7.854078e-05
110	0xbb15b56a	-0.0022843727
111	0xbbe6814e	-0.0070344573
112	0xbbe8b2c7	-0.00710139
113	0xbb4c3541	-0.0031159671
114	0xb9ca56b0	-0.0003859303
115	0xbc0c7c74	-0.008574594
116	0xbbe9b03d	-0.007131605
117	0xbb98fdd1	-0.004668929
118	0xbc1d7703	-0.009610894
119	0xbbc51ccb	-0.0060153953
120	0xbbaaca98	-0.0052121393
121	0xbb8771ff	-0.0041334624
122	0xbb0a068a	-0.0021061026
123	0xbb7ac96d	-0.0038267032
124	0xba2e8cde	-0.0006658564
125	0xbbb9889b	-0.0056620366
126	0xbb3fb80a	-0.0029253983
127	0xbc012054	-0.007881243
128	0x3b661c36	0.003511203
129	0x3bcdfefe	0.006286501
130	0x3b5b9419	0.003350502
131	0x3bc4ae10	0.006002195
132	0x3a056c87	0.0005089719
133	0x3b2f57d3	0.0026755228
134	0x3aa5c75e	0.0012647917
135	0xb9e56198	-0.00043750997
136	0x3bd1085c	0.0063791703
137	0x3b85091a	0.004059923
138	0x3b2b5f9d	0.002614952
139	0x3b16fa84	0.0023037503
140	0x3bbac340	0.005699545
141	0x3b97bae7	0.004630435
142	0x399eb0e6	0.00030267908
143	0x3bbf80a7	0.005844194
144	0x3ba6231d	0.005070104
145	0x3bd16871	0.006390624
146	0x3ba0b259	0.004904073
147	0xb8d80d30	-0.00010302139
148	0x3b9b93dc	0.004747851
149	0x3af01d08	0.0018319199
150	0x3a9c15eb	0.0011908388
151	0x3b147530	0.0022652857
152	0xb8f37ff0	-0.00011610973
153	0x3ab1155a	0.0013510392
154	0x3b071287	0.0020610408
155	0x3a982a7e	0.0011609343
156	0x3b91164d	0.0044277073
157	0x3aff87b6	0.0019495401
158	0xb9998485	-0.0002928117
159	0x3a2d4251	0.0006609308
160	0x3a202909	0.00061096303
161	0x3ba5a259	0.0050547537
162	0x3a065d44	0.0005125592
163	0x3955d256	0.00020391619
164	0x3ba741b7	0.0051042694
165	0x3bba1170	0.0056783482
166	0x3a9afb86	0.0011824227
167	0x3bded452	0.006800213
168	0x3bdae24b	0.0066798083
169	0x3bba7a0f	0.00569082
170	0x3b9d5e92	0.0048025334
171	0x3b89ad4c	0.004201567
172	0x3a86133e	0.0010229123
173	0x3bb71154	0.0055867825
174	0x3b1423c6	0.002260433
175	0x3adb2c24	0.0016721529
176	0x3aeadec1	0.0017919169
177	0x3ad41b0e	0.0016182379
178	0x3a77ca92	0.00094524876
179	0x3b7f799f	0.0038982404
180	0x3bb8d557	0.0056406665
181	0x3a540a9d	0.00080887397
182	0x3b390b39	0.002823545
183	0x3b882e35	0.004155899
184	0x3a60c27b	0.0008573902
185	0x3ad4d1d4	0.001623685
186	0x3b8ff1b7	0.0043928283
187	0x3bb9495c	0.005654497
188	0x3a05b8d8	0.0005101091
189	0x3b243909	0.002505841
190	0x3b1916af	0.0023359468
191	0x3b22f54a	0.0024865442
192	0x3be36cf5	0.006940479
193	0x3b933c50	0.004493274
194	0x3b300dfe	0.0026863809
195	0x3b8cc467	0.004295874
196	0x3b24dce7	0.0025156082
197	0x3a3ebf60	0.0007276442
198	0x3b4f85f4	0.0031665536
199	0x3b6279d9	0.003455749
200	0x3b89825c	0.0041964483
201	0x3b99046d	0.004669717
202	0x393da8bd	0.00018087304
203	0x3b0a1598	0.002107
204	0x3bbca435	0.0057568797
205	0x3adb142f	0.0016714389
206	0x3b135a9a	0.0022484423
207	0x3b6b3287	0.003588827
208	0x3bb6996c	0.0055724885
209	0x3ab08ec9	0.0013470288
210	0xba2ab7b5	-0.000651236
211	0x3a1634ed	0.00057299325
212	0xb85d6fd6	-5.279466e-05
213	0x3ab52ebc	0.0013823132
214	0x3b9a7ef4	0.004714841
215	0x3add54bc	0.0016886215
216	0x3ba55ba5	0.0050463253
217	0x3ac64738	0.0015127426
218	0x3aac4994	0.0013144487
219	0x3b77307c	0.0037718108
220	0x3b18ef8d	0.0023336143
221	0x3bb3e476	0.005489881
222	0x3b4975fb	0.0030740488
223	0x3b10ff32	0.0022124765
224	0x3bc1ec15	0.0059180357
225	0xb98a97d5	-0.00026434535
226	0x3b70d275	0.0036746536
227	0x3b3c0af2	0.0028693047
228	0x3b95e936	0.00457492
229	0x3bb0ec35	0.005399252
230	0x3baa6d92	0.00520105
231	0x3bb1a438	0.0054211877
232	0x3b59d24e	0.0033236924
233	0x396d14cd	0.0002260983
234	0x3abb446a	0.0014287357
235	0x3b334095	0.0027351726
236	0x3bb8931a	0.0056327702
237	0x3b9745f5	0.004616494
238	0x3a5a4e1e	0.00083276804
239	0x3bc002f9	0.0058597294
240	0x3b98a546	0.004658374
241	0xbb229f6a	-0.0024814256
242	0x39bdf130	0.00036228588
243	0x3abd17bf	0.0014426633
244	0xb82c4bce	-4.1078594e-05
245	0x3b805d0f	0.0039173434
246	0x3b352d20	0.0027645305
247	0x3bc8645a	0.0061154785
248	0x3ac40b98	0.0014957068
249	0x3b85ba46	0.0040810434
250	0x3a4b17b1	0.0007747366
251	0x3a74b0a8	0.0009334185
252	0x3b2a8c73	0.0026023656
253	0x3b81da18	0.0039627664
254	0x3b40044f	0.0029299443
255	0xb9d30d8e	-0.00040255155

fc3.bias f4 [2]
0	0x3b42907e	0.0029688175
1	0x3cbd23eb	0.023088416
