checkpoint_critic_1.pth (torch_old, 542603 bytes, 5 tensors)

fc1.weight f4 [400, 33]
00000000: 2198 643e b9c9 cfbd 8b42 a43c 7cef 6e3c
00000010: 3812 333b b30c ca3b 6f19 083c 98c7 2fbc
00000020: bf51 0d3b df64 053d 975f 39bd 9437 cdbc
00000030: 6c71 703c 556b 2ebe b3ec 953d e508 efbc
00000040: 01c9 753c 9cac b63d fdc0 483e a4bc 85bc
00000050: 3e3a 903b ab03 0d3d 70b1 433d 4579 cdbd
00000060: 4d82 f9bb 3d06 1f3d b68d ea3c 3607 aa3c
00000070: 2981 d93c 4c1d 2e80 b5fc aabc c205 0e80
00000080: 7c6d 21bf d75a 12bc 3b49 7f3d 041a 0e3b
00000090: 7267 0cbd 412d a9ba a055 92bb ee5a 19bc
000000a0: b97a e43c acfd 813c 03c1 25bb bcf2 03bc
000000b0: ef24 473c 7812 8e3b d3f3 36bc 241a 243d
000000c0: 7c48 0bbc 314a cbbb 416b 28bc 984c 163b
000000d0: 0c15 2dbc 188b 21bc a691 f33b eaf5 15bc
000000e0: 1958 f43b 3631 6abc 2246 c1ba 6ac0 93ba
000000f0: 8798 243d 12a9 73bc 50bb 2300 8798 24bd
00000100: 337b 4100 87e8 8cbb 7374 f1ba bdeb af3d
00000110: 72ea 09bc f969 45bd ba80 8dbb 4de8 c7ba
00000120: 2162 33bb f8fb 18bd f548 833c 222e 8bbb
00000130: 73e8 f5bb 2300 44bb 1058 303c 539d 17bc
00000140: 1c02 873d 7f08 7bba 5aff 9cba 5219 cb3b
00000150: 06cf de3a b777 0fbd 4312 093c 0e6f 6d3b
00000160: ba8e 9ebc c4f7 283c bc73 8bbc 9dd5 c13c
00000170: ffba 83bc 60bd 4f3d e4dd 05bc 50c0 2400
00000180: 60bd 4fbd 5f4d 2200 f5c5 7d3c 38aa 0dba
00000190: 34b6 123d 55d4 a93b 4120 9cbc c61c 4735
000001a0: 357c 0b96 d03a c138 2b23 33b9 6acb 6436
000001b0: 3222 53ba 6ee7 33bc 956c 813b 12b2 b4b9
000001c0: 4d6e 86bb 2e23 d43c dd10 8b38 1c9d eeb6
000001d0: 2238 9e34 70c0 d532 fc98 6bbc 085f 303a
000001e0: e1e2 cc3a b066 c23a 343a 22ba 9357 83bb
000001f0: 1656 b3ba 915a 0b3b 9c6d ab3c a786 bcb9
00000200: 2039 4c00 9c6d abbc 72ec 5100 d1db 123a
00000210: 7bfe 5ebc 1393 c23d 9927 813c 1871 69bd
00000220: afd3 f0bb e3bb dbba f000 473c cdb6 e23b
00000230: 8726 20bc 2ea9 a3bb 4842 97bb 5c8e 73bc
00000240: 220b 743b f87c 71bc 78dd 803d b4ce 0aba
00000250: 6135 9cbc fdae 6f3c 2f40 473c c30c 04bd
00000260: 1f0c 673c 33db 9ebc 7443 8d3c 02e5 023c
00000270: 97d9 b5bb a59b a63c aa66 4dbc 3e29 803d
00000280: d9d6 a7b9 b781 2e00 3e29 80bd 2800 4b80
00000290: cc2e bcbb c35c 483b 9860 113d 83d2 b03a
000002a0: 3f35 48bc a4f3 f538 cc43 b438 6a9e 97ba
000002b0: 934d 4ab9 0999 9639 3573 0b39 074c 0d3a
000002c0: 6ed2 adba fe02 bd3b 136d 0f3b 165d a43c
000002d0: a58f 9d38 d69d 43b9 6d81 f0b9 248b a7b8
000002e0: b1c5 25bc f66a 463b 565a 0cbb 9d29 433b
000002f0: de80 c3bb 3a93 66bb 5c94 153b 26ab c53a
00000300: 804f 813c 33e1 c4bb a117 0100 804f 81bc
00000310: ac99 1400 2788 d13b d5e7 b1bc e769 ae3d
00000320: 8bfd a0bb 9633 62bd 2b34 61bc bd45 57bb
00000330: cb53 f7ba d8a7 8cbc 2a89 84bc 6871 b33b
00000340: 9e16 323c 947f a2bc 6635 753c 9341 8abc
00000350: 93a3 773d 7d03 e0bb 15ce 913b 951d 353c
00000360: a042 c5bb 6898 dcbc f000 403b 3fd8 bb39
00000370: 111a 363c 4099 db3b a2ab c2bc 538b 003c
00000380: af36 293c 1dd6 6c3d 008d 74bb f73d 1f80
00000390: 1dd6 6cbd 21e2 1a00 1009 54bd 8bb7 58bc
000003a0: 3603 663d 01fe 143c 1b41 1bbd 2a20 3fbb
000003b0: 5c2a 4e3b 86b7 46bb e4ef fc3b eac1 0bbb
000003c0: 5a46 99ba c304 0abb 6404 33bc 5d45 983c
000003d0: 665d 2cbc 4e61 153d 6926 8b3b ef56 24ba
000003e0: a7eb 54bc 8a40 19ba f3cd f3bc 321b 7fbb
000003f0: e324 093c 4f16 f53b a45b 63b9 1c2f ecbb
0.22323658 -0.101458974 0.020051261 0.014583465 0.0027324092 0.0061660646 0.008306845 -0.010728739
0.0021563617 0.0325669 -0.045257177 -0.025050916 0.014675479 -0.17033131 0.073205374 -0.029179046
0.015001536 0.089196414 0.19604869 -0.016325302 0.0044014743 0.034427326 0.04777664 -0.10032896
-0.00761441 0.03882431 0.028632026 0.020755392 0.026550846 -4.234943e-39 -0.020872453 -1.287762e-39
-0.63057685 -0.008932791 0.062325697 0.0021682987 -0.03427834 -0.0012907163 -0.0044657737 -0.009360058
0.02789055 0.01586803 -0.0025292046 -0.008053478 0.012154802 0.0043356977 -0.011166531 0.040063992
-0.008501168 -0.0062039127 -0.010279478 0.0022933837 -0.0105641 -0.009859823 0.007433134 -0.009152869
0.007456791 -0.014293959 -0.0014745633 -0.0011272554 0.040184524 -0.0148718525 3.281437e-39 -0.040184524
6.013503e-39 -0.0043001804 -0.0018421545 0.085898854 -0.0084177125 -0.048196767 -0.004318324 -0.0015251726
-0.0027371722 -0.03734967 0.016026 -0.004247443 -0.0075045167 -0.0029907308 0.010763183 -0.009253818
0.06592199 -0.0009576156 -0.0011977956 0.006198087 0.0016998954 -0.03502628 0.00836617 0.0036229524
-0.019355167 0.010312978 -0.01702296 0.023661429 -0.016080378 0.05071771 -0.008170579 3.375067e-39
-0.05071771 3.150162e-39 0.015489091 -0.0005404088 0.035818294 0.0051827827 -0.019058349 7.417515e-07
-1.1267523e-25 9.213912e-05 -0.00017083871 3.409305e-06 -0.0008054107 -0.01098047 0.0039497116 -0.00034464948
-0.0041025043 0.025895681 6.6311775e-05 -7.1112427e-06 2.9470635e-07 2.4883974e-08 -0.014379736 0.0006728028
0.001563158 0.0014831629 -0.00061884825 -0.0040082424 -0.0013682272 0.0021263699 0.02092629 -0.00035958478
6.99999e-39 -0.02092629 7.523496e-39 0.0005602213 -0.013610478 0.095007084 0.015765952 -0.05699262
-0.0073494534 -0.0016764369 0.01214622 0.006918764 -0.009774811 -0.004994533 -0.0046160556 -0.014865484
0.003723808 -0.0147392675 0.06292242 -0.00052950834 -0.019068422 0.014629123 0.012161299 -0.032238733
0.014102011 -0.019391632 0.017244078 0.00798917 -0.0055496204 0.020337889 -0.012536684 0.06257866
-0.00032012796 4.270966e-39 -0.06257866 -6.887718e-39 -0.0057428833 0.0030572868 0.03549251 0.0013490472
-0.012219726 0.00011727892 8.595697e-05 -0.0011567597 -0.0001929312 0.0002872425 0.00013298991 0.0005390052
-0.0013261565 0.005768179 0.0021885082 0.020063918 7.513099e-05 -0.00018655448 -0.00045872797 -7.9890975e-05
-0.010117934 0.0030276156 -0.002141615 0.0029779442 -0.00596629 -0.0035182969 0.0022824025 0.0015080913
0.015784979 -0.006008291 1.00312e-40 -0.015784979 1.891837e-39 0.0063944045 -0.021716991 0.08516293
-0.004913037 -0.055224977 -0.013745348 -0.0032847964 -0.0018869577 -0.017169878 -0.016178686 0.0054761656
0.01086965 -0.019836225 0.014966344 -0.016876971 0.06045873 -0.0068363533 0.0044496157 0.011054416
-0.006019905 -0.026928142 0.0029297434 0.00035828535 0.011114613 0.0067016184 -0.023763482 0.0078457175
0.010327979 0.05782138 -0.0037315488 -2.869129e-39 -0.05782138 2.468843e-39 -0.051766455 -0.013227354
0.056155406 0.009093762 -0.037903886 -0.0029163458 0.0031458354 -0.003032179 0.007719027 -0.0021325299
-0.001169394 -0.0021059967 -0.01092634 0.018587762 -0.010520315 0.03646975 0.004246522 -0.00062690576
-0.012995637 -0.0005846104 -0.02976129 -0.0038926122 0.008370611 0.007479466 -0.00021682546 -0.0072077643

fc1.bias f4 [400]
00000000: 1185 a5bc 8798 24bd 60bd 4fbd 9a6d abbc
00000010: 3e29 80bd 814f 81bc 1cd6 6cbd 9616 2dbd
00000020: 3b49 44be 0314 a0bd 320d 8ebd 43d6 86bd
00000030: a1f8 f1bd 2bb3 8abd d31b 66bd 6565 afbc
00000040: 483d 0bbb d15b 87bd 528a 10bd fe82 90ba
00000050: 7f66 50be 9b8b 50bd 5254 4cbd 39cf 68bd
00000060: 37c8 38be a5af 7ebd 3989 91bc 259e 7bbd
00000070: cc57 9cbd 4525 acbd bd8b 86bd 50d8 52bb
00000080: c0c8 15be f212 5dbd 689a 9b3e e895 5bbd
00000090: 975d 23bd a255 cabd 3869 2dbd 22e6 0abd
000000a0: 1d64 13bd 0c9d 52bd 8c1e d9bc 9347 18bd
000000b0: d221 22bd c811 7dbc 1e18 8fbe 726f f7bc
000000c0: d786 a7bd 07ae 0cbe 2461 84bd 83ec 8dbd
000000d0: 52b6 89bd 5809 6bbe d117 97bd bdf9 933d
000000e0: 1e73 98bd 912f a3bc f6a8 87bd 2b6d f2bc
000000f0: 382e 09bd f979 5abd dc2d a1bd 95f1 39bd
00000100: c171 03be 96cb 2e3c d637 b8bd 7631 8cbd
00000110: 31cb 1abd b540 48ba 328d 9bbd 1857 2abd
00000120: 1189 61bd cd3d 69bd e200 0cbc 9607 a7bc
00000130: 5843 86bd 9c99 94bb f653 2ebd a6f9 9abd
00000140: 733f cbbd 103d 16bd e492 65bc b1a4 d6bc
00000150: 2e62 2bbe 0dd1 e4bc 2a2b 11bb 50a6 81bd
00000160: 1167 69bd e4bb b0bd c067 34bd fe30 58bc
00000170: cf5b 793b acd9 72bd caf2 50bd 2ad6 e0bc
00000180: 7610 06bd 0313 74bd c326 aebc f1c2 28bd
00000190: 2ac0 403e 09aa 8dbd 6640 2fbd d432 83bd
000001a0: 7a16 7abd 90b4 6bbd 7b84 b3bd 1889 c3bc
000001b0: 13f6 51bc 0b6c 81bd 4702 d2bc d262 2abd
000001c0: 86e2 01bd caf4 c7bd 7260 35bd aabe 3dbd
000001d0: 5082 92bd 8c69 7abd fef6 5bbc 7e2d bebb
000001e0: 0981 99bd eaf0 e4bc 9385 d8bb 1dbe 8dbd
000001f0: 6eca 3bbd 2efd feb9 85f5 0abd 515c 8ebd
00000200: 013a 6539 7322 b7bd ee7d b8bc f701 afbb
00000210: eecc 52bd ac76 7fbd 5bd2 83bd d468 39bd
00000220: 7951 f3bd a144 4fbd bbd7 5bbd e59b bbbc
00000230: 46e0 7abd 6a81 2bbd 430d 89bd 2db0 b6bc
00000240: 2e95 49bd 5f74 3dbd e0b3 a5bb 2693 65bc
00000250: 553a 08bd bae2 2cbd c215 0dbe a462 a8bd
00000260: 4cd0 26bd cb9d 49bc 8493 e1bc e90b 3fbc
00000270: a563 2fbd 8778 0dbd 2ada 65bd 0c7f a5bc
00000280: 0a3a ffbb e424 94bd 4b97 efbc da15 c4bd
00000290: e215 3ebd 1c9f 86bb 3aa1 b7bb 20f9 c5bd
000002a0: 5641 98bd 563f 76bd 31c4 abbd 45f7 6ebd
000002b0: 2b2f 92bd a2b0 3abd db16 dabd 78e7 98ba
000002c0: f4f4 98bd 9007 27bd 9427 70bd 41e0 29bd
000002d0: d987 e3bc 10e2 5ebd 318a fabc afc7 8dbc
000002e0: de68 47bd 3e66 ae3e e5e6 48bd 4d7f eabc
000002f0: b3c3 18bc d2f1 b8bc 5080 f7bc de76 95bc
00000300: fb9e efbd fd47 3dbd 02a0 5fbb 71c5 39bd
00000310: d047 3ebd 85e8 6dbd f18f 13bd 654c f1bc
00000320: b746 77bd 6e43 72bd bbda 5bbd 5328 d5bd
00000330: a15f 05bd db3b 1abd 54a3 80bd 1d6b 10bd
00000340: 038a 83be f832 60bd 3201 72bc c9f2 84bd
00000350: 9060 42bb a55c 1fbd 5ee4 9ebd fc2f 4cbd
00000360: 5c9b f3bd b129 63bd 101a 14be 8f5d bfbc
00000370: 801c 96bd 88b0 d2bc e952 93bd 506c 24bd
00000380: 4c85 56bd 7f04 87bc 6dc0 523e 671b cebd
00000390: 066a 31bd b03f 29bd cde1 a6bc 3713 84bd
000003a0: 00ec c6bc 42fc 00bb 3b87 03be fe2d 57bd
000003b0: 4c98 17bd 96ff 85bd 4c3a 0cbd c35a 0e3e
000003c0: 68fd 90bd ebbf 48bc d0ab 2abe 2616 74bd
000003d0: 5db9 e2bc 49e0 d6bd 56f9 68bc 64e4 c3bd
000003e0: b04a abbb 651c 35bd babd 4cbd 27f6 86bd
000003f0: 3a16 eebd 6230 f3bc 8d9c 42bd 7de7 96bd
-0.020205053 -0.040184524 -0.05071771 -0.020926286 -0.06257866 -0.01578498 -0.057821378 -0.042257868
-0.1916856 -0.07816317 -0.069361106 -0.06583836 -0.11815 -0.06772455 -0.05617888 -0.021410653
-0.0021246243 -0.066093095 -0.035288163 -0.0011025367 -0.20351599 -0.05091439 -0.0498851 -0.056838248
-0.18045126 -0.062179226 -0.017765628 -0.061430115 -0.076339334 -0.08405546 -0.06569622 -0.003217239
-0.14627361 -0.053973146 0.3039124 -0.05360976 -0.039884176 -0.098796144 -0.042336673 -0.033910878
-0.035984147 -0.051419303 -0.026503824 -0.037177633 -0.039583035 -0.015446134 -0.27948087 -0.030204508
-0.081800155 -0.13738261 -0.064638406 -0.06929877 -0.06724228 -0.22952783 -0.073775895 0.07225368
-0.07443832 -0.019920142 -0.066240236 -0.029593071 -0.033491343 -0.05333898 -0.07870075 -0.045396406
-0.12836362 0.010668656 -0.08995025 -0.068453714 -0.037791435 -0.00076390366 -0.0759529 -0.041586965
-0.055062357 -0.056943703 -0.008545132 -0.02038936 -0.065558136 -0.004534913 -0.04256054 -0.07567148
-0.09924211 -0.036679327 -0.014012072 -0.026201578 -0.16736671 -0.027931714 -0.0022150972 -0.0633055
-0.056983057 -0.08629587 -0.044044256 -0.013195274 0.0038049107 -0.05928962 -0.05101279 -0.027445871
-0.032730542 -0.059588443 -0.021258717 -0.041201536 0.18823305 -0.06917197 -0.042786025 -0.06406179
-0.06105659 -0.057545245 -0.08765503 -0.023869082 -0.012815016 -0.06319436 -0.025635852 -0.04159815
-0.03171017 -0.09763487 -0.04428143 -0.04632441 -0.071537614 -0.061135814 -0.013425587 -0.005803763
-0.07495315 -0.027946908 -0.00660772 -0.06921027 -0.04584735 -0.0004863529 -0.033925552 -0.06951202
0.0002186075 -0.089421175 -0.022520985 -0.0053408104 -0.051464967 -0.062369034 -0.064366065 -0.045265988
-0.11880774 -0.05060256 -0.053672533 -0.022901485 -0.06124904 -0.041871466 -0.066919826 -0.022300804
-0.049214534 -0.04625356 -0.005056843 -0.014012134 -0.033258755 -0.04220841 -0.13777831 -0.08221939
-0.04072599 -0.012305687 -0.027536161 -0.011660554 -0.042819638 -0.034538772 -0.05611626 -0.020202182
-0.007788901 -0.07233599 -0.029246947 -0.0957448 -0.046407588 -0.004108323 -0.0056039365 -0.096666574
-0.07434337 -0.060118996 -0.0838703 -0.058341283 -0.07137903 -0.045578606 -0.106488906 -0.0011665663
-0.07468596 -0.040778697 -0.058631495 -0.04147363 -0.027774738 -0.05441481 -0.030583473 -0.01730713
-0.048683994 0.3406238 -0.049048323 -0.028625155 -0.009324002 -0.022576246 -0.030212551 -0.018245157
-0.11700245 -0.04621123 -0.0034122472 -0.04535431 -0.046455204 -0.058083076 -0.036025945 -0.029455373
-0.060370173 -0.059146337 -0.053675395 -0.10408082 -0.032561902 -0.03765474 -0.06281152 -0.0352584
-0.25691232 -0.054736108 -0.014770793 -0.0649162 -0.0029659607 -0.038906712 -0.07758401 -0.04985045
-0.11894867 -0.055459682 -0.14463067 -0.023360042 -0.07329655 -0.025718942 -0.07193548 -0.040142357
-0.052373216 -0.016481636 0.20581217 -0.1006382 -0.043314002 -0.041320503 -0.020371342 -0.064489774
-0.024282455 -0.0019681607 -0.12844555 -0.052534096 -0.037010476 -0.0654289 -0.034235284 0.1390181
-0.070795834 -0.012252788 -0.16667104 -0.059591435 -0.027676279 -0.10491998 -0.014219603 -0.095650464
-0.0052274093 -0.044216532 -0.049985625 -0.065899186 -0.11625333 -0.029686157 -0.04751258 -0.07368372

fc2.weight f4 [300, 404]
00000000: 7e36 133e 57ca 5b3b d807 6dbc 4ff5 52bb
00000010: d53f 2bbc 9e63 683a 576b 883c da7d 1fbc
00000020: 87e5 5b3e 6b70 16bc d11f a0bc aa58 b0bb
00000030: d0c1 183d 72b3 d7bb 08f8 42bb 7851 a23a
00000040: b60f eb31 765d 7fbb d309 223c cea2 c8b9
00000050: c2bb cabe 6800 373c 409f 653b bedf 4b3c
00000060: e2ae 51bd 5db8 ad3c fe77 673a cb53 03bd
00000070: 5086 8abd 1bea 66bd 3037 c2ba 594a 1fba
00000080: 9a0b 99bc 87e8 70bc 4a09 b0bd 8e2e e03a
00000090: 75f3 013c d7be 573b ba48 a3bb 2eb0 26ba
000000a0: b696 52bc 4e71 a1bc 04f6 7c3b 6506 3ebc
000000b0: 06bf 9dbb 32ba 92bb bd04 013e 142e fa3b
000000c0: f96d dabc bb19 56bc 2af3 83bc 6dec 48bc
000000d0: 40e5 03bd 6ead 113d cd42 83bc 5e49 0bbe
000000e0: fca7 12bb aa4a 0e3d 58cd 883c dfa9 91b9
000000f0: a475 f9bb 4b72 3e3c c49a c6bb 400b 15bd
00000100: b045 483c 9fb4 65bd c465 f23d 1886 9bbb
00000110: 6a90 34bb 5534 0537 af39 ecba 1099 7c3c
00000120: f9f3 7fbc a00b 87bb 206f 63ba 7041 d1bc
00000130: 7354 85bc bde6 be3a 9e7c 3e3b 3104 4f3c
00000140: f234 133c 1c17 8dbb d94e 3db9 eb52 293b
00000150: bf78 8abd f33d 7b3c 663f fab9 cd74 ecba
00000160: a322 60b9 07f2 62be 9449 913c 0ad9 923a
00000170: 0d75 3cbc e5fa c0bb fdfe 03bb fd49 ac3a
00000180: 72fd ebbb 10e9 5a3a dab4 0cb9 ae21 4b3d
00000190: 19af c83d 5b6a 223c 5de8 253a b1d8 403c
000001a0: 5d0f d93c c9e2 743c 24ef aebc b79a 9abb
000001b0: 69de 713b a094 debb ca21 3a36 0da0 71bb
000001c0: 17e2 ecbb 06b5 de3d 98d8 12bd 3153 8b3c
000001d0: 23b4 213c 430f 10bd 7706 de37 2511 cc39
000001e0: 19e8 ab3b 910e 46bc 5ae3 feba e9fb 2abc
000001f0: 7267 14bc a110 7cb0 2b18 b8bb a754 93bc
00000200: e833 173b e222 c0bb 1ee7 32bc 9d0f 18b9
00000210: 2764 b13a 2718 cc3b 06df 82bc 1e52 863b
00000220: 7fe9 4dbc f760 9139 6050 0abd 4f62 14bb
00000230: dc79 c4bb 4272 c1bb 9ccb e3bb a691 203c
00000240: 1f45 dbba 9f45 29bc 5cf5 f43d 5a5b 90b9
00000250: 3d3a 8fbc ac4e 2c3c 4fdb 82bc cff2 05be
00000260: 790f 9f3d f819 65ba 908b eaba 9082 053c
00000270: f79e 173c 31ff 863c dafa b83b 94e8 1dba
00000280: 7653 3f39 94c3 0bbe 8ae9 113c 403e 2abd
00000290: b24c 08bc a54c 3fb9 7327 7a38 d10a e7bb
000002a0: da2f 00bd 80fa 88bb 51a7 e93c e160 1fbc
000002b0: be3f f0bc d168 4f3b 4615 6ebd 3176 95b8
000002c0: c05e 523c 38e4 d638 9c39 0bbd eb4a 583c
000002d0: 8fb9 0abb da63 48bc a288 2cbc ca41 07bc
000002e0: 16a3 963b 3d16 693c 7a6c 433c b1c5 6739
000002f0: df4a 6cba f64c f33a c992 97bc 1c4c cd39
00000300: 871f 9fbb 234b 863b 7e37 b1b8 c999 1a3c
00000310: 3f39 4abc 895c a5bc e011 3c3a eebb 5eb9
00000320: 4ba6 f739 2add 073c 6700 6bbb 9e63 b0bc
00000330: fbf7 b93b 3068 b8ba 4e96 0f3c 09a4 9338
00000340: 5d6d 2880 eff9 1d3c 884f a63b 8ee0 3f3c
00000350: a386 3bbe ed2b 1fb9 866c ee3c 6538 12be
00000360: bd4d 453d 915b 863a 78ef 313b 5a42 653b
00000370: ed44 853c e51f 0ebc cb2a 06bd 2481 b4bc
00000380: 7c32 35bc 9a98 fbbb ec1a 4abc 3119 213b
00000390: a11b bdba 729d 9bbc 2ce5 fd37 1793 c6ba
000003a0: cb90 d2bb a321 5137 f0fc a93e 19c1 25bc
000003b0: 0e25 073c 7cf1 3d3c b1c8 b7bc 8021 8abd
000003c0: c9e6 c6bc 1f3c f1ba b169 97bd e3d8 69bc
000003d0: ab70 533c aa26 66bd a6d8 d2bb 3cdc 25bc
000003e0: f2ce 9336 3244 683b f005 4cbc 155e bd3b
000003f0: 9b78 413e bc41 993c 8442 82bc 5706 8f3c
0.14376256 0.0033537352 -0.014467202 -0.0032189672 -0.01045223 0.0008864942 0.016652746 -0.009734595
0.21474276 -0.009182076 -0.019546421 -0.0053816633 0.03729421 -0.006582671 -0.002974989 0.0012383899
6.8411863e-09 -0.003896562 0.009890038 -0.00038268272 -0.39596373 0.01116953 0.0035037547 0.012443481
-0.051192172 0.021206075 0.0008829831 -0.032062333 -0.06763899 -0.056375604 -0.0014817473 -0.00060764473
-0.01868229 -0.014703876 -0.08595522 0.0017103718 0.00793158 0.0032920146 -0.004983035 -0.000635865
-0.012853315 -0.019707348 0.0038598785 -0.011598204 -0.0048140315 -0.0044777626 0.12599464 0.0076348875
-0.026663767 -0.013067658 -0.01610716 -0.0122634 -0.03220105 0.035565786 -0.016023064 -0.13602206
-0.0022377959 0.034739174 0.016699478 -0.0002778312 -0.007612901 0.011623929 -0.00606093 -0.036387682
0.012223646 -0.056080457 0.118358165 -0.00474621 -0.0027551898 7.939602e-06 -0.0018022562 0.015417352
-0.015622132 -0.004121259 -0.00086759217 -0.025543898 -0.01627562 0.0014564615 0.0029065977 0.012635277
0.008984791 -0.0043057334 -0.00018053818 0.0025836776 -0.06761312 0.015334594 -0.0004773095 -0.001804018
-0.00021375208 -0.22162639 0.01773528 0.0011203599 -0.011502516 -0.005889284 -0.0020140999 0.0013144609
-0.007201844 0.0008350769 -0.00013418813 0.049592666 0.09799022 0.009913052 0.00063288753 0.011770413
0.026496584 0.014946648 -0.021354266 -0.0047181505 0.0036906248 -0.00679262 2.7735828e-06 -0.003686908
-0.0072291004 0.10874371 -0.03585109 0.017007442 0.009869608 -0.035170805 2.6467473e-05 0.00038922686
0.005246174 -0.012088434 -0.0019446418 -0.010436037 -0.009057866 -9.1700697e-10 -0.0056181154 -0.017984701
0.002307171 -0.0058635334 -0.01091936 -0.00014501666 0.0013533876 0.006228465 -0.015975486 0.0040991446
-0.012567877 0.000277288 -0.033768058 -0.0022641604 -0.005995972 -0.005903513 -0.0069517624 0.00980035
-0.0016728974 -0.01033154 0.11960861 -0.00027533883 -0.017483825 0.010516804 -0.015973715 -0.13080905
0.07766623 -0.00087395264 -0.0017894376 0.008148804 0.009254209 0.016479107 0.005645138 -0.00060237315
0.00018246271 -0.13648826 0.008905778 -0.041563272 -0.008319067 -0.00018243732 5.9641385e-05 -0.00705085
-0.031295635 -0.0041802526 0.028522165 -0.009727688 -0.02932727 0.0031648169 -0.058125757 -7.1268885e-05
0.012839973 0.00010246824 -0.033990487 0.013201456 -0.002116773 -0.012230838 -0.010530623 -0.008255431
0.004597078 0.014226493 0.011927718 0.00022103522 -0.0009013842 0.0018562365 -0.01850261 0.00039157353
-0.0048560533 0.0040983125 -8.450354e-05 0.009436079 -0.01234275 -0.020185726 0.00071742944 -0.00021241579
0.0004723541 0.008292476 -0.0035858394 -0.021531876 0.0056753135 -0.0014069136 0.008763863 7.04006e-05
-3.712652e-39 0.009642108 0.005075399 0.011711253 -0.18313079 -0.00015179785 0.029104482 -0.14279325
0.04816984 0.0010250678 0.002715079 0.0034982176 0.016268218 -0.008674596 -0.032755654 -0.022034235
-0.0110594 -0.0076781036 -0.01233552 0.0024581666 -0.001442779 -0.018995974 3.0266667e-05 -0.0015150037
-0.006425952 1.2465202e-05 0.33200788 -0.010116839 0.008248581 0.011593219 -0.022434564 -0.06744671
-0.024279969 -0.0018404758 -0.07393206 -0.014272901 0.01290528 -0.056189217 -0.006434518 -0.010123309
4.405033e-06 0.0035441038 -0.0124525875 0.0057790377 0.18893664 0.018708102 -0.015900858 0.017459078

fc2.bias f4 [300]
00000000: c6c3 9dbe d7a6 3d8d 3c10 96bc b2a8 67bd
00000010: 6fc3 449a 91f4 b93e 3253 bbba ad19 e992
00000020: af35 04b9 d0e3 c53d 7c44 0795 17c8 efb3
00000030: 57b4 60b8 96a5 7ebc d3a1 893e d663 cf81
00000040: a9f9 04b1 ab7b 483e 5912 b2bc 87b2 b8ba
00000050: 8eeb d93e 640b b4be 66cb c7a5 c614 b99c
00000060: 0b96 3db6 2955 0cb6 5fb1 87b9 a521 939c
00000070: a61c 0db8 9c39 53bb 6aaa f2b3 30c2 a7ba
00000080: 6c45 80be 6e52 b1a9 8302 9bb0 a5fa 2ab7
00000090: 1c92 9d3e 6472 0ebc c775 2fae 66a5 0300
000000a0: c603 07bc 2019 0280 6c75 b63e 888c 3d8e
000000b0: d02e 6dbe 0c08 acb5 1af1 39bc d7ec 3991
000000c0: d489 cabc 7bdb 7cb4 9139 0e3f 41e7 4ab5
000000d0: 46fd c7b9 95de 2db7 23f6 c9bc 9f83 caa5
000000e0: 6873 479e 5a80 319f 6451 3e00 0982 89b8
000000f0: d387 8cbc 1d83 f7a7 1c55 cabb 5df2 a7ac
00000100: 13bd d3bc c857 46bc 1a6e 968d 4299 81bc
00000110: 83e9 55b5 065a 94b4 c6e7 299c 8659 08ba
00000120: 5ff5 53b6 641c 0cbd 4a3b 6fbc 03fa b7bc
00000130: cce2 733e 4d84 a4bc 62c8 52bc 62c1 4693
00000140: 1fc2 869d 5cf1 87b6 a9da 48bc 6105 43ba
00000150: 9e13 50bb 2905 19ae 8868 11bd 3258 c5bc
00000160: 0c21 05bc 9aac f73e 5278 b0b5 05ee 1bae
00000170: 0a00 203e 81fe 3993 6537 50a3 11ec c9b4
00000180: e4e7 b0bc 1b8a 93a8 0fad 34ba fac2 0e3e
00000190: 92c7 d0ba 5909 1fbc 6201 aabc 4a46 33a5
000001a0: dd89 76ba d14f b1b5 bf2f 113f b504 0480
000001b0: 74e8 f094 53f3 9aba 2901 8abb d510 88bb
000001c0: 3c1e 4ba6 188d b8b1 7621 01b6 9c6a 72b6
000001d0: 7d00 ffb8 e612 cfb4 310d 1000 4344 dc86
000001e0: a7ac 0fa9 a25a d282 b6e9 ecaf 0bc8 09b9
000001f0: 34db 19b7 5cf4 5585 d2ba 23ab fad5 0eb9
00000200: 3930 8eb8 e561 9b9f 59d0 31bd c28e d2ba
00000210: 833c 0137 2593 e03d 6686 b2ba 3fc1 cdbb
00000220: 02ec e1bc 7b43 2dbd 2c9d 01a9 30d7 b5be
00000230: 875f 91b2 91c7 c9a9 4be4 87a4 1f4d 2ebc
00000240: 60f6 1da0 02f6 5eae a690 6dbb 6542 a3bb
00000250: fe8d 74bb 49f5 d3ba aaa7 41b1 cb3a 2eac
00000260: c4dd a3bb 3fb0 903e ffbb 533c 3d80 288b
00000270: c9a2 8ebd a41f c03e ffc5 80b1 83d8 3e3e
00000280: d15f b802 7ae9 0bb5 4229 b9b7 50c8 a0be
00000290: 24ea 26be dac0 42ae 8e0d 8ba0 0d59 a4bc
000002a0: 0c0b 369f 2e7e 6fbb 5f1e c3b6 fa17 00bc
000002b0: 130a 7e9d ea74 c1bb 47af 2cbb c2c8 dcb0
000002c0: 2606 a3bc 2782 6abc c338 a1bc 1d34 3cb8
000002d0: 946d c612 9fe3 2a89 3302 77b7 7432 c93d
000002e0: c3c4 07ba 73c2 5cbc 514a e1b9 b04e dcbe
000002f0: 62ab 0e80 2365 1300 fc2c 139a ad11 e93e
00000300: f321 1fbb e392 f03b 1bd9 4dbb e1df d7b8
00000310: cdf5 85bb 95a4 c63e 5e62 f1b7 307d d0b1
00000320: 0119 8fa5 f0b9 50b0 2749 08b4 34e4 88b2
00000330: e9be bd3e 9818 f6b3 0fc7 f1bc 2c44 98bb
00000340: 1fa9 193c f00a 1995 26f3 a9ba 370a 63b8
00000350: 20d5 a63e 22fd 6e3d f343 35ab 425d d8b3
00000360: 2d6c ca29 7334 9893 1ab5 ddb9 8ec2 aabc
00000370: cb0a d6a9 f911 e7b9 a102 3d98 aacf b23e
00000380: 08ce 2db4 0c41 cd3c 1ab0 3fb9 7f3a 87b2
00000390: ef0f a881 370f 3aa2 47b2 8cbe e79f 073e
000003a0: 1e5e c9b1 f5b3 c1a2 3ec9 ddba 5437 5c86
000003b0: e440 aeb2 6ba4 33bc d038 d8a5 f54a 77b2
000003c0: a4d7 bd94 d9b0 cab9 617d 379b bd9a e23d
000003d0: ef17 eaba c4c0 96bc d1b5 fb3e 4323 00b9
000003e0: abc2 e9b5 5b40 6f80 1b0f 3db5 1a94 2ebb
000003f0: bef1 2700 0d27 033e 73b7 1280 7418 16ad
-0.30813426 -5.844095e-31 -0.018318288 -0.056557365 -4.068972e-23 0.36319402 -0.0014291762 -1.4710697e-27
-0.000126085 0.096625924 -2.7317058e-26 -1.1165701e-07 -5.3573716e-05 -0.015542408 0.26881275 -7.618305e-38
-1.9350443e-09 0.19578426 -0.021737264 -0.0014091291 0.42562526 -0.3516494 -3.4658825e-16 -1.2247643e-21
-2.8250531e-06 -2.0911195e-06 -0.00025881358 -9.736341e-22 -3.36437e-05 -0.0032230383 -1.1300001e-07 -0.0012798961
-0.25052965 -7.874678e-14 -1.1278448e-09 -1.0191147e-05 0.30775535 -0.008694265 -3.9895e-11 3.3484e-40
-0.008240646 -1.92684e-40 0.3563646 -2.3363712e-30 -0.23162389 -1.2817341e-06 -0.011348987 -1.4666909e-28
-0.024723925 -2.3549175e-07 0.5555659 -7.558738e-07 -0.0003814494 -1.03634275e-05 -0.0246535 -3.5130604e-16
-1.0558838e-20 -3.7587378e-20 5.722998e-39 -6.55689e-05 -0.01715461 -6.8698425e-15 -0.0061746966 -4.773333e-12
-0.025846994 -0.01210589 -9.27097e-31 -0.01582015 -7.968849e-07 -2.763265e-07 -5.621697e-22 -0.00052013283
-3.1584275e-06 -0.034206763 -0.014601538 -0.022458082 0.23816985 -0.020082617 -0.012865158 -2.5086459e-27
-3.567022e-21 -4.0514115e-06 -0.012259164 -0.0007439461 -0.0031749974 -3.4792755e-11 -0.03550008 -0.024089906
-0.008125555 0.48373872 -1.314804e-06 -3.5454324e-11 0.15625015 -2.3475763e-27 -1.1287433e-17 -3.7610928e-07
-0.021594949 -1.6380172e-14 -0.0006892243 0.13941565 -0.0015928617 -0.0097068185 -0.020752613 -1.554959e-16
-0.00094046985 -1.3210757e-06 0.5671348 -3.6903e-40 -2.4325494e-26 -0.0011821784 -0.004211564 -0.004152397
-7.047075e-16 -5.3711453e-09 -1.9241975e-06 -3.6122865e-06 -0.000121594385 -3.8570505e-07 1.4741e-39 -8.2855104e-35
-3.190213e-14 -3.0908747e-37 -4.3094212e-10 -0.0001313986 -9.170548e-06 -1.00600936e-35 -5.81685e-13 -0.00013621888
-6.78007e-05 -6.5807006e-20 -0.043411586 -0.0016064274 7.703088e-06 0.109655656 -0.0013620376 -0.0062791402
-0.027578358 -0.042300683 -2.878008e-14 -0.35515738 -1.6923662e-08 -8.9608124e-14 -5.893366e-17 -0.010638504
-1.3379936e-19 -5.0695455e-11 -0.0036249547 -0.00498228 -0.003731608 -0.0016171123 -2.8180502e-09 -2.4759524e-12
-0.0050008018 0.28259465 0.01292324 -3.24521e-32 -0.069646426 0.3752414 -3.7478e-09 0.1863728
2.7091366e-37 -5.212129e-07 -2.207293e-05 -0.31402826 -0.16300255 -4.428178e-11 -2.3556486e-19 -0.020061994
-3.8549137e-20 -0.0036543715 -5.8149885e-06 -0.007818216 -3.3621828e-21 -0.00590383 -0.002634959 -1.6064166e-09
-0.019900393 -0.014313257 -0.019680386 -4.4871227e-05 1.252257e-27 -2.0570033e-33 -1.4722859e-05 0.09824076
-0.0005179161 -0.013474095 -0.00042970714 -0.43028784 -1.347178e-39 1.781155e-39 -3.0435226e-23 0.45521298
-0.002428171 0.007341729 -0.0031409923 -0.000102936996 -0.0040881396 0.3879744 -2.8775245e-05 -6.067829e-09
-2.482349e-16 -7.593419e-10 -1.26926e-07 -1.5936259e-08 0.37059715 -1.1459741e-07 -0.029513864 -0.0046467986
0.0093787005 -3.0906732e-26 -0.0012966141 -5.413053e-05 0.32584476 0.058346875 -6.4398416e-13 -1.0075247e-07
8.9893675e-14 -3.8421913e-27 -0.00042287336 -0.020844724 -9.5053814e-14 -0.00044073144 -2.4429005e-24 0.3492406
-1.6186834e-07 0.02505543 -0.00018280782 -1.574267e-08 -6.1736317e-38 -2.5215755e-18 -0.27479765 0.13244592
-5.86057e-09 -5.250329e-18 -0.0016920937 -4.141805e-35 -2.0285775e-08 -0.010964493 -3.7508525e-16 -1.43943355e-08
-1.9169178e-26 -0.00038660204 -1.5177917e-22 0.1106467 -0.0017859916 -0.018402465 0.49162152 -0.00012220167
-1.7416509e-06 -1.0216826e-38 -7.042997e-07 -0.0026638568 3.668305e-39 0.12807865 -1.718848e-39 -8.5319425e-12

fc3.weight f4 [1, 300]
00000000: 0cdd a7be 3155 b838 cb95 acbb e2d1 67bd
00000010: 78d0 20a9 c737 333e 27f2 0fba dad8 d036
00000020: 9803 06bb 2726 5c3e 80dc 7e2b c2e5 8b38
00000030: 95db 8a39 db51 aa3c d2c6 363e e9c7 38b0
00000040: efb5 c4b7 23d6 de3d d23d dabb 1a06 223c
00000050: b73d 3b3e f261 c5be 5171 3eba 008b 5a2f
00000060: f5a1 0fb6 4db2 a3bb 9587 d83b 7537 3cb4
00000070: 2c68 9a3b bd30 1dbc bf9c 73bb dabc 783c
00000080: 0c72 7dbe 7d1f b9a9 02ee acba a26e 81ba
00000090: 5eb4 7b3e 55e7 9f3c d224 c3ba 18a2 d23b
000000a0: 36f4 69bc 45fb d92d 33e5 2c3e 1879 1cb6
000000b0: ae49 98be b734 e839 2be2 b33c 4bd3 26b9
000000c0: 8e92 5ebb 5d55 24b8 e6e0 4d3e 8095 10b7
000000d0: 18a8 44bc 5b19 b73b 9159 ef3c 3c2e 88b8
000000e0: 09c4 d21e 4663 9bb4 9091 4c34 7bbc d9ba
000000f0: 7af0 acba f5e1 a136 5407 113b 5739 7bb7
00000100: ebdd 45bc 16c9 1e3d 5645 4735 7684 debc
00000110: a9af 563b 0cf9 8233 d0f6 b2ba 2014 5cbc
00000120: 6d3c eb3a 54f9 343a f17c 11bb a4a6 d23c
00000130: 3131 193e af56 b73c 4640 07bb aa00 af37
00000140: 769a 6f36 ee58 4937 0036 2e3c 94bf 8fb9
00000150: 6a25 73ba e07d f5ac 1136 01bb 4b8d b5bd
00000160: 8a02 b73c dcb6 753e 166a cbb7 c9ba 013b
00000170: 62cd 053e 7ef8 fdb5 16bd 94ba 1b4a 1fba
00000180: 94ab 83bc 5197 01bb 2ca6 c73c d38e 0e3e
00000190: 24eb b339 c12f 45b9 409d cfbc df52 89ba
000001a0: 4a2a 443a ab5b d0b9 23cf 823e b0f0 c631
000001b0: 99c8 8437 67ac 8fba efae 2b3c 6771 34bc
000001c0: 5b28 c139 32da 86b9 add1 6e3c ff2e 153a
000001d0: 3a9e 3b3b 142a 933b 0a8b 3738 1329 24b4
000001e0: 064e 08ab f56c d5b6 6e60 71bb ddd7 34bc
000001f0: f377 fcba 297a e936 5706 5fb8 ea6c 5cbb
00000200: e1ae 483b 74aa 8337 dd5c e2bc 05c6 c13b
00000210: b611 3a39 7b0f 513d 6925 e1bb 8032 243e
00000220: 23b4 9ebd dcfd c03d 0501 adba dd8e 94be
00000230: 69b3 a8b1 42eb 4839 aafa 67b6 36c6 163c
00000240: 187b 53b8 71d3 2eb6 3cf9 0fbc 2509 bebc
00000250: 4894 893b 6360 ccbb a59d 48bb 8573 ddbb
00000260: b213 0b3b cfd3 153e 36b6 b93c 7c1a e40a
00000270: b4a4 a9bd c06d 933e ad38 7bb2 5bca 333d
00000280: 4502 fe2b 8397 c9b9 0acc a7bb d447 29be
00000290: a382 f9bd f4e5 2a3a 7159 1a37 49f9 453b
000002a0: 3a3d 77a5 fe56 56bc dfba 643c 39eb 13bc
000002b0: bf3e 27b8 3cc4 8339 17be 893c d8fe b1b9
000002c0: 4d8f de3a 9a3a 1c3c 7b6a 323d 5166 f7b9
000002d0: 3fa9 90b6 0780 e3ac 800d 0bbc fb75 693e
000002e0: 80af 97bc 5629 623b 13b1 c6ba 9c9f 5ebe
000002f0: 81ec 1119 860e 0a2f ae5f 6da7 b68e 323e
00000300: 9a0a a5b9 0435 1d3d 7b62 0d3c 7c32 aa38
00000310: 7a29 a73a b3d4 6a3e 2989 553c 8bdc 66b8
00000320: 470a 9d37 27c1 7539 f019 dabb 8909 4cb4
00000330: 8ddf f43d d10b 39b6 a64d 1f3c 68ad 19bb
00000340: 456d 383d 0546 acb7 ff65 bc3b 050d 67bc
00000350: b941 503e 6450 de3d 700e 3db6 4945 9ab9
00000360: c65d 5b3a 959e e793 3863 693b 3c10 8db9
00000370: d8e6 2b38 8405 543a f07f 3ab6 08ad 263e
00000380: eea9 6a3b ea16 bb3d b875 16bc 06eb b9bb
00000390: 16e7 be2f 0cf6 1137 268e f5bd 1823 823e
000003a0: a25c afaf 0686 86ba b53c d23b 671c 13b8
000003b0: d7f2 a939 abe7 a9bc 97ee 7f39 0893 2a39
000003c0: 2436 acb6 d52f a03b b2eb bbb9 170e 473d
000003d0: c87a 5ebb a571 4a3c 6708 513e 6dfb 91ba
000003e0: cf7a d5b9 36af 4e80 4e5a 503b 9c56 afbc
000003f0: 5c1d e537 a4c3 543d 0bab fcb8 fbb6 3b3a
-0.32785833 8.789672e-05 -0.00526688 -0.056596644 -3.5707955e-14 0.17501746 -0.00054911006 6.224128e-06
-0.002044892 0.21498929 9.054493e-13 6.670832e-05 0.00026485012 0.020790985 0.17849281 -6.72229e-10
-2.344974e-05 0.10880687 -0.0066602016 0.00988915 0.18285261 -0.3855129 -0.000726481 1.9876367e-10
-2.1402932e-06 -0.0049956203 0.0066079595 -1.752904e-07 0.0047121253 -0.00959414 -0.0037172285 0.0151817445
-0.24750537 -8.221113e-14 -0.001319349 -0.000987489 0.24580523 0.019519487 -0.0014888293 0.0064280145
-0.014279416 2.478163e-11 0.16884308 -2.3316297e-06 -0.29743713 0.00044289764 0.021958431 -0.00015909706
-0.0033961865 -3.9180148e-05 0.20105323 -8.617877e-06 -0.012002967 0.0055877394 0.029217513 -6.493597e-05
2.2315693e-20 -2.894323e-07 1.9051936e-07 -0.0016611958 -0.0013194226 4.8244788e-06 0.0022129612 -1.4974116e-05
-0.012076835 0.03876599 7.4234174e-07 -0.027162772 0.003275851 6.098898e-08 -0.0013653878 -0.013432533
0.0017947085 0.0006903608 -0.0022199715 0.025714226 0.14960171 0.022380201 -0.0020637675 2.0861935e-05
3.5703683e-06 1.2001239e-05 0.010632992 -0.00027417822 -0.00092752895 -6.9772937e-12 -0.0019716064 -0.0886484
0.022340078 0.23995537 -2.4248886e-05 0.001979517 0.13066629 -1.892229e-06 -0.0011347856 -0.0006076411
-0.016073026 -0.001977403 0.02437123 0.1392167 0.00034316734 -0.00018805174 -0.025343537 -0.0010476968
0.0007483108 -0.0003974115 0.25548658 5.7899214e-09 1.5829037e-05 -0.0010961414 0.010478719 -0.011013365
0.00036841896 -0.0002572104 0.014576358 0.0005690902 0.0028628246 0.0044911 4.376009e-05 -1.5288633e-07
-4.8425185e-13 -6.360579e-06 -0.0036831158 -0.011037794 -0.0019261822 6.9581624e-06 -5.3173248e-05 -0.0033634254
0.0030621814 1.569579e-05 -0.027632171 0.0059134983 0.0001774494 0.051040154 -0.0068709147 0.16034889
-0.07749202 0.0942342 -0.0013199156 -0.29015246 -4.90984e-09 0.00019161127 -3.4567588e-06 0.009202531
-5.042096e-05 -2.6051096e-06 -0.008787449 -0.02319772 0.0041985847 -0.006237076 -0.0030611542 -0.0067581558
0.0021221456 0.1463158 0.022669893 2.1965564e-32 -0.08283368 0.2879467 -1.46230095e-08 0.043894153
1.8048415e-12 -0.00038450593 -0.005120759 -0.16531307 -0.1218312 0.0006519251 9.19994e-06 0.00302084
-2.1444579e-16 -0.013082264 0.013960569 -0.009028249 -3.987434e-05 0.00025132473 0.016814275 -0.00033949944
0.0016979963 0.009535456 0.04355858 -0.00047187743 -4.3112373e-06 -6.465942e-12 -0.008487105 0.22798912
-0.018516302 0.0034509501 -0.0015158973 -0.21740574 7.544086e-24 1.2556187e-10 -3.2942225e-15 0.17437252
-0.0003147915 0.038380638 0.008629437 8.115635e-05 0.001275345 0.22932701 0.01303319 -5.504167e-05
1.8720644e-05 0.00023436976 -0.006655924 -1.900245e-07 0.119567014 -2.7574026e-06 0.009723103 -0.0023449305
0.045026083 -2.0536603e-05 0.0057494636 -0.014102225 0.20337571 0.10855177 -2.8171598e-06 -0.0002942479
0.00083681603 -5.8468972e-27 0.0035612117 -0.0002690571 4.0984567e-05 0.000808798 -2.779063e-06 0.16276944
0.0035806852 0.0913523 -0.00918334 -0.005673769 3.4724995e-10 8.699961e-06 -0.11990003 0.254174
-3.1898134e-10 -0.0010263331 0.0064159282 -3.5073983e-05 0.00032415122 -0.02074035 0.00024407577 0.00016267237
-5.1323022e-06 0.0048885145 -0.00035843026 0.04859742 -0.0033947695 0.0123561965 0.20413361 -0.0011137553
-0.00040718025 -7.226023e-39 0.0031792107 -0.021403603 2.7312599e-05 0.05194439 -0.000120481556 0.000716075
