checkpoint_critic_2_last.pth (torch_old, 187383 bytes, 5 tensors)

fc1.weight f4 [256, 52]
0.44736946 0.5114897 -0.115028314 0.16973509 -0.18881854 0.07746859 -0.10900978 0.16479936
0.47613853 0.27910906 0.17783776 -0.2584712 -0.06679843 0.09717132 0.14544524 -0.20266734
0.2932632 0.087918155 -0.115914844 -0.013876045 -0.064489245 0.26256922 -0.15136309 -0.08812966
-0.022779752 -0.022802075 -0.05116833 0.40643215 0.094459 0.07083059 -0.092200786 0.33686236
0.11479077 0.20255604 0.0973472 0.16941606 -0.007727675 0.04322689 0.029019043 0.14724411
-0.038461 0.017353462 0.03684906 0.219123 0.036781754 0.29206845 -0.027513055 0.1653698
0.78633714 -0.6399421 -1.0458925 -1.4426005 -0.13989998 0.012324801 -0.07576577 0.1067402
-0.16108073 0.14920375 -0.04242956 0.1745177 -0.13445407 -0.01996759 -0.08560477 0.08133616
-0.1466602 -0.16908284 -0.123326026 0.0856212 -0.00041637904 -0.18889633 -0.07927942 -0.038021605
-0.2806957 -0.0076447786 -0.0126260305 0.04236938 0.36183104 -0.26294458 -0.096952066 0.1510368
0.13055831 0.11782973 -0.03334328 0.1578573 0.8284257 -0.03016902 -0.08843598 0.4815931
0.16188887 -0.094007485 -0.15837531 0.575797 0.7152088 -0.09848306 0.116232455 0.35307917
0.32154888 0.09304098 0.14255461 0.30801448 -1.1751508 0.8655642 1.8103201 -0.3040116
-0.5781204 0.21694526 -0.168117 -0.35987476 0.23341484 -0.7073544 -0.14850292 -0.36106503
-0.122495726 0.23585795 -0.17700201 -0.35982484 0.3626341 -0.4738822 -0.07173173 -0.37239692
0.16551398 -0.083565064 -0.061834496 0.10254978 0.40157905 -0.68930215 -0.056002695 0.02286872
0.3920353 0.15502898 0.016227053 0.4715511 -0.27497533 -0.8239289 0.004718978 0.5080691
0.40977526 0.36110753 -0.0138723925 0.73648685 -0.3614887 -0.5463761 -0.07960532 0.68129236
0.6896778 0.8808611 -0.030298285 0.83689475 -0.3550817 -0.61590165 -0.043114 0.81776315
1.4200025 0.30967596 2.2072804 0.4813785 0.2226004 0.4514678 -0.097569585 0.034719292
0.109402485 -0.055145323 0.012137937 0.010960168 0.25867602 0.36959007 -0.011507062 -0.07429729
0.18166868 0.02370961 -0.06692864 0.005035998 0.40805393 0.34126216 0.037804842 0.4547112
0.22045222 0.059042204 0.02810397 0.4436729 -0.009207659 0.45946538 0.036912415 0.03635882
-0.05420014 -0.022743622 0.009751173 0.07083256 -0.052827355 0.4228774 0.07977749 -0.20578
-0.077386215 -0.017470561 0.036460593 -0.1634095 -0.109475225 0.31193984 -0.2127573 -0.14716366
-0.21194479 0.06399902 -0.1323054 -0.11466646 0.8844778 -0.68081206 -0.7098038 0.21296765
0.12720042 0.49138612 0.009442698 -0.13304959 0.21151836 -0.34078747 -0.060085006 -0.18854779
-0.074732326 0.3251673 0.00030108725 -0.42578202 0.32344142 -0.4424881 -0.012953403 -0.4804968
0.16875109 0.16609088 0.12970008 -0.19827865 0.3911236 -0.7813633 0.12092447 -0.16047773
0.30784804 0.116130546 -0.017510612 0.09306581 -0.21584824 -0.283534 0.039610323 0.12375194
0.302078 0.13993616 0.032852367 -0.030077461 -0.3094353 -0.55098504 0.10427212 -0.061769832
0.30296388 0.36667672 -0.10403851 0.04057735 -0.3913602 -0.81703967 -0.104134336 0.10159174
00000000: 9c0d e53e fdf0 023f f793 ebbd 09cf 2d3e
00000010: a659 41be daa7 9e3d 8540 dfbd 2ac1 283e
00000020: 6ec8 f33e 62e7 8e3e 1a1b 363e 5656 84be
00000030: 9ecd 88bd c201 c73d 99ef 143e 0788 4fbe
00000040: 9826 963e 6f0e b43d c364 edbd 5a58 63bc
00000050: f012 84bd 796f 863e edfe 1abe 537d b4bd
00000060: 9a9c babc 6bcb babc e295 51bd e017 d03e
00000070: b873 c13d a10f 913d c4d3 bcbd 3979 ac3e
00000080: 6c17 eb3d da6a 4f3e f85d c73d 677b 2d3e
00000090: 7038 fdbb ae0e 313d 58b9 ed3c 29c7 163e
000000a0: 4889 1dbd d928 8e3c 0aef 163d c861 603e
000000b0: 77a8 163d ff89 953e 0f63 e1bc b356 293e
000000c0: 644d 493f 3fd3 23bf cedf 85bf 22a7 b8bf
000000d0: f141 0fbe f6ed 493c 162b 9bbd 9b9a da3d
000000e0: 59f2 24be dec8 183e 9eca 2dbd c5b4 323e
000000f0: 54ae 09be 1293 a3bc 8e51 afbd 9393 a63d
00000100: 172e 16be 0d24 2dbe 5b92 fcbd 2b5a af3d
00000110: 734d dab9 0a6e 41be 405d a2bd 8bbc 1bbd
00000120: 59b7 8fbe 0d81 fabb 69dd 4ebc 848b 2d3d
00000130: eb41 b93e aca0 86be ce8e c6bd 64a9 1a3e
00000140: 14b1 053e b750 f13d f792 08bd 58a5 213e
00000150: b513 543f 0525 f7bc ec1d b5bd 5f93 f63e
00000160: 32c6 253e ff86 c0bd 232d 22be 6f67 133f
00000170: ed17 373f 7db1 c9bd 480b ee3d cbc6 b43e
00000180: 0ea2 a43e 458c be3d d6f9 113e 13b4 9d3e
00000190: 576b 96bf 9e95 5d3f 92b8 e73f 69a7 9bbe
000001a0: b3ff 13bf e626 5e3e dd26 2cbe 8141 b8be
000001b0: 4d04 6f3e 2e15 35bf 2611 18be 84dd b8be
000001c0: 0adf fabd bf84 713e 0440 35be f63a b8be
000001d0: 2dab b93e b0a0 f2be 16e8 92bd cfaa bebe
000001e0: 7f7c 293e 2924 abbd 2b46 7dbd 9e05 d23d
000001f0: c59b cd3e 1b76 30bf 1563 65bd 2f57 bb3c
00000200: dab8 c83e ebbf 1e3e 99ee 843c 256f f13e
00000210: 91c9 8cbe 01ed 52bf a8a1 9a3b d110 023f
00000220: 10ce d13e 16e3 b83e 0849 63bc 678a 3c3f
00000230: 0c15 b9be 4edf 0bbf 1d08 a3bd 2d69 2e3f
00000240: b98e 303f 1d80 613f 1c34 f8bc bc3e 563f
00000250: 45cd b5be bbab 1dbf 4e98 30bd ed58 513f
00000260: a4c2 b53f d98d 9e3e 1544 0d40 3e77 f63e
00000270: 5cf1 633e ca26 e73e 90d2 c7bd d135 0e3d
00000280: 690e e03d 10e0 61bd 33de 463c 4792 333c
00000290: 2f71 843e e93a bd3e 1e88 3cbc 2d29 98bd
000002a0: 5b07 3a3e a83a c23c e211 89bd 0305 a53b
000002b0: 72ec d03e eab9 ae3e 40d9 1a3d e8cf e83e
000002c0: 3abe 613e 3dd6 713d 4c3a e63c 1829 e33e
000002d0: b9db 16bc 0c3f eb3e 7931 173d fcec 143d
000002e0: f700 5ebd d550 babc 62c3 1f3c a910 913d
000002f0: 7f61 58bd 6383 d83e 6162 a33d feb7 52be
00000300: aa7c 9ebd 6c1e 8fbc b457 153d d254 27be
00000310: 8c34 e0bd 94b6 9f3e 0ddd 59be 12b2 16be
00000320: 0e08 59be eb11 833d 117b 07be 40d6 eabd
00000330: 236d 623f b349 2ebf b4b5 35bf 3114 5a3e
00000340: d440 023e f696 fb3e 8cb5 1a3c 273e 08be
00000350: 4598 583e b27b aebe b21b 76bd ac12 41be
00000360: 430d 99bd 547c a63e 3fdb 9d39 1a00 dabe
00000370: 1d9a a53e cd8d e2be 833a 54bc ad03 f6be
00000380: 16cd 2c3e ba13 2a3e 19d0 043e 8f09 4bbe
00000390: 5a41 c83e 6d07 48bf 40a7 f73d 4654 24be
000003a0: 429e 9d3e dad5 ed3d 6a72 8fbc 4a99 be3d
000003b0: 5207 5dbe 5e2b 91be 6f3e 223d a871 fd3d
000003c0: f8a9 9a3e 6d4b 0f3e 3490 063d 0265 f6bc
000003d0: 4e6e 9ebe 5b0d 0dbf 9f8c d53d 5d02 7dbd
000003e0: 151e 9b3e 0dbd bb3e 2412 d5bd 6f34 263d
000003f0: 5d60 c8be 8329 51bf 6244 d5bd 550f d03d

fc1.bias f4 [256]
0.016567014 -0.23282081 -0.4269553 -0.054914765 -0.14235306 -0.078331165 -0.14539273 -0.14174625
-0.0689561 -0.19096604 0.06162011 0.14110093 -0.021126723 0.02970097 -0.07318574 -0.3632492
-0.10492102 -0.16356252 0.016208302 -0.30226716 -0.029151559 -0.50930023 0.012372509 -0.10841861
-0.11145661 -0.30048484 -0.14854634 -0.22892968 -0.014719469 -0.4018844 -0.14248133 -0.22673854
-0.23403686 -0.24749874 -0.17265928 -0.20291069 -0.2111685 -0.15994811 0.007098322 -0.063592434
-0.17403312 -0.27653885 -0.03434371 -0.34457862 -0.23569588 0.14349213 -0.42131206 -0.04952964
-0.24245323 -0.21118136 -0.27227792 -0.305813 -0.089731045 0.13412845 -0.1778626 -0.24221878
-0.10853914 -0.063746706 -0.2281194 0.1816323 -0.15160544 -0.053261656 -0.01656998 -0.13795504
-0.0884185 -0.4243994 -0.08857604 0.0002699366 -0.10401901 -0.28987247 0.07068956 0.008565345
-0.19529065 -0.009366254 -0.30382565 -0.17201431 0.035985194 -0.48702246 -0.0011104761 0.19524258
-0.2676711 -0.5636167 -0.11568799 0.1447523 -0.10893671 -0.22802089 -0.37856358 0.042406056
-0.52627265 -0.30838147 -0.1897426 -0.13463663 -0.0505394 -0.20264132 -0.017483853 -0.030997107
0.032387845 -0.16008638 0.050185 -0.070847236 -0.3092257 -0.10963378 -0.0070263855 -0.08549326
-0.123302124 -0.15503621 -0.29304004 0.09978449 -0.8087153 -0.087046996 0.00845851 -0.30896944
-0.22683255 -0.10658159 -0.2037529 -0.05484355 -0.23144159 0.11509253 -0.18708906 -0.3683626
-0.20353542 -0.4446833 -0.05928417 0.063416235 -0.2376881 -0.32993433 -0.041061543 -0.050616827
-0.39032602 -0.03677635 -0.07939321 -0.16667354 -0.0907081 0.0106403325 -0.2864084 -0.23544356
-0.52980375 0.049639065 -0.18385401 -0.10591744 -0.12850188 -0.210227 -0.09639709 -0.10969775
-0.36296633 -0.4503914 -0.20156199 0.0643751 -0.10999126 -0.040826917 -0.12778465 -0.52796185
-0.07331502 -0.3486442 -0.16005513 -0.3624765 0.061915595 -0.17721492 0.06598625 0.035498384
-0.1493112 -0.16030104 -0.2099777 0.089265555 0.11796036 -0.15926449 -0.19157729 -0.09042963
-0.023862371 -0.032782942 -0.12828504 -0.08984977 0.034047797 -0.09275423 -0.22053224 -0.17155668
-0.29281977 -0.20124584 -0.18399526 -0.38170832 0.0011079224 -0.06747983 -0.37134132 -0.13881117
-0.04383999 -0.30152133 0.0222729 -0.17082493 -0.060180955 -0.36015397 -0.28471288 -0.29794058
-0.036438942 -0.20517251 0.13437702 -0.24111225 -0.32561705 0.029012252 -0.018849004 -0.05354346
-0.15081997 -0.05299167 -0.17377147 -0.24049173 -0.3969029 -0.4896313 -0.2860647 -0.1683288
-0.6544324 -0.2280661 0.10458345 -0.137687 0.02947044 0.23815536 -0.26305184 -0.0700104
0.20559934 -0.25398365 0.13937436 -0.15881857 0.14136195 -0.00048190638 -0.45717484 -0.19552727
0.2729229 -0.055065766 -0.10004422 -0.014404098 -0.5263759 0.047910016 -0.051124964 -0.33285242
-0.1773631 -0.5169386 -0.33094826 -0.30119926 -0.24585408 0.081113264 -0.24634074 -0.15367626
-0.35186565 -0.3137125 0.010454482 -0.16636817 -0.4191422 -0.00929044 0.0662322 -0.78396195
-0.09842953 0.06024464 -0.32178828 -0.28823465 -0.28878418 -0.05452268 -0.21439442 -0.09261108
00000000: 8cb7 873c 9468 6ebe e399 dabe 4eee 60bd
00000010: 00c5 11be 176c a0bd d5e1 14be ee25 11be
00000020: db38 8dbd 9a8c 43be 5e65 7c3d c37c 103e
00000030: f311 adbc 734f f33c 68e2 95bd cdfb b9be
00000040: d5e0 d6bd ef7c 27be 46c7 843c c3c2 9abe
00000050: 40cf eebc 8061 02bf 10b6 4a3c 940a debd
00000060: 5d43 e4bd 26d9 99be 881c 18be 8b6c 6abe
00000070: ed29 71bc cbc3 cdbe a0e6 11be 262e 68be
00000080: 5ca7 6fbe 4f70 7dbe 98cd 30be d2c7 4fbe
00000090: 8e3c 58be 70c9 23be 0a99 e83b c03c 82bd
000000a0: bd35 32be 8096 8dbe fdab 0cbd 9c6c b0be
000000b0: 435a 71be 9aef 123e 37b6 d7be 97df 4abd
000000c0: a945 78be ed3f 58be 0368 8bbe 8693 9cbe
000000d0: e9c4 b7bd f858 093e 9d21 36be 3308 78be
000000e0: c549 debd a28d 82bd 2298 69be d1fd 393e
000000f0: 753e 1bbe e528 5abd c4bd 87bc 1644 0dbe
00000100: c214 b5bd e14a d9be 5b67 b5bd 4786 8d39
00000110: eb07 d5bd 2a6a 94be b0c5 903d a955 0c3c
00000120: 46fa 47be eb74 19bc 098f 9bbe 8524 30be
00000130: 3665 133d 025b f9be 658d 91ba aced 473e
00000140: 300c 89be 2f49 10bf d3ed ecbd f239 143e
00000150: 361a dfbd 4f7e 69be 16d3 c1be f9b1 2d3d
00000160: ceb9 06bf 2de4 9dbe e24b 42be 2fde 09be
00000170: 6702 4fbd 3581 4fbe 4c3a 8fbc a5ed fdbc
00000180: 1ea9 043d afed 23be c98e 4d3d 5b18 91bd
00000190: d552 9ebe ad87 e0bd 983d e6bb 1717 afbd
000001a0: d385 fcbd d0c1 1ebe 5809 96be d05b cc3d
000001b0: f707 4fbf b245 b2bd 9095 0a3c 3e31 9ebe
000001c0: cb46 68be 7347 dabd 9aa4 50be a1a3 60bd
000001d0: 06ff 6cbe a2b5 eb3d 4694 3fbe 069a bcbe
000001e0: 976b 50be 88ad e3be f5d3 72bd 5fe0 813d
000001f0: 8264 73be 27ed a8be 2630 28bd 9753 4fbd
00000200: d0d8 c7be cca2 16bd e898 a2bd 78ac 2abe
00000210: 2bc5 b9bd ca54 2e3c 1fa4 92be 1e18 71be
00000220: 38a1 07bf 5552 4b3d 3a44 3cbe 3eeb d8bd
00000230: ff95 03be bf45 57be d66b c5bd 37a9 e0bd
00000240: b9d6 b9be b499 e6be 4466 4ebe 18d7 833d
00000250: 1943 e1bd 203a 27bd fbd9 02be 8228 07bf
00000260: 2f26 96bd 7e81 b2be 7ee5 23be 8596 b9be
00000270: 359b 7d3d d477 35be cd23 873d c166 113d
00000280: 09e5 18be f525 24be 6504 57be dcd0 b63d
00000290: 3495 f13d 3b16 23be d62c 44be 2b33 b9bd
000002a0: 057b c3bc 6847 06bd 275d 03be 2803 b8bd
000002b0: b475 0b3d eef5 bdbd 34d3 61be 8eac 2fbe
000002c0: 79ec 95be 6413 4ebe 4169 3cbe 466f c3be
000002d0: b537 913a dd32 8abd 7320 bebe 8424 0ebe
000002e0: 9091 33bd 0161 9abe a875 b63c bbec 2ebe
000002f0: 4e80 76bd 1a66 b8be e3c5 91be ab8b 98be
00000300: 0041 15bd be18 52be 219a 093e 21e6 76be
00000310: 47b7 a6be 1aab ed3c 3a69 9abc 6350 5bbd
00000320: 8d70 1abe cb0d 59bd 26f1 31be 7743 76be
00000330: db36 cbbe f4b0 fabe 1377 92be 635e 2cbe
00000340: e288 27bf 298a 69be d92f d63d d2fd 0cbe
00000350: fe6b f13c 00df 733e bbae 86be 9d61 8fbd
00000360: a288 523e 250a 82be 27b8 0e3e 56a1 22be
00000370: 30c1 103e 61a8 fcb9 d212 eabe 4d38 48be
00000380: 8dbc 8b3e a48c 61bd fce3 ccbd 2aff 6bbc
00000390: 92c0 06bf 4b3d 443d 6968 51bd a26b aabe
000003a0: ac9e 35be 1756 04bf 0d72 a9be ca36 9abe
000003b0: 2cc1 7bbe b61e a63d bf40 7cbe 4f5d 1dbe
000003c0: bc27 b4be ed9e a0be 4749 2b3c 6b5c 2abe
000003d0: ce99 d6be ee36 18bc bfa4 873d bbb1 48bf
000003e0: 6c95 c9bd 15c3 763d 6fc1 a4be 7e93 93be
000003f0: 85db 93be 2c53 5fbd 368a 5bbe e1aa bdbd

fc2.weight f4 [128, 256]
-0.06201951 -0.016015055 -0.16457255 -0.077347234 0.11170328 0.07959126 -0.05527889 -0.2279949
-0.10624515 -0.2517444 0.009570089 -0.11219924 -0.042477664 0.16974021 -0.03906262 0.00089041004
-0.060117446 0.12561344 -0.09412238 -0.13314903 -0.28584394 -0.08402227 0.013524261 -0.11114526
-0.06218215 -0.07945556 0.030791912 -0.15464157 -0.20342238 -0.06519536 -0.014607937 0.1668054
-0.1858244 0.038218968 -0.0580253 -0.11597461 0.06520569 -0.12199662 0.0873256 -0.21294855
0.0011049118 -0.07444654 -0.013305012 -0.13655514 -0.042114116 -0.06369365 0.085946955 -0.06632735
-0.10906291 -0.045550376 -0.021142412 0.015059143 -0.110872276 -0.17148796 -0.031996045 -0.13580993
-0.11381572 0.039126094 -0.08629481 -0.027269045 -0.110336676 -0.030616362 -0.07975611 0.022633987
-0.19996184 -0.11871374 -0.078831196 0.011152703 -0.17972884 -0.12070297 0.06804679 -0.03968267
-0.058520842 -0.06384245 -0.3068645 0.08291656 -0.044381637 0.012573228 -0.15704048 0.023739848
-0.3273015 -0.06817422 0.026712172 -0.07955357 -0.21206608 -0.0958645 0.047372174 -0.11879104
-0.11970791 0.0025016665 -0.049604464 -0.045876082 0.05416467 -0.062342282 0.049447194 0.085635886
-0.03570905 0.017426487 0.027440563 0.025138306 -0.12493607 0.08680839 0.019950224 -0.05842526
-0.13599122 -0.013712464 -0.07496947 -0.19350868 -0.11994607 0.04165137 0.03947021 0.041737568
-0.16031381 -0.14756596 0.06616459 -0.101616085 -0.09591499 -0.1620423 -0.092031464 0.006450535
-0.024145886 -0.092183866 -0.12165512 -0.25169417 -0.05807588 0.019853907 -0.13794562 -0.10246479
0.06141881 0.048897803 -0.062103953 -0.038967177 -0.0038478465 -0.06915426 -0.05288536 -0.0066802
-0.010454127 -0.17864208 0.0771739 0.2000709 0.020994686 -0.021785708 -0.060905106 -0.22592857
0.063376516 -0.03473631 -0.12206653 -0.05488133 -0.07356324 -0.00622542 -0.09272938 -0.044404313
-0.24177834 -0.026772093 -0.04963519 -0.05904288 0.0018240213 -0.07335026 0.022426752 -0.24581331
-0.04450376 -0.0015316689 0.07097723 -0.09691937 0.035243552 -0.06871041 -0.03172989 -0.028429208
0.10383227 -0.10961038 0.06227691 -0.006570599 -0.08624426 0.051279653 -0.19671084 0.09147684
-0.023272216 -0.04399535 0.020749748 -0.033407412 -0.0050032153 0.055063594 -0.07416005 0.18007582
-0.21963598 0.036476884 -0.089763716 0.014630663 0.026169505 -0.070056245 -0.0003344643 -0.17371157
0.041244544 -0.0007809993 -0.02328668 -0.08270259 -0.30730462 -0.12730615 -0.050121777 -0.09717789
-0.11297856 -0.02586419 0.038840674 0.026849559 0.0059641926 -0.05365002 -0.1652111 -0.027633637
-0.049256302 0.011997882 -0.0652187 -0.06214675 0.08977846 -0.10513816 -0.17547055 -0.13572094
-0.008708442 -0.06662926 -0.012546159 0.08029046 -0.15554816 0.0068220273 -0.042667147 0.047800977
0.013357986 -0.041527133 -0.15679987 0.018674007 -0.06741022 -0.03540491 0.0018774183 -0.08920141
0.10157613 -0.067819096 -0.005176819 0.058971427 0.012564892 -0.08139293 0.022772204 -0.06407154
-0.13043246 -0.03779528 -0.0054238997 -0.09071952 -0.008843953 -0.21603748 -0.32812878 -0.12225296
0.022498816 -0.04907481 -0.18371187 -0.013230027 -0.12731084 0.033708416 -0.03763235 0.016097978
00000000: 2b08 7ebd 0132 83bc b585 28be 3a68 9ebd
00000010: b0c4 e43d be00 a33d 1e6c 62bd 7f77 69be
00000020: 0f97 d9bd a4e4 80be ddcb 1c3c b7c8 e5bd
00000030: 0ffd 2dbd 61d0 2d3e 2000 20bd 686a 693a
00000040: b63d 76bd cfa0 003e 3cc3 c0bd 3858 08be
00000050: 235a 92be de13 acbd dd94 5d3c 20a0 e3bd
00000060: b6b2 7ebd 99b9 a2bd 523f fc3c 5c5a 1ebe
00000070: f54d 50be 2585 85bd 2156 6fbc 09cf 2a3e
00000080: c048 3ebe 7e8b 1c3d f0ab 6dbd 1984 edbd
00000090: 908a 853d 5dd9 f9bd c4d7 b23d 2f0f 5abe
000000a0: b0d2 903a 6d77 98bd 44fd 59bc 1cd5 0bbe
000000b0: da7f 2cbd d171 82bd f504 b03d a2d6 87bd
000000c0: 605c dfbd 0893 3abd da32 adbc a0ba 763c
000000d0: 0111 e3bd 8a9a 2fbe 490e 03bd c211 0bbe
000000e0: 3718 e9bd af42 203d 55bb b0bd 5563 dfbc
000000f0: 32f8 e1bd 2acf fabc 2c57 a3bd e96a b93c
00000100: ccc2 4cbe 3020 f3bd 4072 a1bd d4b9 363c
00000110: d60a 38be 1e33 f7bd 1e5c 8b3d 4c8a 22bd
00000120: 8db3 6fbd d5bf 82bd 581d 9dbe 28d0 a93d
00000130: 85c9 35bd f1ff 4d3c 38cf 20be 127a c23c
00000140: 1094 a7be ed9e 8bbd 7cd3 da3c fbec a2bd
00000150: da27 59be 9b54 c4bd 5309 423d b748 f3bd
00000160: 6c29 f5bd 00f3 233b 0d2e 4bbd 8fe8 3bbd
00000170: c6db 5d3d 9f5a 7fbd 2489 4a3d de61 af3d
00000180: a743 12bd fec1 8e3c 08cb e03c d9ee cd3c
00000190: 7bde ffbd 99c8 b13d a76e a33c 534f 6fbd
000001a0: 4841 0bbe 3eaa 60bc 9889 99bd 2427 46be
000001b0: 49a6 f5bd a09a 2a3d 84ab 213d 03f5 2a3d
000001c0: 4e29 24be 881b 17be 4d81 873d 181c d0bd
000001d0: 146f c4bd 6bee 25be fe7a bcbd 025f d33b
000001e0: 98cd c5bc e5ca bcbd 5226 f9bd 0fde 80be
000001f0: f9e0 6dbd a9a4 a23c 9e41 0dbe 0fd9 d1bd
00000200: 4a92 7b3d 1049 483d b760 7ebd 0c9c 1fbd
00000210: 272c 7cbb c0a0 8dbd 529e 58bd 94e5 dabb
00000220: c947 2bbc f3ed 36be 5a0d 9e3d 63df 4c3e
00000230: 0cfd ab3c f177 b2bc a277 79bd d259 67be
00000240: 8ccb 813d a947 0ebd 04fe f9bd 3fcb 60bd
00000250: 53a8 96bd 9cfe cbbb e7e8 bdbd 4ce1 35bd
00000260: be94 77be 2651 dbbc 454e 4bbd f2d6 71bd
00000270: 0014 ef3a a938 96bd 4fb8 b73c 7cb6 7bbe
00000280: 9349 36bd 48c2 c8ba 835c 913d aa7d c6bd
00000290: 8b5b 103d 0bb8 8cbd 33f7 01bd 5fe4 e8bc
000002a0: 03a6 d43d 687b e0bd 1316 7f3d 2e4e d7bb
000002b0: d5a0 b0bd 9d0a 523d 916e 49be 3658 bb3d
000002c0: 60a5 bebc 7834 34bd 60fb a93c 36d6 08bd
000002d0: 03f2 a3bb 5d8a 613d 39e1 97bd cc65 383e
000002e0: 41e8 60be c968 153d 0ad6 b7bd 73b5 6f3c
000002f0: 6e61 d63c a679 8fbd 0a5b afb9 72e1 31be
00000300: 0af0 283d fabb 4cba b5c3 bebc fa5f a9bd
00000310: 0857 9dbe 8b5c 02be 7e4c 4dbd 3405 c7bd
00000320: 4e61 e7bd 23e1 d3bc 6617 1f3d 9bf3 db3c
00000330: 466f c33b 20c0 5bbd 192d 29be f05f e2bc
00000340: fac0 49bd c492 443c 6291 85bd 978d 7ebd
00000350: c5dd b73d ad52 d7bd 8dae 33be 6efa 0abe
00000360: daad 0ebc ec74 88bd 688e 4dbc 536f a43d
00000370: 0448 1fbe 508b df3b bfc3 2ebd f5ca 433d
00000380: 74db 5a3c 5b18 2abd 2590 20be 3bfa 983c
00000390: 5f0e 8abd bd04 11bd b413 f63a 3baf b6bd
000003a0: 2507 d03d bde4 8abd 4ea2 a9bb 068c 713d
000003b0: fadc 4d3c 56b1 a6bd c68c ba3c f137 83bd
000003c0: 1690 05be 39cf 1abd f8ba b1bb 28cb b9bd
000003d0: 3ae6 10bc ee38 5dbe 7f00 a8be c35f fabd
000003e0: 704f b83c ab02 49bd f71e 3cbe c1c2 58bc
000003f0: c65d 02be d611 0a3d 6124 1abd e8df 833c

fc2.bias f4 [128]
-0.08365406 -0.05894843 -0.098750554 -0.015236418 -0.22485447 -0.10530487 0.09281242 -0.07922989
-0.09474148 -0.034387305 0.051690146 -0.06701627 -0.046975844 -0.09661472 -0.018471994 -0.11971444
-0.030595578 0.013034384 0.10282521 -0.018320723 -0.2160749 -0.020920416 0.05282333 -0.080298394
-0.12120352 -0.024790838 -0.14752798 0.14721745 -0.022360303 -0.04597731 0.020865813 0.03274308
-0.04134022 -0.057622775 0.15181917 -0.11127992 -0.11807551 -0.009569837 0.17173967 0.16151346
-0.047768444 -0.07524961 -0.0021870718 -0.04694096 -0.047136616 -0.038668375 -0.13441482 -0.0014193027
-0.057470374 0.0006738983 -0.033422932 -0.095837414 -0.044497468 -0.10885006 0.50428545 -0.1564282
-0.035523348 0.044709444 -0.040454153 0.0025677653 -0.053547703 -0.047605813 -0.025845755 0.017964408
-0.18574022 0.12771034 -0.06738158 -0.059033673 -0.054528393 -0.10313567 -0.022399826 -0.03645602
-0.03174228 -0.05327251 0.016406696 -0.08408173 -0.0952078 0.022793686 -0.03508501 -0.15200318
-0.08634525 -0.076922044 -0.08530435 -0.038758058 -0.095596775 -0.053928625 -0.060310468 -0.06226563
-0.09476589 0.090373084 -0.030807007 -0.008599704 -0.0014899638 0.0024919303 -0.032873746 -0.060970325
-0.055549476 0.02393918 -0.07680021 0.050388716 0.13598755 -0.04514941 -0.11778098 -0.0024536785
0.26957354 0.3533258 -0.11263543 -0.082185455 -0.08637155 -0.014663704 -0.10511825 -0.15202071
-0.13402648 0.12838891 -0.06287875 -0.101639986 -0.02905212 -0.023143299 0.14475897 -0.10938456
-0.035249125 -0.07941555 -0.07119936 -0.06885483 -0.025114805 0.009580355 0.042021047 -0.06602553
00000000: d252 abbd e973 71bd bb3d cabd 2ba2 79bc
00000010: 4040 66be 14aa d7bd 7014 be3d 4843 a2bd
00000020: d207 c2bd b4d9 0cbd 0cb9 533d d33f 89bd
00000030: be69 40bd f0dd c5bd 9452 97bc d82c f5bd
00000040: 94a3 fabc 2b8e 553c 0696 d23d 5715 96bc
00000050: bd42 5dbe 4b61 abbc 475d 583d 7c73 a4bd
00000060: 8d39 f8bd 2816 cbbc 9311 17be 2cc0 163e
00000070: f42c b7bc b452 3cbd c8ee aa3c 9c1d 063d
00000080: 5d54 29bd dc05 6cbd 7c76 1b3e bae6 e3bd
00000090: 93d1 f1bd ceca 1cbc 86dc 2f3e c963 253e
000000a0: d8a8 43bd 781c 9abd fa54 0fbb 2a45 40bd
000000b0: 5312 41bd bb62 1ebd 0aa4 09be e507 baba
000000c0: 0e66 6bbd 8da8 303a 7ce6 08bd 6846 c4bd
000000d0: fa42 36bd c8ec debd da18 013f b72e 20be
000000e0: ee80 11bd 4021 373d 41b3 25bd f447 283b
000000f0: d654 5bbd 50fe 42bd 7aba d3bc 182a 933c
00000100: af32 3ebe 80c6 023e 5bff 89bd 4bcd 71bd
00000110: 2a59 5fbd cb38 d3bd d77f b7bc e852 15bd
00000120: 3104 02bd 4734 5abd 5667 863c 0b33 acbd
00000130: 4ffc c2bd d3b9 ba3c 4db5 0fbd b9a6 1bbe
00000140: c7d5 b0bd 4e89 9dbd 0cb4 aebd c5c0 1ebd
00000150: 3ec8 c3bd 43e4 5cbd 1c08 77bd 3f0a 7fbd
00000160: 9e14 c2bd 8615 b93d fa5e fcbc c6e5 0cbc
00000170: e44a c3ba a74f 233b 9fa6 06bd 05bc 79bd
00000180: d987 63bd 191c c43c 6e49 9dbd 6664 4e3d
00000190: 5240 0b3e 96ee 38bd 2837 f1bd e5cd 20bb
000001a0: 8b05 8a3e 1fe7 b43e 68ad e6bd d950 a8bd
000001b0: 91e3 b0bd 0840 70bc 3d48 d7bd 51ab 1bbe
000001c0: 3d3e 09be 6278 033e 93c6 80bd a028 d0bd
000001d0: b6fe edbc 0497 bdbc b23b 143e 0305 e0bd
000001e0: 6361 10bd 9fa4 a2bd f8d0 91bd c303 8dbd
000001f0: 90bd cdbc ecf6 1c3c 431e 2c3d 6538 87bd

fc3.weight f4 [1, 128]
0.014798798 -0.006753337 -0.011324041 4.0842104e-05 0.20713304 0.02985321 0.16455856 0.005443255
0.02274292 0.03371575 0.13131905 0.007879864 -0.0064557884 0.0009952455 0.013591546 -0.0008221054
-0.022376291 0.0188725 0.0041983854 0.025383495 0.015496796 -0.015148101 -0.0023478016 0.073331185
0.0106478715 -0.0046303687 -0.019600242 0.07659285 -0.0017873322 -0.014900473 -0.3245171 -0.022086361
0.016233869 -0.0008854784 -0.9210945 0.008905189 0.01742892 -0.008007622 0.28757346 0.12623204
0.016356668 -0.0036518604 0.0136017855 0.0027989598 -0.05860111 0.014717853 0.0146818515 0.0021783418
0.027146038 -0.3076167 -0.006227021 -0.005283805 -0.014294785 -0.013510695 0.9717174 -0.18492047
-0.020608563 0.07539783 -0.013460909 -0.019241821 7.214285e-05 -0.026754705 0.016651466 0.16980897
-0.0093591865 0.16538444 -0.02078143 0.18182667 -0.008857349 0.0018023398 -0.0131416 -0.028895859
0.012961628 -0.1898603 0.0033499023 -0.0067485943 0.063277066 0.08479463 0.20479226 -0.01732736
-0.008330415 -0.014625366 0.0036174674 0.002618936 0.0012223764 -0.0017086694 0.015063405 -0.028335929
0.0068353876 0.1429541 0.0031174743 -0.3207978 0.013708851 -0.010075592 -0.019017756 -0.009313935
-0.00058130367 0.028141622 -0.018460633 -0.09680816 0.19115676 -0.0069675287 0.025104335 0.29959503
0.315675 0.45537695 0.013037783 0.02653789 -0.009813984 -0.4760828 -0.014523663 -0.24697459
0.015078244 0.14373416 0.1239179 -0.014348306 0.019817133 0.049128577 0.07975713 0.0001059865
-0.014186288 0.16425955 -0.009968799 -0.017872948 -0.029119171 -0.01734199 -0.0121197365 -0.06387009
00000000: a876 723c 194b ddbb 7888 39bc e04d 2b38
00000010: af1a 543e b88e f43c 0a82 283e 555d b23b
00000020: 5c4f ba3c 8719 0a3d 8078 063e 8c1a 013c
00000030: 148b d3bb e672 823a 13af 5e3c 8f82 57ba
00000040: 7c4e b7bc 809a 9a3c 9c92 893b 0cf1 cf3c
00000050: 46e6 7d3c be2f 78bc 93dd 19bb a92e 963d
00000060: 6974 2e3c 59ba 97bb b090 a0bc b6dc 9c3d
00000070: eb44 eaba 1d21 74bc 1b27 a6be 75ee b4bc
00000080: e4fc 843c 731f 68ba d9cc 6bbf 12e7 113c
00000090: 18c7 8e3c 6732 03bc d43c 933e f942 013e
000000a0: 6bfe 853c 0d54 6fbb 06da 5e3c c16e 373b
000000b0: b807 70bd 2623 713c 268c 703c 83c2 0e3b
000000c0: 5e61 de3c f07f 9dbe 0a0c ccbb c523 adbb
000000d0: ad34 6abc f65b 5dbc 79c2 783f cb5b 3dbe
000000e0: 4ad3 a8bc 2d6a 9a3d 258b 5cbc 06a1 9dbc
000000f0: 664b 9738 af2c dbbc a868 883c 67e2 2d3e
00000100: 4657 19bc 8a5a 293e d13d aabc c530 3a3e
00000110: 6a1e 11bc 7d3c ec3a de4f 57bc 02b7 ecbc
00000120: 025d 543c bd6a 42be 098a 5b3b 5023 ddbb
00000130: 6897 813d cfa8 ad3d 10b5 513e 1cf2 8dbc
00000140: 4b7c 08bc 3b9f 6fbc 0813 6d3b 74a2 2b3b
00000150: 2538 a03a 6ef5 dfba 80cc 763c c020 e8bc
00000160: 63fb df3b 8f62 123e 8a4e 4c3b 9c3f a4be
00000170: 179b 603c 1914 25bc 20cb 9bbc 7a99 18bc
00000180: a162 18ba 4289 e63c c13a 97bc 5b43 c6bd
00000190: 99be 433e de4f e4bb 9ba7 cd3c 8564 993e
000001a0: 27a0 a13e 2b27 e93e 6d9c 553c fd65 d93c
000001b0: d5ca 20bc 20c1 f3be a8f4 6dbc e8e6 7cbe
000001c0: bd0a 773c 0c2f 133e abc8 fd3d 2815 6bbc
000001d0: 8a57 a23c 0c3b 493d b557 a33d 1245 de38
000001e0: 9b6d 68bc a833 283e 2c54 23bc 4a6a 92bc
000001f0: 548b eebc ca10 8ebc dc91 46bc 52ce 82bd
