checkpoint_critic_1_last.pth (torch_old, 187359 bytes, 5 tensors)

fc1.weight f4 [256, 52]
000000 d1 cd 26 3f 8e c1 1b 3f ca 31 b3 bd 43 fc 59 3e
       0.651578 0.60842216 -0.08749731 0.21287636
000010 7d 7b 62 3e 6c da 9e bf aa bc d9 bd e0 e4 98 3e
       0.2211742 -1.2410407 -0.10631688 0.29862118
000020 63 be 22 3f a4 fb 05 3f 08 4b 16 be 3d cd bb 3d
       0.6357176 0.523371 -0.1467706 0.091700055
000030 3f 36 bc 3e 39 92 05 c0 dd e9 95 bd db 06 ff 3d
       0.36760136 -2.0870497 -0.073199965 0.124524795
000040 a6 00 54 3f c0 62 e8 3e a6 62 98 3d e9 4a 9e be
       0.8281349 0.4538784 0.07440691 -0.30916527
000050 d0 a5 3b be 2e a5 0a c0 32 8a 31 3d a7 01 6d be
       -0.18324971 -2.1663318 0.043344684 -0.23145162
000060 e2 73 4d 3f 99 44 01 3e fd 39 80 bd 49 b1 b0 be
       0.8025495 0.12623824 -0.062610604 -0.34510258
000070 09 60 10 be 8a 16 9b bf ea 93 ba bd 44 9d d2 be
       -0.14099135 -1.2116253 -0.091102436 -0.4113561
000080 54 34 b3 3e 1c 7c 19 3d 45 f5 63 3c cd 6b 38 3e
       0.3500086 0.037471876 0.013913457 0.18009873
000090 89 03 7e be eb 57 06 c0 4d f7 1d bd 4e 2c 60 3e
       -0.24806036 -2.099116 -0.038565923 0.21891901
0000a0 4b 2c 79 bc aa d9 c4 3c df ad 9a 3e ea 9d fc 3f
       -0.015208314 0.024029572 0.30210778 1.9735692
0000b0 86 13 40 3e 2e 3b 08 c0 5a b0 a0 3e 21 fb ed 3f
       0.18757448 -2.128612 0.31384546 1.8592263
0000c0 a7 8c 3e c0 4a 63 60 bf 4e 77 3a 3f 83 40 0f c0
       -2.9773347 -0.87651503 0.72838295 -2.2383125
0000d0 6d e0 88 3e 73 29 84 bf eb 3e 65 bc e6 42 1d be
       0.26733723 -1.0325149 -0.013992052 -0.15357551
0000e0 f4 66 25 3d 89 6a 24 40 c7 de 61 bd 45 40 49 be
       0.040381387 2.5690024 -0.055144098 -0.19653423
0000f0 31 f5 98 3c 5e 96 5f bf 21 ec cc 3d d5 2c 56 be
       0.018671604 -0.8733882 0.100059755 -0.2091554
000100 92 6a a3 be 23 fd ec be 16 93 47 3e dd 8e 85 be
       -0.31917244 -0.46286878 0.19489703 -0.2608556
000110 2f b2 9e bd 13 07 9d be cc 48 b3 bd 39 c8 74 be
       -0.077488296 -0.3066946 -0.08754119 -0.23904504
000120 14 f2 63 3f 82 fa 72 bf 5a b0 a3 39 bb a7 10 be
       0.89041257 -0.94913495 0.00031221175 -0.14126484
000130 c2 35 4d bd dc 2e d5 b9 c8 e4 d7 bc 50 1c 07 bc
       -0.050100096 -0.0004066144 -0.026354209 -0.008246496
000140 9e 7a 51 3d fc 1e 28 40 79 b1 c5 3d b7 d9 01 3d
       0.051142327 2.6268911 0.09652991 0.03170177
000150 ad 3d 74 be 67 f4 84 3e c8 c4 98 3d 1e f4 06 3e
       -0.23851652 0.25967714 0.07459408 0.13179061
000160 6c 75 85 3e 3e 8d 00 bf 76 49 8a 3d 37 ea 49 3e
       0.26066148 -0.5021552 0.06752293 0.19718252
000170 9a 83 38 be a8 90 8a 3e e7 78 67 3d 52 b1 02 bf
       -0.18018952 0.2706349 0.056511786 -0.5105182
000180 03 72 63 bf 6f 8d 87 bf 76 26 c5 3d 5e 78 fe be
       -0.88845843 -1.0590037 0.096264765 -0.49701208
000190 32 fb f6 bf 3e f7 28 bf 06 90 64 3f b5 ec b4 bf
       -1.9295409 -0.6600226 0.8928226 -1.4134737
0001a0 56 a1 8d bd e2 79 f2 bc 57 1b 28 3e 32 68 2c be
       -0.06915538 -0.029599134 0.1641668 -0.16836622
0001b0 75 73 a6 3f c8 a4 0a 40 30 6f ae 3d 8b 34 24 be
       1.3003985 2.1663074 0.08517301 -0.16035669
0001c0 49 95 d6 3d 98 e9 e6 3c 65 f6 3d bd 21 7d 07 be
       0.10477693 0.028187558 -0.04637756 -0.13231327
0001d0 91 c3 9e be e9 13 54 3f 45 b5 03 bd 44 b4 de bd
       -0.3100858 0.8284288 -0.032155294 -0.10874227
0001e0 89 78 48 3d 47 53 cc 3d a8 b6 bb bd 31 2c 44 bd
       0.048943076 0.099768214 -0.09165698 -0.047893707
0001f0 5d 56 dc bf 63 96 3f c0 83 e5 1c bd 14 22 a4 3c
       -1.7213856 -2.9935539 -0.038304817 0.020035781
000200 63 f1 7a 3e c6 62 9a be 19 c1 12 be d6 87 49 3e
       0.24506144 -0.30153483 -0.14331473 0.19680724
000210 0e 0e 9e bf 90 2d 11 40 a3 84 09 be da 7d 6c 3e
       -1.2348039 2.268406 -0.13429503 0.23094884
000220 b8 9a c9 3e d5 a1 96 bd 02 f0 ba bc e8 55 22 3e
       0.39375854 -0.07355086 -0.022819523 0.15853083
000230 02 1c 87 3e 3a db 57 3f be c2 3d 3d 8c c0 a1 3d
       0.26388556 0.8431889 0.0463283 0.078980535
000240 9c 61 d1 3e 66 26 49 bd ce ed 47 3d ad 77 68 3e
       0.40894783 -0.049108885 0.048810773 0.22701903
000250 a9 c2 da 3f 3f e3 3e c0 5b 47 5f 3d d3 fa 45 3e
       1.7090656 -2.98262 0.05451141 0.19333963
000260 05 62 2f 3e c4 93 f3 3d 0c 84 bc bf 4a 19 83 3f
       0.17127235 0.118934184 -1.4727798 1.0242093
000270 8f 93 e6 be 3d 45 14 3f e4 78 af 3d b2 03 24 3d
       -0.45034453 0.5791815 0.0856798 0.040042587
000280 d0 5a 5c bf 69 62 4a bf 38 5f 3b 3d 22 4b c0 3d
       -0.8607607 -0.7905641 0.045745105 0.093893304
000290 04 d4 b7 be d5 4b 79 3f ac 66 30 be 70 f5 a4 3e
       -0.35903943 0.97381335 -0.17226666 0.32218504
0002a0 b0 b3 9a bf 2d a4 2e c0 ea e5 42 be 78 e4 b2 3e
       -1.2086086 -2.7287705 -0.19033018 0.34939933
0002b0 21 48 64 bd e1 ae c9 3f 71 45 71 3d db 4e 1d bf
       -0.05573285 1.5756494 0.058904115 -0.6144845
0002c0 df 03 bd 3e 41 5e c7 bd d9 60 e2 3d 58 da 10 bf
       0.36917016 -0.097347744 0.110536285 -0.56583166
0002d0 c2 74 20 bf b8 7a a5 3f fe 13 4c 3e 38 7d 1b bd
       -0.6267816 1.2928076 0.19929501 -0.037961215
0002e0 29 bb 5c 3f d8 c5 41 bf 96 69 f3 3d 53 65 02 3c
       0.86223084 -0.7569251 0.11885373 0.007958728
0002f0 7d 4f c6 bb 0a 11 62 3f a3 90 86 3d b2 8b 03 be
       -0.006051956 0.8830725 0.06570556 -0.12846258
000300 d4 6b a3 3f 02 64 32 c0 f3 09 92 3d 86 20 aa bd
       1.2767282 -2.787354 0.07130804 -0.083069846
000310 fb cf 5b 3f a6 9f cc 3f 06 96 fd 3d ef a4 f9 3d
       0.8586423 1.5986221 0.1238213 0.12189662
000320 21 42 b0 be ca 03 61 bd ef 9f 2a 3e 1e de 97 3d
       -0.34425452 -0.054935254 0.16662572 0.07415412
000330 cf be 8b 40 31 1a 0d 3f 73 e4 4d 40 80 2e 05 3f
       4.367042 0.5511809 3.2170684 0.5202408
000340 3d a8 04 3e 9a 32 23 3d 19 e7 8f 3b 63 bf e3 ba
       0.12954803 0.03984318 0.0043915627 -0.0017375763
000350 05 25 1c 3d f1 63 a4 bd ce 73 08 bd 54 8e 49 bd
       0.038121242 -0.08026875 -0.033313565 -0.049208
000360 6c 4a d4 3d 41 eb 29 3d 57 c3 97 bd cc ed 44 3d
       0.10365757 0.04148412 -0.07410305 0.048078343
000370 fa 8a 0b bd 64 87 a4 bd 88 1c 76 3c 0c ed 34 bd
       -0.034068085 -0.08033636 0.015021451 -0.044171378
000380 3a a4 6a 3e c9 d6 08 3e 17 8a 83 3c b7 7a 65 3d
       0.2291421 0.13363184 0.016057057 0.056025233
000390 89 80 08 bd e1 90 d9 bd e3 6d 80 bd 31 fa 49 3d
       -0.033325706 -0.106233366 -0.06270959 0.049310867
0003a0 d9 16 45 3e 52 bf 14 3e 1e 3e 83 bc 58 1f 08 3d
       0.19246997 0.14526108 -0.01602083 0.033233017
0003b0 2f fb 4c 3d f0 31 05 be 12 8b ef bc 4e 62 f0 3c
       0.050044235 -0.13007331 -0.029241119 0.02934375
0003c0 02 13 e9 3d ec 65 ef 3d 22 44 12 3c bd 61 02 3c
       0.113805786 0.11689362 0.008927377 0.007957873
0003d0 f3 7e c3 bc a7 d9 9f bd 00 8d 40 bd b7 d2 84 3c
       -0.023864245 -0.07805186 -0.047009468 0.016213758
0003e0 e8 53 73 3e 47 1d b4 3d 2c 2e 39 bd 35 b2 b3 bc
       0.23762476 0.08794647 -0.04521005 -0.021935562
0003f0 80 4a f3 3b a1 97 e1 bc 83 ee f3 3c 41 7e 66 bb
       0.0074246526 -0.027538123 0.029776817 -0.0035170468

fc1.bias f4 [256]
000000 7c f1 03 c0 3d 67 fb 3f fa c3 cd 3f 95 06 bb be
       -2.061614 1.9640881 1.6075432 -0.3652846
000010 6f 33 80 bd b1 c4 f9 bf 51 d8 b3 bf ed 68 ad 3f
       -0.0625981 -1.951315 -1.405039 1.3547646
000020 71 84 a1 bf 08 d0 b4 bf fd 62 df bf 2d 3c d5 bf
       -1.2618543 -1.4125986 -1.7452084 -1.6658989
000030 f3 45 36 c0 69 c4 18 bf da a7 f1 be e1 93 9b bf
       -2.8480194 -0.596747 -0.47198373 -1.2154504
000040 2e 73 7b bf 57 8c b1 bd e2 94 a7 bf f0 91 f9 be
       -0.98222625 -0.08669346 -1.309231 -0.48744154
000050 89 85 73 bf 2c d9 a0 be ec e4 95 3f 66 37 28 c0
       -0.95125633 -0.3141569 1.1710486 -2.6283813
000060 ad 5d 9e be fb bf a0 bf 15 3a 90 bf 3e 5f 24 c0
       -0.30930844 -1.2558588 -1.1267725 -2.5683131
000070 71 d5 9e 3e 12 c9 df bf 80 fa c6 bf 44 9c b6 bf
       0.31022218 -1.7483237 -1.5545197 -1.4266438
000080 79 90 e6 bf 04 e9 0a 3f b7 bd dd bf e9 00 96 bf
       -1.801284 0.54261804 -1.7323521 -1.1719028
000090 08 66 77 bf ee 97 06 c0 6b c0 22 c0 77 cd 81 c0
       -0.9664006 -2.103023 -2.5429943 -4.056331
0000a0 34 fd 72 bf ac ea 2b bf d0 71 10 c0 37 af f2 bf
       -0.9491761 -0.67154956 -2.2569466 -1.8959721
0000b0 a7 19 b4 bf 3a c0 dd be 05 bf 52 bf 91 e4 16 bf
       -1.4070328 -0.4331072 -0.8232272 -0.58942515
0000c0 88 0b e2 bd 76 c1 cb 3f f5 de 3c bf 39 7f ff 3f
       -0.11037356 1.5918415 -0.73777705 1.99607
0000d0 21 1d 84 bf fd 7c f7 bf 46 0b 04 bf 0b c5 31 be
       -1.032139 -1.9335018 -0.515797 -0.17360322
0000e0 e3 2b 80 c0 ac e8 08 c0 82 e9 b8 bf bf 75 45 be
       -4.0053573 -2.1392012 -1.4446261 -0.19283198
0000f0 42 03 a6 bf 99 0b b9 bf 92 ed 81 bf 6f 4a 3e be
       -1.2969744 -1.4456664 -1.0150626 -0.18583082
000100 fb 14 44 c0 2a f5 4d bf 06 04 e2 bf 4a 8e d7 bf
       -3.0637805 -0.80452216 -1.7657478 -1.6840298
000110 01 4c 96 bf 8d f5 ce bf 91 e0 91 bf ed 51 8a bf
       -1.1741945 -1.6168686 -1.1396657 -1.0806252
000120 d3 32 12 3f 33 82 7f 3c e7 2b 15 c0 0c 57 8e bf
       0.571088 0.015595007 -2.3308046 -1.1120315
000130 5f db 8a 3f 81 5e 8a bf 16 b3 ff bf ff 26 94 3f
       1.0848197 -1.081009 -1.9976528 1.1574401
000140 30 2f e6 bf ac 1a 90 bf f5 79 88 bf f2 22 66 c0
       -1.798315 -1.125814 -1.0662218 -3.595883
000150 0e 18 9c bf 65 30 6a bf 88 35 28 c0 16 b6 83 3e
       -1.2194841 -0.91480094 -2.6282673 0.25724858
000160 cb 4e 38 bf 9b 27 8f bf 1d 8d 0f bf 98 44 06 c0
       -0.7199523 -1.1183962 -0.56074697 -2.0979366
000170 0b 73 d1 bf 2f 29 92 bf 38 68 b3 bf bb 3a 7b bf
       -1.6363233 -1.1418818 -1.401618 -0.9813649
000180 d2 5c 06 c0 03 20 7e c0 05 ab ec be 05 59 d2 bf
       -2.0994153 -3.9707038 -0.46224228 -1.6433417
000190 dd 2c fa bd 8d 00 aa 3e 65 f1 17 bf e7 bb 1a c0
       -0.12215588 0.33203545 -0.59352714 -2.4177186
0001a0 39 bc a2 c0 0a 82 a7 bf 0e f9 ac bf 25 32 0d c0
       -5.0854764 -1.308656 -1.3513505 -2.2061856
0001b0 b2 ec 0a 3f a7 d9 07 bf 8e 26 14 bf 76 8b a1 bf
       0.5426742 -0.53066486 -0.5787133 -1.2620685
0001c0 a7 b1 0b 3e f6 b8 4e bd 62 16 5f 3e 2b 7d 81 40
       0.13641988 -0.05046936 0.21785882 4.0465293
0001d0 41 fd f4 bf 23 43 4f bf 52 15 9c bf c3 9f da bf
       -1.9139787 -0.8096182 -1.2194006 -1.7080005
0001e0 7e fd 4b c0 34 e9 04 c0 ed 7f 31 c0 76 c2 64 bf
       -3.187347 -2.0767336 -2.773433 -0.89359224
0001f0 fc 4f d4 bf d4 79 b6 bf b4 a7 12 c0 71 1e df bd
       -1.6586909 -1.4255929 -2.2914858 -0.10894478
000200 d7 9e fb bf f9 3f 45 bf d6 01 77 3e 5a f9 e3 bf
       -1.9657849 -0.7705074 0.24121794 -1.7810471
000210 e8 fa d9 bf 25 fa aa be a5 cb ac bf 24 c8 f7 bf
       -1.7029696 -0.3339397 -1.3499647 -1.9357953
000220 8c ce 97 bf cc f6 15 c0 66 d4 1e c0 4e 30 4f bf
       -1.1859908 -2.3431883 -2.4817138 -0.8093308
000230 87 69 13 bf 83 4c ff bf b4 e6 d6 3e 72 9c a0 bf
       -0.57582897 -1.9945225 0.41972888 -1.2547743
000240 9d ac 1d c0 a2 0f da bf 84 8e a8 3f f5 1f a9 bf
       -2.4636605 -1.7036021 1.3168492 -1.3212878
000250 ec 2f f9 bf 0f 4d d2 bf 0c a8 14 be 9d f6 97 3e
       -1.946775 -1.6429766 -0.1451723 0.29680339
000260 b2 5f 1a bf 5b 79 36 c0 0f b7 90 bf 0d a7 c9 bf
       -0.6030227 -2.851157 -1.1305865 -1.5754105
000270 55 66 89 be e5 14 08 c0 04 9b cd bf a8 c6 59 bf
       -0.26835886 -2.1262753 -1.6062932 -0.8506875
000280 d4 49 02 c0 59 06 9b bf d6 5f aa bf c3 2c 0e c0
       -2.035756 -1.2111312 -1.3310497 -2.221482
000290 9c 81 69 40 1b da b8 be cd cf d4 bf 6c d3 02 c0
       3.6485357 -0.361039 -1.6625916 -2.0441542
0002a0 dd 26 82 bf 90 ff da bf 15 a2 be bf 90 e9 1b c0
       -1.016811 -1.7109241 -1.4893214 -2.4361305
0002b0 17 f7 dd bf 8d 1f 5b be 01 31 57 c0 02 2b b6 bf
       -1.7341031 -0.21398754 -3.362366 -1.4231875
0002c0 10 01 ca bf ba 20 05 c0 75 e0 22 c0 39 3e 06 bf
       -1.5781574 -2.0801225 -2.5449498 -0.52438694
0002d0 d2 bb b0 3e 8d 58 85 bf dd ee 07 c0 47 a0 3b 40
       0.34518296 -1.0417649 -2.123954 2.9316576
0002e0 d0 02 20 c0 99 2c 98 bf 78 b9 9f bf 8e 32 0f c0
       -2.5001717 -1.188861 -1.2478476 -2.2374606
0002f0 07 00 a9 bf c9 12 7c bf aa c4 68 bd 16 fb af bf
       -1.3203133 -0.98466164 -0.05682818 -1.37485
000300 38 6a a5 bf fb 54 b3 bd 48 6f 89 bf 94 bc a6 bf
       -1.292304 -0.08756443 -1.0737085 -1.30263
000310 8f c7 b7 3e 6d 0e c6 bf 1e 22 91 bf 01 cc 07 be
       0.3589444 -1.5473152 -1.1338537 -0.13261415
000320 58 35 ac bf 7e 39 c4 bf 78 cb 25 3f e2 a5 05 c0
       -1.3453779 -1.5330045 0.64763594 -2.0882497
000330 1e 3a 03 c0 8d f7 d7 bf 15 cf 25 c0 46 0d 6f c0
       -2.0504222 -1.6872422 -2.5907643 -3.7351851
000340 14 df c3 3e 9b b8 8a bf 64 cb 03 bf 4e 10 68 bf
       0.38256133 -1.0837587 -0.51482224 -0.9064988
000350 b7 29 fc bf fa 64 79 bf be d4 94 be d9 23 94 be
       -1.970023 -0.97419703 -0.2906856 -0.289336
000360 6f 23 22 c0 9f 55 87 bf 8f 7e de bf e9 4a a0 bf
       -2.5334127 -1.0573004 -1.7382373 -1.2522861
000370 c9 1e aa bf 90 87 06 c0 21 fa 1b be 15 14 85 bf
       -1.3290645 -2.102024 -0.15232135 -1.0396754
000380 0b ef 6f bf 68 05 03 bf 64 fd 8d bf bd 5b e3 bf
       -0.93724126 -0.51180124 -1.1092954 -1.7762371
000390 56 48 9d bf 56 6b ee bf 52 8f 4d bf 8f 62 ae bf
       -1.22877 -1.8626506 -0.80296814 -1.3623828
0003a0 d9 70 f9 bf 32 23 07 c0 3d d2 87 c0 37 fd 25 40
       -1.9487563 -2.1115232 -4.244414 2.59358
0003b0 03 ad f8 bf 29 25 96 bf 81 89 06 3f 12 9e bb bf
       -1.9427799 -1.173009 0.52553564 -1.4657614
0003c0 34 29 84 bf 3a 8e c1 be 08 8d 96 bc b4 77 cb bf
       -1.0325074 -0.37803823 -0.018377796 -1.5895905
0003d0 f1 79 06 c0 d6 80 00 c0 e4 dc f9 bf 29 89 03 bf
       -2.1011927 -2.0078635 -1.9520535 -0.51381165
0003e0 18 2a 2c c0 39 3c 8d bf fe 58 9e bf 7e 6e 16 c0
       -2.6900692 -1.1034003 -1.2370908 -2.350494
0003f0 f8 cc 3d c0 0f df 11 c0 59 d4 d0 bf 91 e7 f3 3e
       -2.9656353 -2.2792394 -1.6314803 0.4763761

fc2.weight f4 [128, 256]
000000 21 32 2a bd 1a 72 d9 bc 8f da a8 bd ca d7 65 bd
       -0.041551713 -0.026543666 -0.08244812 -0.056113996
000010 08 ac 48 bd 94 08 4e bd 42 bc 93 bc c5 19 45 3d
       -0.048992187 -0.05030115 -0.018034104 0.04812028
000020 65 89 5c bd 5a a9 89 3c 7c 7a 2e 3d 81 66 66 bd
       -0.053841967 0.016804386 0.04259728 -0.0562501
000030 2e 3c 00 bc 9c ed 26 3c fd 7d 34 bd ff 9c 3a 3d
       -0.007826848 0.010188486 -0.044065464 0.04555988
000040 64 b6 a5 bd 8b 13 70 3d 03 2b 31 bc 2e ac a3 bd
       -0.08091429 0.058612388 -0.010813477 -0.07991825
000050 b1 1e 5e bd 90 d3 b1 bd 1f 02 8e 3c d3 c8 5f 3d
       -0.05422849 -0.086829305 0.017334996 0.05463488
000060 a1 a2 60 bc 43 a2 e2 bd 3c 53 61 3d 84 a5 97 bd
       -0.013710649 -0.11066105 0.05501102 -0.074046165
000070 7d 8e 9b bc e9 06 88 bb 5f 84 83 bd 6a ba ae 3c
       -0.018988842 -0.0041512144 -0.06421732 0.021329124
000080 b8 e0 80 3b e5 f7 c9 bd 29 d7 e8 bd 8f 36 67 bd
       0.0039330386 -0.09861735 -0.113691635 -0.056448516
000090 07 bd c0 3b 74 6e b8 3c c7 59 83 3a 3c 11 d1 3c
       0.005881909 0.022513606 0.0010021263 0.025520913
0000a0 df 90 3e 3c da e0 96 bd ca 13 1e bb bc d7 59 bd
       0.01163122 -0.07367106 -0.0024120682 -0.053184256
0000b0 00 ff 93 bd 9d 4b 9d 3d 9e f5 1f 3d e1 c6 f1 3b
       -0.07226372 0.07680438 0.0390526 0.0073784445
0000c0 35 7c cb bc 31 00 78 bc c5 33 7e bd c4 b5 da bd
       -0.0248395 -0.015136764 -0.06206109 -0.106792
0000d0 57 69 85 bd 0f 95 db bd ff 0e a2 bd 64 06 15 bd
       -0.065142326 -0.1072179 -0.079130165 -0.036383048
0000e0 fb 75 6c 3d c7 34 e3 bb 6a 08 1e bd b0 10 97 3d
       0.057729702 -0.006933782 -0.038582243 0.0737623
0000f0 e1 f6 10 bd dc 97 18 3d 90 a0 a5 bd 01 98 ba bd
       -0.035391692 0.0372542 -0.080872655 -0.09111024
000100 92 1b 14 bc 96 c6 3e bb f2 32 a2 bd 4d 56 9b bd
       -0.009039776 -0.0029110066 -0.07919873 -0.0758482
000110 f4 ff f1 3b 99 9c e7 bc 93 b1 6f bd 40 a2 9e b8
       0.0073852483 -0.028272914 -0.058518957 -7.5642485e-05
000120 16 57 d2 bc 72 b0 00 3d 44 96 09 bd ad 63 0a be
       -0.025676291 0.03141827 -0.03359057 -0.13514586
000130 4c 81 09 bd d0 4a 36 bd 22 13 0e 3c 27 c9 9b 3d
       -0.033570573 -0.04450494 0.008671554 0.07606726
000140 2b c2 ae bd 2b 94 bd bd 12 a8 a3 bd f4 1c 00 be
       -0.08533128 -0.092567764 -0.07991041 -0.12511045
000150 fc b3 af bd 8f 11 60 bd 79 15 7b bd 83 cf a2 3d
       -0.08579251 -0.054704245 -0.061299775 0.07949736
000160 11 91 ab 3c 01 87 f5 bd bd b4 0b 3b 1a b6 a7 3d
       0.020943196 -0.119886406 0.0021317445 0.0818903
000170 02 89 26 bd 0e 3a 83 bd 0f 4f 06 3d 7b 2d a2 bd
       -0.040658005 -0.064075574 0.03279024 -0.07918831
000180 10 f8 be bd 0b 17 70 3b 5d 22 6a bd b1 73 3e bd
       -0.09324658 0.0036634828 -0.057161678 -0.04649705
000190 1d 4a f9 bc 20 b5 aa bd 0f 46 1f bd a4 54 3d bd
       -0.030430848 -0.08335328 -0.038885172 -0.046223298
0001a0 89 bc 12 bd 27 87 2d bd 92 20 a5 3d ae f8 cd bc
       -0.035824332 -0.04236522 0.08062853 -0.025142994
0001b0 1f 9c 84 3d 12 28 e5 bb fa af 1f bb 88 5a f0 3c
       0.0647509 -0.006993302 -0.0024366365 0.029340044
0001c0 57 f9 0d be 73 32 ef bc 97 49 a8 bd 98 d3 15 be
       -0.13864647 -0.02919886 -0.08217161 -0.14631498
0001d0 05 10 43 bd 5e 90 0e 3d 78 06 92 bd 22 bc 84 bd
       -0.0476227 0.034805648 -0.0713014 -0.06481196
0001e0 2b 6a 0a bd 07 4a 4c 3d 3e e8 f2 3b 67 8f 1b bd
       -0.033792656 0.049875285 0.0074129393 -0.037978556
0001f0 b6 e2 8b b9 3c 3c 3e bd b8 57 21 bd cf a6 94 bd
       -0.0002668106 -0.046444163 -0.039390296 -0.07258379
000200 48 9f b5 bd 4a f5 2f bc 8e cb 71 bd 0c ea 40 bd
       -0.08868271 -0.010739634 -0.059032016 -0.047098204
000210 b5 e2 b4 bd f5 3f f2 3c 30 c4 24 bc ce 35 d7 bd
       -0.088323034 0.029571513 -0.01005654 -0.10508309
000220 83 d4 9b bc e1 2b 89 bd 18 eb cf bb bc 21 64 bd
       -0.019022232 -0.06697822 -0.006345164 -0.055696234
000230 b7 c2 03 3d f7 fe 80 bd b7 ce 0f be 91 ad 2a 3c
       0.032168116 -0.06298631 -0.14043699 0.010417358
000240 db f0 fa 3c 02 1a 19 bd 63 dd cf bb 7b 20 0d 3d
       0.030632427 -0.03737832 -0.00634353 0.034454804
000250 2a 1b 21 bd 3f 94 25 bd d7 0c 45 3d 4a 0b 75 bd
       -0.039332546 -0.04042458 0.04810795 -0.05982522
000260 9b 3e 2f bd ad 8a e4 bd c6 fd e4 bc 33 38 5d bc
       -0.042784315 -0.11159263 -0.02795304 -0.0135021685
000270 04 98 e3 bc 31 1d 8a 3d 09 29 93 bc ef b7 24 bd
       -0.027782448 0.06743849 -0.017963903 -0.040214475
000280 bd 2b 01 bd e3 cd f5 3c 52 3f f4 bc 82 4f ae 3c
       -0.031535853 0.030005401 -0.02981535 0.021278147
000290 91 9e e2 3b 92 f2 9d bd 24 87 eb ba b0 0b 90 3d
       0.0069158752 -0.07712282 -0.0017969352 0.07033479
0002a0 3a 9d 5f bc 93 0d d0 bc 32 0e 81 3d 5b e1 fb 3c
       -0.013648326 -0.025397098 0.06301536 0.030747106
0002b0 85 53 ee bd e2 b5 6a bd 38 4e b7 bd a7 90 6c bb
       -0.11637024 -0.057302363 -0.08950466 -0.0036096962
0002c0 a4 c0 f1 bc 1f 3a f9 bd b0 3b 50 bd 1b 2f 60 bd
       -0.029510804 -0.12169289 -0.050838172 -0.054732423
0002d0 f8 6c 40 bd a1 47 ea bd 92 d2 d8 bd 2a 4d ce b9
       -0.04697892 -0.114394434 -0.10587038 -0.00039348874
0002e0 b7 b1 94 3d 60 01 6c 3c 65 c5 ba bd 21 e4 77 bd
       0.07260459 0.014404625 -0.09119681 -0.060520295
0002f0 3c 4c 01 be 5f 81 7c bd cd c5 bd bc ad 30 b5 bd
       -0.12626737 -0.061646815 -0.023165608 -0.08847175
000300 62 13 67 bd 8b 12 9e bd 7b 4b 24 bd b9 da 70 3d
       -0.05641497 -0.077183805 -0.040111046 0.05880234
000310 a9 40 11 bd 86 05 05 3d 44 a5 27 be c8 5a 80 bd
       -0.035462055 0.03247597 -0.16371638 -0.06267315
000320 5c dd fb bd 9d 14 3e 3b 08 e6 1f bd 95 55 e1 bd
       -0.1229808 0.0029003986 -0.039037734 -0.110026516
000330 d8 81 09 3d df 21 30 bd f7 28 77 bd e0 6d 23 be
       0.033571094 -0.043001052 -0.0603418 -0.15959883
000340 ef 06 6a bd b8 81 84 bd 63 64 86 3c 93 09 05 bd
       -0.05713552 -0.064700544 0.01640529 -0.032479834
000350 fd 51 00 bc bd 9e 9c bd 1a fe b6 bd b1 40 25 3d
       -0.0078320475 -0.076474644 -0.08935185 0.040344898
000360 2f 32 cf bd b9 11 89 3c 47 21 25 bd 0f 4a 09 bd
       -0.10116994 0.016732084 -0.04031494 -0.033517893
000370 b5 bc e2 bd 3d 8a d1 bc 47 f3 76 bd 67 17 8f ba
       -0.11071149 -0.025578612 -0.0602906 -0.0010917009
000380 56 c9 a2 bd 23 4c 9d bd be 57 a5 bd 22 88 fd 3c
       -0.07948558 -0.076805376 -0.08073376 0.030948702
000390 f0 64 8e bd 41 92 01 3d f6 39 c9 bd 03 2d 24 3d
       -0.06952846 0.03163362 -0.09825508 0.04008199
0003a0 84 c0 44 3d 3a 8b c0 bd 8e 0d 76 bd 95 3f af bd
       0.04803516 -0.09401555 -0.06007152 -0.08557049
0003b0 fa cc 94 3d ca 97 96 bd 58 61 20 3d a5 17 ac 39
       0.07265659 -0.0735317 0.039155334 0.00032824013
0003c0 f5 36 e0 bc f6 7e b6 bc 01 81 ad 3b c7 3d 7f bd
       -0.027369956 -0.022277337 0.0052949195 -0.062314775
0003d0 e5 50 40 3d 28 8f 16 3d 2b ea 06 bd 9e b1 77 bd
       0.046952147 0.03675762 -0.032938164 -0.060472123
0003e0 3e 6b e7 bd 9f 0a 8f bc 6e 2b 87 bc a4 60 fd bc
       -0.11299752 -0.01746112 -0.016500201 -0.03092987
0003f0 b2 4c 91 bd 07 60 04 bd 07 eb 80 bd f0 d9 b9 3b
       -0.070947066 -0.03231814 -0.06294828 0.005671732

fc2.bias f4 [128]
000000 a3 06 91 bd 31 35 8e bd 5e 93 0b be cf 31 3a be
       -0.07081344 -0.06943739 -0.13630435 -0.18183063
000010 0f 33 0f bd a0 02 20 bf 32 a7 3b bd 44 0f e9 bd
       -0.034960803 -0.62504005 -0.045813747 -0.11379865
000020 d2 c6 93 bd be 69 28 be 3a cb 04 be e0 4e 13 be
       -0.07215656 -0.16446587 -0.1296815 -0.14385557
000030 52 68 6c bd b0 94 04 be f3 f4 f1 3b 88 63 fa bd
       -0.057716675 -0.12947345 0.0073839366 -0.12226015
000040 77 c7 ec bd 5e 08 98 bd 60 2f 25 be d2 a7 16 be
       -0.115614824 -0.07423471 -0.16131353 -0.14712456
000050 e6 31 9c bd cb ce d8 bd d1 63 99 bd 9e 37 02 be
       -0.07626705 -0.10586318 -0.074897416 -0.12716529
000060 69 e9 74 bd be 84 d2 bd b3 6e c9 bd d5 3e 15 be
       -0.05979291 -0.10279225 -0.09835567 -0.1457475
000070 35 79 e0 bd 14 47 9a bd 52 16 cd bd e3 bc a5 bd
       -0.109606184 -0.07533088 -0.10014023 -0.08092668
000080 54 18 a1 bd bc ee b2 bd c8 d4 57 bc 9d 36 23 bd
       -0.07865968 -0.08736941 -0.01317329 -0.039847005
000090 d6 37 98 3a f3 12 f2 bd e4 5d 80 bd 2f 5b 05 bd
       0.001161332 -0.118200205 -0.06267908 -0.032557663
0000a0 1c bd 8a bd 51 c5 00 be c7 d3 14 bd db cf f9 bd
       -0.06774351 -0.1257527 -0.03633478 -0.121978484
0000b0 48 f2 78 bd 80 4d da be 62 ba 3c bd 44 ad dd bd
       -0.060777932 -0.42637253 -0.046076186 -0.108240634
0000c0 e5 e2 16 bd 44 1c 4b bd f7 f5 c6 bd 1d 0f 01 be
       -0.036837477 -0.049587503 -0.09714883 -0.12603422
0000d0 dd 38 34 3d 4b 1e ea bd 11 24 93 bd a0 da 88 bd
       0.04399954 -0.11431559 -0.071846135 -0.066823244
0000e0 b9 35 b2 bd ba a5 2a bd a9 83 ff bd ed d8 04 bd
       -0.08701653 -0.041661955 -0.12476284 -0.03243344
0000f0 15 f7 ff bd 79 54 55 bd e5 34 0c be 54 2c ae bd
       -0.12498299 -0.052082513 -0.13692053 -0.08504549
000100 c0 2e 00 be 38 d0 e8 bc 41 b7 00 be 39 cb 1c bd
       -0.12517834 -0.028419599 -0.12569906 -0.038279746
000110 fe 3c 1e bd 54 27 08 bc 51 2e 4a bd 19 9e 02 bd
       -0.038632385 -0.008310158 -0.049360577 -0.031889055
000120 9f 04 e5 bd 2e 63 cb bd 81 de 75 bd 90 e8 31 be
       -0.11182522 -0.099310264 -0.06002665 -0.17373872
000130 3e 79 4d 40 5d 92 3c bd 01 74 18 be c3 23 19 be
       3.210525 -0.04603802 -0.14888002 -0.14955048
000140 33 89 25 be 5e 1d d2 bd 40 14 19 be 21 0a d7 bd
       -0.16165619 -0.102595076 -0.14949131 -0.10499979
000150 79 35 16 c0 bf 48 91 bd 47 bf 1e be 0a 09 31 bd
       -2.3470137 -0.07093953 -0.15502654 -0.04322151
000160 9c 92 38 bd 2e ca b2 bd 10 c1 1e be 5a 8f 26 be
       -0.045061693 -0.08729969 -0.15503335 -0.16265622
000170 08 11 b4 bd ff c9 10 be 7e 87 72 bd 39 d3 a2 bd
       -0.08792311 -0.14139555 -0.059211247 -0.07950444
000180 8e 51 97 bd a1 3a 27 40 e6 53 01 be a2 25 41 bd
       -0.07388602 2.6129534 -0.12629661 -0.04715503
000190 44 7c d8 bd 58 e4 ae 3f 8d 29 55 bd f6 6b f0 bd
       -0.10570577 1.3663435 -0.05204158 -0.11739342
0001a0 00 66 f2 3f e2 de af bd 83 ab 5b bd 09 1a 02 3e
       1.8937378 -0.085874334 -0.053630363 0.12705244
0001b0 d9 20 13 40 92 0b d6 bd 2f c5 e9 bd 25 60 55 bd
       2.2988799 -0.104514256 -0.11414563 -0.052093644
0001c0 55 34 62 bd d8 12 8a bd 9f 74 7a bd 02 c1 ff bd
       -0.05522569 -0.067418754 -0.061146375 -0.12487985
0001d0 9b 9d f6 bc e4 fc ff bd e1 da 04 be b4 80 c5 bc
       -0.030104449 -0.12499407 -0.1297412 -0.024109222
0001e0 4d 31 ca 3e 46 bd 27 be e9 5b bf bd 70 f4 4b bd
       0.3949074 -0.16380796 -0.09343702 -0.04979366
0001f0 cc ff e6 bd 10 87 eb bd 66 3e 25 bd 8b f6 e7 bd
       -0.11279258 -0.115003705 -0.04034271 -0.11326321

fc3.weight f4 [1, 128]
000000 78 50 7e bc 0d bb f8 bb 29 d0 0c 3c db 70 2e 3c
       -0.015522115 -0.0075906576 0.008594551 0.010647024
000010 18 86 f7 bc 23 ae b9 3b b7 bc 40 3b b3 9f e2 bc
       -0.030215308 0.0056665107 0.0029409358 -0.027664041
000020 4b 6c 47 bc 7b da 61 bc 7f f3 22 3c 48 29 c7 3b
       -0.012171815 -0.013785 0.009945749 0.006077919
000030 ed c7 a2 bc e9 8c b3 bc 1f f3 a1 3c d3 39 b6 3c
       -0.019870723 -0.021917777 0.01976925 0.02224437
000040 6d 41 ee bc 37 2c e0 3c 8c be 54 3b fd d6 08 bc
       -0.029083932 0.027364833 0.0032462208 -0.008352038
000050 72 67 a8 bc 77 7b 4b 3b ee 6e 15 3c d1 ac b6 bb
       -0.02055714 0.0031048933 0.009120686 -0.0055748005
000060 55 77 90 3b 79 53 a9 bb 34 40 bb 3c ba 00 c5 bc
       0.0044087567 -0.0051674214 0.022857763 -0.024048198
000070 98 8d aa bc 82 c7 9d bc 67 17 76 bc d3 17 e1 3c
       -0.02081947 -0.019260172 -0.015020228 0.02747718
000080 6c 5f cf 3c 8a be 14 3c 2c 40 ed bc ee ad 8f 3b
       0.025314055 0.009078631 -0.028961264 0.0043847477
000090 8c f3 d1 3c 26 07 e9 3c c3 6d fa bb 52 42 c3 3b
       0.025628828 0.028445791 -0.007642479 0.0059588337
0000a0 c3 f2 3e bb 5b e2 c1 3b a9 e8 14 3c 71 40 9d 3b
       -0.0029136396 0.0059168763 0.009088674 0.004798942
0000b0 b6 d0 f9 bb ba df 00 b9 0b b8 a1 bc 0b 51 77 3c
       -0.0076237572 -0.00012290376 -0.019741079 0.015095006
0000c0 28 71 8b 3c 84 9e 4c bc b7 e2 96 3c e4 de 53 3c
       0.01702173 -0.012488965 0.018418653 0.012931559
0000d0 79 ae 6c bb 3d 9d cc 3c 23 81 18 3b 93 f7 5c bc
       -0.0036114736 0.02497732 0.002327033 -0.013486761
0000e0 bb 4c 8c 3c 17 d6 bd bc e5 95 25 3b 4c 87 ec bc
       0.017126432 -0.023173375 0.0025266346 -0.028873108
0000f0 79 d3 ed 3c 89 e8 bd 3a 32 f7 13 bb 21 90 72 bc
       0.029031502 0.0014488857 -0.002257776 -0.014804871
000100 58 92 9c 3c 93 fb d6 ba 2e 91 48 3a c3 8a 0c bc
       0.01911275 -0.0016401879 0.0007651028 -0.008578005
000110 c9 f4 0e bc 6b 1d 55 bc d8 09 43 bc fb ee 37 3c
       -0.0087253535 -0.013007502 -0.011904202 0.011226411
000120 96 36 95 bc 4b d2 40 3c f1 8c b3 3b 81 39 dc bb
       -0.018214505 0.011768888 0.005479448 -0.006720722
000130 65 69 fe bc 52 b8 84 ba cd 7c b3 3c 36 d4 e0 3c
       -0.031056115 -0.0010125733 0.021910096 0.02744494
000140 95 d7 8d 3c ec 36 8c bc 5c 96 01 bc 8a df b0 bb
       0.017314712 -0.017116033 -0.007909384 -0.0053977417
000150 d6 85 ba bc da 25 04 3c 8e e7 ae bb 1f 1b c0 bc
       -0.022768896 0.008065665 -0.005337662 -0.023450432
000160 e1 2f 55 3c a7 a2 92 3c ce c0 4a 3a c4 1c 3a 3c
       0.0130119035 0.017899824 0.00077344186 0.011359397
000170 e4 01 32 bc d4 8c d8 3b 62 1a 7a 3c 50 ac a2 bb
       -0.010864709 0.006608585 0.015265079 -0.004964389
000180 25 f0 a5 3c bf ec 9d 3c 21 73 38 bc 6c 7f f2 bc
       0.020256111 0.019277928 -0.011257918 -0.029601775
000190 a9 53 40 3c 8f de 3c 3c 4f cb 87 3b c0 29 bf 3c
       0.011738696 0.0115276715 0.0041441093 0.023335338
0001a0 97 34 de 3d 1b d5 e1 b9 cd 53 de 3c 58 b6 c0 bc
       0.108498745 -0.0004307412 0.027139569 -0.023524448
0001b0 4d 90 d3 3d 2f ed 94 3c b9 e1 6b bb 8d 89 be 3c
       0.103302576 0.018179504 -0.0035992695 0.023258949
0001c0 88 ad 8d 3c 41 3e d2 bb 97 66 e2 ba 53 b9 fa bb
       0.01729466 -0.0064161127 -0.0017273006 -0.007651487
0001d0 0b b2 a6 3c 71 fc aa bb 17 97 aa 3b 55 3a 05 3c
       0.02034857 -0.0052180816 0.0052059996 0.008131583
0001e0 18 67 d7 bc aa 01 f7 bc 8b e3 32 bc 91 c7 b2 bb
       -0.026294276 -0.03015216 -0.010918508 -0.005455919
0001f0 0e a4 ca bc 04 d1 ee bb ce b9 8c bc 56 43 69 3c
       -0.02473643 -0.0072881 -0.017178442 0.014237246
