checkpoint_critic_1.pth (torch_old, 187301 bytes, 5 tensors)

fc1.weight f4 [256, 52]
-0.00391988 0.06254057 -0.005001339 -0.032773882 0.05096226 -0.07018711 -0.023691008 0.05071422
0.005373389 0.029332556 -0.017833468 -0.034320496 0.053560466 0.009268923 0.055430673 -0.0023965195
-0.02916337 -0.028816111 0.0066720834 -0.043150242 -0.043467104 -0.014720817 -0.02417078 0.031678703
-0.0039695012 0.03157011 0.04693647 -0.003389629 0.028762268 -0.040881846 0.018484067 -0.0667972
-0.0045286156 0.01666645 0.008393706 -0.032661095 0.065363556 -0.002768073 -0.04400945 0.0047094366
-0.04889387 -0.034377903 0.007938402 0.056359757 0.047769487 0.022863202 0.019656656 -0.054096382
0.022349507 -0.014083014 0.041884333 0.010845906 -0.038624033 -0.030827701 -0.004064534 0.018591797
0.05189408 -0.042305876 -0.04437688 -0.022537902 0.035497528 0.038118977 -0.034704976 -0.012962664
-0.003203447 -0.01365845 0.059101585 -0.061758872 -0.007772426 0.040771414 -0.022901917 -0.06804461
0.014076661 0.058704346 0.064196646 0.023361348 -0.046453107 -0.031679872 -0.06787119 -0.012781118
0.03924052 0.015111001 0.05450596 0.024316391 0.049192462 -6.0292507e-05 0.03572109 -0.063701026
-0.05505597 -0.052537527 0.028677335 -0.004291456 -0.003233158 0.024870897 -0.020274887 -0.005008977
-0.012127631 -0.04983477 0.019263063 0.0075103943 0.040050685 -0.016570292 0.011067587 0.01118407
-0.025138943 -0.03343347 0.042692136 -0.03725724 0.011094084 -0.06482113 -0.035785887 -0.030004121
0.0425136 0.022786804 -0.03225472 -0.0117970845 -0.04935197 -0.039139412 -0.018126331 0.00987939
-0.04860602 0.0030435717 0.010878242 -0.039649848 -0.0012838676 -0.04945153 0.06390444 0.023264617
-0.033232294 -0.030916326 -0.048210375 -0.052770615 0.054329716 0.036596585 -0.039267074 -0.021024229
0.049629726 0.045081805 -0.02143732 0.028252345 0.0032737618 -0.024498979 0.04726958 -0.043737404
0.0068976134 0.035289522 0.0074040852 -0.010650955 -0.011001691 -0.03863105 0.013060893 -0.04046025
0.008614634 -0.039678525 0.0023599064 -0.019078325 -0.052774213 0.010509749 0.030398352 -0.05216654
-0.059917647 -0.0027720935 -0.009294123 -0.0026582608 0.0067514703 0.033103883 0.04604769 -0.0058011827
0.042985402 0.023694249 0.028062027 0.019230982 0.0539991 -0.01592966 -0.019458357 -0.007166352
0.057685714 -0.067784086 0.031982344 0.03868826 -0.004260234 -0.037993312 0.04474311 -0.03436072
0.061380975 0.030507678 -0.035331678 0.007500325 -0.022490442 -0.009596685 -0.034469005 0.0058742827
0.024721336 -0.03417849 -0.028896341 0.048411094 0.061348617 0.0332005 -0.0019106457 0.023516377
-0.032924835 -0.025997605 0.040658798 -0.020897567 -0.0029351432 -0.040264405 0.022192338 -0.03539111
-0.017970834 -0.045688633 -0.0018328637 0.007171241 0.050186414 0.0014194881 -0.039312202 -0.039372016
-0.049160786 -0.051485073 -0.037414227 0.038939584 -0.011435576 -0.009588863 0.051459797 -0.051935103
0.054695018 0.030549206 0.05618891 0.035402935 0.0012138902 -0.03972346 -0.022422709 0.0287778
0.043321326 0.040010195 -0.011464337 0.039206542 0.037854098 -0.0482492 -0.024665184 0.03542297
-0.05653299 0.00033244336 0.05536532 0.0045146863 -0.046420332 -0.007311372 -0.0005219202 0.0124572
0.024571182 -0.05055039 -0.06180368 -0.0647013 -0.02708066 0.038632818 0.0131049 -0.047743276
00000000: 5672 80bb 4515 803d 46e2 a3bb e83d 06bd
00000010: cebd 503d 42be 8fbd a513 c2bc b7b9 4f3d
00000020: 4113 b03b d44a f03c 7e17 92bc a693 0cbd
00000030: 3862 5b3d aedc 173c 460b 633d ed0e 1dbb
00000040: 05e8 eebc c40f ecbc 7ea1 da3b 4fbe 30bd
00000050: 900a 32bd 952f 71bc cd01 c6bc 87c1 013d
00000060: 9712 82bb a94f 013d 7540 403d 8a24 5ebb
00000070: d99e eb3c b973 27bd e66b 973c f8cc 88bd
00000080: c864 94bb 1488 883c c185 093c a4c7 05bd
00000090: 54dd 853d 8f68 35bb 4143 34bd 9e51 9a3b
000000a0: f044 48bd d8cf 0cbd 1210 023c 7dd9 663d
000000b0: f0a9 433d 9c4b bb3c ff06 a13c 2b94 5dbd
000000c0: 5016 b73c 71bc 66bc e88e 2b3d 07b3 313c
000000d0: 3c34 1ebd 608a fcbc c82f 85bb d34d 983c
000000e0: e38e 543d ed48 2dbd 88c4 35bd 68a1 b8bc
000000f0: db65 113d a522 1c3d ce26 0ebd 5a61 54bc
00000100: ecf0 51bb b1c7 5fbc 8114 723d dff6 7cbd
00000110: d6af febb edff 263d cd9c bbbc f95a 8bbd
00000120: cca1 663c f873 703d 8879 833d 4c60 bf3c
00000130: 9d45 3ebd c1c2 01bd 0d00 8bbd e567 51bc
00000140: abba 203d 2294 773c a441 5f3d 2b33 c73c
00000150: 097e 493d 96e2 7cb8 4750 123d af75 82bd
00000160: 5e82 61bd 9731 57bd bbec ea3c 589f 8cbb
00000170: 64e3 53bb 0dbe cb3c 8517 a6bc 5822 a4bb
00000180: f9b2 46bc 8b1f 4cbd 92cd 9d3c c119 f63b
00000190: 300c 243d 6cbe 87bc d354 353c 643d 373c
000001a0: 2ff0 cdbc 89f1 08bd f3dd 2e3d 0c9b 18bd
000001b0: f6c3 353c f1c0 84bd 3994 12bd 34cb f5bc
000001c0: be22 2e3d 64ab ba3c 861d 04bd 8f48 41bc
000001d0: 4b25 4abd a650 20bd ac7d 94bc 2add 213c
000001e0: 1b17 47bd a976 473b a73a 323c e167 22bd
000001f0: 7347 a8ba b08d 4abd 55e0 823d 7095 be3c
00000200: 961e 08bd 3c44 fdbc 3e78 45bd 0026 58bd
00000210: d688 5e3d 4de6 153d 83d6 20bd 013b acbc
00000220: 8a48 4b3d b3a7 383d 529d afbc 7671 e73c
00000230: 9c8c 563b 15b2 c8bc bf9d 413d fe25 33bd
00000240: 6005 e23b bf8b 103d f89d f23b 5881 2ebc
00000250: 7040 34bc 983b 1ebd 5bfd 553c a6b9 25bd
00000260: 6524 0d3c f385 22bd a9a8 1a3b 264a 9cbc
00000270: c629 58bd 1531 2c3c f705 f93c 95ac 55bd
00000280: 356c 75bd 03ac 35bb 6146 18bc 3736 2ebb
00000290: 703b dd3b f097 073d 819c 3c3d d917 bebb
000002a0: 7611 303d 711a c23c 56e2 e53c 4b8a 9d3c
000002b0: 292e 5d3d eb7e 82bc 2267 9fbc b8d3 eabb
000002c0: db47 6c3d 62d2 8abd ebff 023d 9577 1e3d
000002d0: 6f99 8bbb e09e 1bbd 8d44 373d d4bd 0cbd
000002e0: 9e6a 7b3d 3deb f93c f3b7 10bd 49c5 f53b
000002f0: e03d b8bc 6a3b 1dbc 5f2f 0dbd 0e7d c03b
00000300: 6684 ca3c bffe 0bbd 05b8 ecbc b64a 463d
00000310: b048 7b3d 3ffd 073d a26e faba 6ba5 c03c
00000320: 31dc 06bd eef8 d4bc d789 263d 6031 abbc
00000330: 885b 40bb 4aec 24bd b5cc b53c 45f6 10bd
00000340: 9237 93bc 0124 3bbd b33c f0ba bbfc ea3b
00000350: 4590 4d3d 1e0e ba3a d505 21bd 8d44 21bd
00000360: d25c 49bd 03e2 52bd a93f 19bd 1d7f 1f3d
00000370: 485c 3bbc 9b1a 1dbc 82c7 523d e7b9 54bd
00000380: e207 603d 5442 fa3c 5826 663d ab02 113d
00000390: 651b 9f3a 11b5 22bd d4af b7bc 6cbf eb3c
000003a0: b471 313d bbe1 233d ead4 3bbc 0a97 203d
000003b0: e60c 1b3d f4a0 45bd a40e cabc ad17 113d
000003c0: 238f 67bd cb4b ae39 bfc6 623d efef 933b
000003d0: 3f23 3ebd 3c94 efbb 79d1 08ba 4919 4c3c
000003e0: 8149 c93c ed0d 4fbd db25 7dbd 1d82 84bd
000003f0: 43d8 ddbc 723d 1e3d efb5 563c 748e 43bd

fc1.bias f4 [256]
-0.04322631 -0.08634316 0.07711234 0.09845464 0.014337421 0.0029617238 -0.10824201 -0.12796861
-0.11350663 -0.09399568 -0.105807655 0.0721731 -0.10987199 0.061002553 0.089265674 -0.0040773586
0.032032043 0.08529748 -0.12087787 0.1179592 0.12519382 0.11933961 -0.0645548 0.07117937
-0.058370434 0.01993306 0.101409346 0.022995017 0.043659903 -0.03750566 -0.06569818 0.10965444
-0.13101661 0.021496488 -0.01582724 -0.04495085 -0.14472616 -0.08179834 -0.08522105 0.019438596
0.04554754 -0.1298313 -0.057397757 -0.13974151 0.090255916 -0.13383752 -0.01491661 -0.019037882
-0.08285222 0.095605634 0.06192544 0.06687188 0.08773295 -0.07523686 0.0555438 0.11793378
-0.03977966 -0.0032516378 0.021360198 -0.14226295 -0.008593601 -0.021079794 -0.10334723 0.111005545
-0.12575853 -0.059003793 0.08247214 0.020994527 0.044913806 -0.0017440438 -0.13310668 -0.10049896
-0.052475784 -0.0932128 -0.08429803 -0.056116555 0.1172379 0.10189839 0.02963239 -0.09677473
-0.08691848 0.12440578 0.006604919 0.012688447 -0.08071962 -0.075803615 0.06480939 -0.013939011
-0.010870537 -0.07728365 -0.10157945 -0.08701263 -0.1255709 0.12292054 0.019280948 0.018859044
0.10220612 0.06506785 -0.019319007 0.08340413 -0.0011123316 -0.14465955 0.10257665 -0.09257343
-0.100570165 -0.03714879 0.028795043 0.09982146 -0.1350198 -0.12893993 -0.09274782 -0.07831054
0.13204119 -0.015158685 0.0933907 0.03558028 0.08023182 -0.068243876 0.057874646 0.044470366
0.028025033 -0.10504445 -0.04752362 0.11997729 -0.028118484 -0.09891289 -0.11975817 -0.03506399
0.059176642 -0.04319685 0.0993372 0.049690876 -0.10823552 -0.003869864 0.12411401 0.07943158
-0.04637992 -0.10310112 0.025880564 0.056285556 -0.034153793 -0.122419216 0.13572592 0.057758678
-0.12934996 0.015804883 -0.025459874 0.11679116 0.06655134 0.034150966 -0.048641395 -0.116921104
0.046027694 0.051819675 -0.002529284 0.120713234 0.07646913 -0.11814546 -0.011511035 -0.064739384
-0.004743211 0.007109904 0.015636843 0.08916759 0.09005263 0.008170071 -0.05673167 -0.07561646
0.06555602 0.040644668 0.11694978 -0.103881374 -0.10698848 -0.08217935 0.06329335 0.10785396
-0.011733338 -0.11785399 0.014357521 -0.11783189 0.07905731 -0.09469062 0.007903358 -0.00058787514
0.06691413 -0.08759854 0.071241446 0.0045966944 0.013350061 -0.09604196 0.11605366 -0.031474434
-0.09086963 -0.036925733 -0.045834858 0.13265696 0.09894703 -0.00027615603 0.12936606 0.0015191549
0.014865965 0.014378222 -0.02177894 -0.107319035 0.038444206 -0.021290118 0.054441966 0.08181831
0.09406627 0.025576886 -0.005023028 -0.06442861 0.1270618 -0.12663178 -0.07945467 0.005576106
0.05838411 0.07721876 -0.12716247 0.043780953 -0.11565494 0.08680865 -0.12446619 0.01389039
0.015500607 -0.035535656 0.06585987 0.089536056 0.038173098 0.023349585 0.14407985 0.12506486
-0.09561633 0.118769094 0.118036404 -0.00198238 0.045398887 -0.041092087 -0.064459406 0.019301064
-0.060125463 0.033337846 0.058585834 0.07469278 -0.0981179 -0.08018783 -0.03021675 0.04878377
-0.058880437 -0.06527056 -0.030456726 0.050572336 0.006856231 -0.04672166 0.020846238 -0.11209457
00000000: 120e 31bd afd4 b0bd 13ed 9d3d 96a2 c93d
00000010: 81e7 6a3c 7b19 423b fdad ddbd 340a 03be
00000020: 2a76 e8bd cf80 c0bd afb1 d8bd 7ecf 933d
00000030: 9104 e1bd d0dd 793d ecd0 b63d 5d9b 85bb
00000040: 0834 033d 72b0 ae3d d18e f7bd 9894 f13d
00000050: cf32 003e 5368 f43d 4f35 84bd 7dc6 913d
00000060: d615 6fbd a84a a33c b4af cf3d 0c60 bc3c
00000070: bad4 323d 899f 19bd c48c 86bd 8292 e03d
00000080: 3829 06be 6719 b03c 21a8 81bc 621e 38bd
00000090: 1833 14be e385 a7bd 6088 aebd b13d 9f3c
000000a0: 0f90 3a3d 7ff2 04be e919 6bbd 6618 0fbe
000000b0: 18d8 b83d b40c 09be cc64 74bc 55f5 9bbc
000000c0: 6dae a9bd e3cc c33d 88a5 7d3d 20f4 883d
000000d0: 55ad b33d c815 9abd e581 633d 4487 f13d
000000e0: ffef 22bd 6e19 55bb 95fb ae3c 61ad 11be
000000f0: 2dcc 0cbc 88af acbc b6a7 d3bd e056 e33d
00000100: d8c6 00be f6ad 71bd 27e7 a83d b7fc ab3c
00000110: 8af7 373d 6698 e4ba 1e4d 08be 66d2 cdbd
00000120: d9f0 56bd 5ae6 bebd 72a4 acbd 79da 65bd
00000130: 6d1a f03d 1ab0 d03d a0bf f23c d431 c6bd
00000140: 5102 b2bd 75c8 fe3d 146e d83b 34e3 4f3c
00000150: 5450 a5bd ed3e 9bbd c9ba 843d 7360 64bc
00000160: 561a 32bc e446 9ebd e308 d0bd ae33 b2bd
00000170: a895 00be c4bd fb3d 14f3 9d3c 487e 9a3c
00000180: 7151 d13d 4b42 853d e542 9ebc c9cf aa3d
00000190: a8cb 91ba a221 14be b513 d23d 2397 bdbd
000001a0: bbf7 cdbd 5429 18bd 95e3 eb3c 326f cc3d
000001b0: a142 0abe d408 04be 92f2 bdbd 4761 a0bd
000001c0: ce35 073e 225c 78bc a043 bf3d a1bc 113d
000001d0: 9550 a43d 72c3 8bbd f70d 6d3d 8f26 363d
000001e0: c194 e53c 8b21 d7bd 21a8 42bd a7b6 f53d
000001f0: bc58 e6bc d792 cabd c543 f5bd 429f 0fbd
00000200: 3563 723d 2eef 30bd 4d71 cb3d a988 4b3d
00000210: 96aa ddbd 8b9d 7dbb 7c2f fe3d 06ad a23d
00000220: dff8 3dbd ae26 d3bd 7a03 d43c af8b 663d
00000230: d9e4 0bbd edb6 fabd bcfb 0a3e 5d94 6c3d
00000240: 5174 04be 3e79 813c 3a91 d0bc 3430 ef3d
00000250: 124c 883d e2e1 0b3d 333c 47bd 5574 efbd
00000260: 8987 3c3d de40 543d 58c2 25bb 8038 f73d
00000270: d99b 9c3d 3ff6 f1bd c898 3cbc 1596 84bd
00000280: f06c 9bbb 33fa e83b d618 803c 7f9d b63d
00000290: 836d b83d c3db 053c 785f 68bd cddc 9abd
000002a0: 3c42 863d 067b 263d 5e83 ef3d c2bf d4bd
000002b0: c71c dbbd a64d a8bd f29f 813d 89e2 dc3d
000002c0: 303d 40bc 6f5d f1bd cf3b 6b3c d951 f1bd
000002d0: cde8 a13d 28ed c1bd 167d 013c a21b 1aba
000002e0: 460a 893d dd66 b3bd 09e7 913d de9f 963b
000002f0: 37ba 5a3c a6b1 c4bd 8bad ed3d 56eb 00bd
00000300: db19 babd 703f 17bd 55bd 3bbd 3ad7 073e
00000310: bea4 ca3d 09c9 90b9 8978 043e 611e c73a
00000320: 6090 733c a292 6b3c bf69 b2bc 15ca dbbd
00000330: ac77 1d3d 9d68 aebc 8afe 5e3d 5c90 a73d
00000340: d1a5 c03d 9e86 d13c 3698 a4bb 26f3 83bd
00000350: 7d1c 023e c3ab 01be 21b9 a2bd c4b7 b63b
00000360: 2d24 6f3d df24 9e3d e136 02be a853 333d
00000370: 7fdc ecbd bcc8 b13d 21e8 febd 8594 633c
00000380: 42f6 7d3c d68d 11bd 8ae1 863d ae5e b73d
00000390: 655b 1c3d a147 bf3c ab89 133e 0111 003e
000003a0: 7fd2 c3bd 363d f33d 12bd f13d d1ea 01bb
000003b0: 2ff4 393d 2d50 28bd 4b03 84bd 441d 9e3c
000003c0: 1e46 76bd 448d 083d b3f7 6f3d 87f8 983d
000003d0: 0af2 c8bd 8439 a4bd 1e89 f7bc 7ed1 473d
000003e0: 9d2c 71bd 92ac 85bd 6280 f9bc f024 4f3d
000003f0: 3caa e03b 365f 3fbd bbc5 aa3c d791 e5bd

fc2.weight f4 [128, 256]
-0.039301172 0.022087242 -0.039194383 -0.021721164 -0.048626296 0.003915952 -0.01565808 0.07183577
-0.053512115 0.045897182 0.058648888 -0.056695286 -0.0044932426 0.05214428 -0.034487437 0.048562717
-0.0751409 0.04833082 -0.0055570486 -0.014637377 -0.05198071 -0.078969724 0.032317515 0.07521976
0.06691363 -0.074646726 0.07877489 -0.062348437 0.05523674 -0.0021601105 -0.049699526 0.037134428
0.0063026333 -0.06345176 -0.037235413 -0.048279822 0.058140405 0.027560102 0.02950821 0.036151104
0.011480077 -0.069218025 0.024943614 -0.03907762 -0.058279958 0.08166995 0.054140992 0.031431943
0.0051796488 -0.013915185 -0.058245055 -0.044095997 -0.043267902 -0.06717256 -0.07489524 -0.03368779
0.056345034 0.057570685 -0.0265937 0.073224455 -0.03164855 0.073122256 -0.07675012 -0.08190967
-0.0067106476 0.0004295016 -0.071554616 -0.048904285 0.0071984995 -0.028124737 -0.05705474 0.009588093
-0.018284207 0.061562 -0.029419689 -0.07603907 -0.017462077 0.009338705 0.05133373 0.07680333
-0.045279793 -0.09039912 -0.07821282 -0.07989192 -0.06843564 -0.032695793 -0.05459166 0.07727977
0.025603758 -0.03191408 0.0028631093 0.07632411 -0.0103450315 0.010098275 0.046513334 -0.07547535
-0.08676681 0.05465573 -0.05240935 -0.037143495 0.07472482 -0.06895948 0.07149748 -0.03868635
-7.475993e-05 -0.039067544 0.0787697 0.044107 0.062149893 0.05315233 -0.0007077005 0.063377805
-0.08025021 -0.025031706 -0.003562579 -0.08292351 0.001979056 0.056854647 -0.03396067 -0.04380299
-0.028921418 0.06887931 0.060105838 -0.038155373 0.0011194396 -0.00025998722 -0.03813001 -0.0027670318
-0.08231481 0.06880191 -0.019884363 -0.04338366 -0.07530113 0.051571652 -0.0049165133 -0.07089596
-0.023119422 -0.045945074 0.017865129 0.041273016 0.02973429 0.007926528 -0.07488087 0.041693315
0.05212472 -0.004022941 0.023985341 0.03248253 -0.03498425 -0.009386845 0.05413763 -0.055804715
-0.0012320237 -0.08808295 -0.015208743 -0.01263015 0.054455474 0.07234746 -0.012024017 -0.037598707
-0.025009135 0.052805543 0.03101912 0.023894966 0.06448458 -0.06324724 0.0033837915 0.070279
-0.0015360039 -0.020287614 0.0779183 0.06934964 -0.049516544 -0.050887927 -0.06331586 0.019329635
0.0011742905 -0.08124169 -0.04751184 -0.047236566 -0.045453414 -0.038630083 -0.086719245 0.03308461
0.07037141 0.054653883 -0.08996334 0.0016169582 -0.08808718 0.031491067 0.056223657 -0.08165281
-0.04866675 -0.021834813 -0.003976919 0.0598381 -0.007881595 0.035805013 -0.08643802 -0.028334692
-0.049084943 0.05393544 -0.02527643 -0.073399015 0.041844983 -0.0154321585 -0.04656423 0.008638729
0.06463234 -0.060753375 0.042397775 -0.030330809 0.0501403 -0.026236195 -0.017727554 0.0579743
-0.06361141 0.04569034 -0.008425565 0.017068975 -0.08220884 -0.019602647 -0.057199802 0.034133583
-0.0037619928 -0.07150325 -0.00483981 0.072267644 -0.059380263 0.07226804 -0.0434267 0.06963857
0.048149373 -0.08783668 -0.034771085 -0.04710959 0.07459205 -0.06783087 0.039317477 0.033621944
-0.022541469 0.0038548582 0.05824738 -0.07731831 0.0714644 0.064137645 0.022280531 -0.0293408
-0.078005284 -0.012355072 -0.015044406 -0.0074164225 -0.036936466 -0.0313581 -0.0312618 0.07754383
00000000: 44fa 20bd 4ef0 b43c 4a8a 20bd 95f0 b1bc
00000010: 5e2c 47bd 6351 803b 6045 80bc a21e 933d
00000020: 852f 5bbd affe 3b3d d139 703d 5139 68bd
00000030: 0d3c 93bb 3e95 553d b342 0dbd b3e9 463d
00000040: 79e3 99bd 8af6 453d e717 b6bb 9cd1 6fbc
00000050: bae9 54bd e1ba a1bd 5f5f 043d d10c 9a3d
00000060: 030a 893d 62e0 98bd bb54 a13d 1361 7fbd
00000070: eb3f 623d a490 0dbb bb91 4bbd 451a 183d
00000080: 5286 ce3b fff2 81bd 2984 18bd 10c1 45bd
00000090: a224 6e3d b9c5 e13c 34bb f13c 2e13 143d
000000a0: ef16 3c3c 2ec2 8dbd 8d56 cc3c db0f 20bd
000000b0: f7b6 6ebd 9342 a73d f2c2 5d3d c8be 003d
000000c0: 0bba a93b 84fc 63bc 5e92 6ebd 019e 34bd
000000d0: af39 31bd c491 89bd ad62 99bd 35fc 09bd
000000e0: 0dca 663d 3dcf 6b3d 08db d9bc b4f6 953d
000000f0: e9a1 01bd 1fc1 953d 2b2f 9dbd 42c0 a7bd
00000100: fee4 dbbb bb2e e139 3a8b 92bd dc4f 48bd
00000110: 64e1 eb3b d965 e6bc 3bb2 69bd 6017 1d3c
00000120: c3c8 95bc 7028 7c3d 8f01 f1bc 5fba 9bbd
00000130: a10c 8fbc 5e01 193c 5143 523d 104b 9d3d
00000140: 4e77 39bd 2c23 b9bd 0b2e a0bd 609e a3bd
00000150: fc27 8cbd 06ec 05bd 819b 5fbd db44 9e3d
00000160: f9be d13c 57b8 02bd 01a3 3b3b d14f 9c3d
00000170: 357e 29bc 3c73 253c c484 3e3d d292 9abd
00000180: ccb2 b1bd b0de 5f3d 30ab 56bd c723 18bd
00000190: 5409 993d a13a 8dbd 456d 923d 9475 1ebd
000001a0: 6fc8 9cb8 4a05 20bd 0252 a13d 8ba9 343d
000001b0: e390 7e3d 42b6 593d fa84 39ba 39cc 813d
000001c0: 395a a4bd 4b0f cdbc 287a 69bb cdd3 a9bd
000001d0: 0db3 013b 6be0 683d 581a 0bbd c46a 33bd
000001e0: 9cec ecbc 9810 8d3d 8a31 763d cf48 1cbd
000001f0: 29ba 923a e54e 88b9 372e 1cbd 1757 35bb
00000200: ab94 a8bd 04e8 8c3d 88e4 a2bc 11b3 31bd
00000210: 7b37 9abd cc3c 533d b41a a1bb e731 91bd
00000220: f164 bdbc e730 3cbd e459 923c e50d 293d
00000230: 5395 f33c 45de 013c 245b 99bd 9cc6 2a3d
00000240: bb80 553d e0d2 83bb e87c c43c 670c 053d
00000250: a54b 0fbd 48cb 19bc 6bbf 5d3d 7c93 64bd
00000260: db7b a1ba d564 b4bd 172e 79bc b0ee 4ebc
00000270: b40c 5f3d e82a 943d 6200 45bc 1a01 1abd
00000280: f5df ccbc a04a 583d cf1b fe3c 60bf c33c
00000290: 7e10 843d c587 81bd 9ac2 5d3b 70ee 8f3d
000002a0: bd53 c9ba 3632 a6bc a193 9f3d 2f07 8e3d
000002b0: dcd1 4abd dc6f 50bd bfab 81bd 2f59 9e3c
000002c0: a7ea 993a 0b62 a6bd c69b 42bd 217b 41bd
000002d0: 5c2d 3abd 943a 1ebd dc99 b1bd ba83 073d
000002e0: e31e 903d c0dc 5f3d b33e b8bd 1df0 d33a
000002f0: 0d67 b4bd c7fc 003d c74a 663d 9739 a7bd
00000300: c956 47bd ecde b2bc d150 82bb cc18 753d
00000310: ce21 01bc 47a8 123d 6b06 b1bd 281e e8bc
00000320: 4b0d 49bd 68eb 5c3d 8410 cfbc 3952 96bd
00000330: a565 2b3d 2ad7 7cbc 22ba 3ebd 7589 0d3c
00000340: f65d 843d 88d8 78bd 4aa9 2d3d 5178 f8bc
00000350: ea5f 4d3d 4aed d6bc 6039 91bc 7676 6d3d
00000360: b346 82bd cb25 3b3d 620b 0abc 3cd4 8b3c
00000370: 1c5d a8bd bb95 a0bc 574a 6abd a8cf 0b3d
00000380: c48b 76bb 4c70 92bd 4597 9ebb 0f01 943d
00000390: b838 73bd 4401 943d 32e0 31bd ab9e 8e3d
000003a0: 4738 453d b8e3 b3bd 206c 0ebd fcf5 40bd
000003b0: b7c3 983d e9ea 8abd 5d0b 213d 2ab7 093d
000003c0: e3a8 b8bc caa1 7c3b ce94 6e3d 1059 9ebd
000003d0: ed5b 923d 995a 833d a985 b63c 1e5c f0bc
000003e0: 3cc1 9fbd ee6c 4abc d07c 76bc 7605 f3bb
000003f0: b14a 17bd 5a71 00bd 600c 00bd 4dcf 9e3d

fc2.bias f4 [128]
0.04272422 -0.00027453864 -0.04582312 -0.027990617 0.0531574 -0.037444502 0.024003763 0.031260602
0.011241057 -0.05690625 -0.046015944 -0.025678659 0.016638469 -0.06342778 0.05024792 -0.053323515
0.0037231822 0.0331361 -0.056877553 -0.03668956 0.034053035 0.0036643564 0.028001884 -0.015084438
0.023705201 0.0059654107 -0.008089169 -0.060107198 0.00905706 0.032404844 -0.0057439366 -0.048320677
-0.00015194615 -0.011927914 0.052575298 0.04472826 0.025229862 -0.043357354 0.031974133 0.054034874
0.020337438 -0.01649681 0.04598681 -0.02464904 0.011595684 0.012004229 0.042778626 -0.013294883
0.031412117 0.005916136 0.050869863 -0.010547538 -0.019925205 -0.015610034 0.00786461 0.016632067
0.033639036 0.033501968 -0.02841715 0.040951815 -0.0060988963 0.019487046 -0.06549074 0.028568292
-0.05464611 0.057492122 -0.031014925 0.053330123 0.05818625 0.036138017 -0.011281367 0.009004397
-0.009555091 0.009536887 -0.056638494 -0.035070766 0.0522383 0.045888413 -0.07151016 -0.032772806
-0.06530894 -0.00401982 -0.046369113 -0.0135377925 -0.0559951 -0.018172143 -0.07098316 -0.010795358
0.029912192 0.0169356 -0.038789917 -0.023920987 0.015033087 -0.043219913 -0.005016095 0.007504158
0.0006171033 -0.007557078 -0.06730396 0.015333235 -0.020804869 -0.057068948 0.03425491 -0.03512987
0.002128742 0.035193983 -0.0040901112 -0.006834484 0.01312244 -0.025739936 -0.007840888 0.044232458
0.039663155 -0.026598504 0.032410517 -0.03645224 0.05485087 -0.05473743 -0.061954275 0.027516957
-0.009773584 -0.062309626 -0.031071585 0.0063430457 -0.018220764 0.041007187 0.00020040912 -0.05947252
00000000: 97ff 2e3d f4ef 8fb9 06b1 3bbd 944c e5bc
00000010: 93bb 593d 685f 19bd 8aa3 c43c 1e0b 003d
00000020: 692c 383c 8716 69bd 377b 3cbd 0d5c d2bc
00000030: 664d 883c 6de6 81bd c3d0 4d3d c269 5abd
00000040: a200 743b b8b9 073d 70f8 68bd cb47 16bd
00000050: 327b 0b3d b325 703b 3564 e53c b824 77bc
00000060: 6931 c23c 7e79 c33b 6f88 04bc f732 76bd
00000070: 1064 143c f1ba 043d a237 bcbb e7eb 45bd
00000080: bc53 1fb9 4c6d 43bc 3259 573d fb34 373d
00000090: dbae ce3c 7b97 31bd 4ff7 023d ac53 5d3d
000000a0: b39a a63c 5124 87bc aa5c 3c3d c9ec c9bc
000000b0: d3fb 3d3c 63ad 443c a438 2f3d c8d2 59bc
000000c0: fea9 003d 25dc c13b eb5c 503d 95cf 2cbc
000000d0: 2f3a a3bc 3ac1 7fbc 91da 003c f93f 883c
000000e0: 16c9 093d 5c39 093d 15cb e8bc 17bd 273d
000000f0: 40d9 c7bb 4ca3 9f3c 0220 86bd 0d08 ea3c
00000100: 99d4 5fbd dc7c 6b3d 0313 febc b070 5a3d
00000110: b554 6e3d 7505 143d 7cd5 38bc 2e87 133c
00000120: f58c 1cbc 9a40 1c3c c4fd 67bd 5da6 0fbd
00000130: d4f7 553d 7df5 3b3d eb73 92bd c73c 06bd
00000140: b2c0 85bd b2b8 83bb 8aed 3dbd 9ecd 5dbc
00000150: 1e5b 65bd bfdd 94bc 9e5f 91bd 03df 30bc
00000160: 6a0a f53c 87bc 8a3c 2de2 1ebd f2f5 c3bc
00000170: 564d 763c 5d07 31bd 0e5e a4bb 71e5 f53b
00000180: 1ac5 213a 5da1 f7bb a9d6 89bd 4038 7b3c
00000190: f96e aabc 21c1 69bd e04e 0c3d 57e4 0fbd
000001a0: 5d82 0b3b 9127 103d 5706 86bb cff3 dfbb
000001b0: 81ff 563c 8fdc d2bc 1177 00bc 182d 353d
000001c0: d575 223d 1be5 d9bc e4c0 043d f24e 15bd
000001d0: 4eab 603d 5b34 60bd c4c3 7dbd 3e6b e13c
000001e0: 6221 20bc 6138 7fbd d689 febc 53d9 cf3b
000001f0: b643 95bc 27f7 273d ea24 5239 7599 73bd

fc3.weight f4 [1, 128]
0.00037878595 0.000954474 0.00048254424 0.00085996493 -0.0020181735 0.00028168215 -0.0017011821 0.00042501357
-0.0013735681 -0.00013300478 0.00020226682 0.0038854564 -0.0032149781 -0.0011903462 0.0006502422 -0.000979616
-7.990117e-05 0.0010435712 0.001018341 0.0020724132 -0.0025084703 0.0036021417 0.0007734294 -0.0013047185
-3.3478475e-05 0.0025680943 -0.0007775224 -0.001628797 0.0007628235 0.0014361668 -3.965946e-06 -0.00093316694
-0.00070968416 0.0015331756 0.0010472427 -0.0016544042 0.033643484 -0.0007167038 -0.00048461734 -0.00067924603
-4.398159e-05 -0.000595346 0.002129272 0.001017111 0.0042821756 -0.003344709 0.00041943145 -0.0013680467
-0.00042291894 -0.001357988 -0.0014526532 -0.00078967534 0.00030900986 -0.00043945672 -0.003947369 -1.6983127e-05
0.00048330435 0.001890605 0.004671865 5.2219602e-05 -0.00056452304 -0.001642123 -0.00072434376 -0.0028906928
-0.005009371 -0.0025699178 0.0004143673 0.003971008 0.00041265463 -0.00023771667 0.00028348263 -9.644999e-05
-0.0050674705 -0.0032798878 -0.0012962488 -0.00052982365 -0.0017480042 -0.0025731432 0.000995838 -0.002473951
-0.0029189817 -0.00039272502 -3.3241235e-05 -0.00030597654 -0.0018847347 -0.0009114709 -0.0013255613 -2.851518e-05
0.00032982716 -0.002082014 -0.0019269203 -0.0016795348 -0.0016217934 -0.0026598817 -0.0025315313 -0.00017324132
0.0014158452 -0.0031119206 -6.3731946e-05 -0.0002270891 -0.0017402024 0.00024385862 0.0011959614 0.00014112852
-0.00083088485 -0.00053322664 -0.001077756 -0.00050726795 0.0022253802 -0.0030269218 0.00051338936 0.0014105862
0.001704978 -0.0011716823 0.00061914255 0.00012222807 -0.0017514838 -0.0034675547 -0.000843022 0.0015816515
-0.00068167254 0.00046933995 -0.0012455554 -0.0025230914 -0.0022121253 -0.0013800955 0.0012439034 0.00027404985
00000000: ca97 c639 aa35 7a3a fefd fc39 456f 613a
00000010: 5543 04bb bdae 9339 33fa deba 5bd4 de39
00000020: 4c09 b4ba 3377 0bb9 9617 5439 24a3 7e3b
00000030: 62b2 52bb 6405 9cba 0475 2a3a 7566 80ba
00000040: 9d90 a7b8 70c8 883a db79 853a 53d1 073b
00000050: 2665 24bb e911 6c3b f8bf 4a3a 1703 abba
00000060: 3d6b 0cb8 794d 283b a5d2 4bba 5c7d d5ba
00000070: 38f8 473a c33d bc3a 3713 85b6 c69f 74ba
00000080: 190a 3aba d6f4 c83a a243 893a 98d8 d8ba
00000090: c0cd 093d 2ee1 3bba 3d14 feb9 6e0f 32ba
000000a0: df78 38b8 fe10 1cba 428b 0b3b 9550 853a
000000b0: 7e51 8c3b e832 5bbb 23e7 db39 0850 b3ba
000000c0: 38bb ddb9 84fe b1ba f466 beba 3702 4fba
000000d0: 9a02 a239 e266 e6b9 ee58 81bb fd76 8eb7
000000e0: 0364 fd39 2dce f73a 7216 993b 5f06 5b38
000000f0: 80fc 13ba 813c d7ba e3e1 3dba c771 3dbb
00000100: a625 a4bb 116c 28bb 703f d939 3b1f 823b
00000110: 9159 d839 9543 79b9 65a0 9439 3245 cab8
00000120: 060d a6bb 63f3 56bb e4e6 a9ba dde3 0aba
00000130: 4a1d e5ba 2ea2 28bb c786 823a 0322 22bb
00000140: 634c 3fbb a9e6 cdb9 816c 0bb8 7a6b a0b9
00000150: 3409 f7ba c7ef 6eba 75be adba e233 efb7
00000160: a7ec ac39 6672 08bb b790 fcba d623 dcba
00000170: 5b92 d4ba 6951 2ebb 0ce8 25bb 1da8 35b9
00000180: e293 b93a 5df1 4bbb d4a7 85b8 c41e 6eb9
00000190: 8117 e4ba 4db4 7f39 cec1 9c3a e6fb 1339
000001a0: bdcf 59ba 3cc8 0bba 7e43 8dba 2dfa 04ba
000001b0: afd7 113b 525f 46bb fa94 063a 6be3 b83a
000001c0: 9279 df3a 2293 99ba f44d 223a 592a 0039
000001d0: 0b92 e5ba ea3f 63bb 40fe 5cba 6b4f cf3a
000001e0: 45b2 32ba be11 f639 e741 a3ba 735a 25bb
000001f0: 4ef9 10bb 52e4 b4ba 790a a33a 59ae 8f39
