checkpoint_actor_2_last.pth (torch_old, 159212 bytes, 6 tensors)

fc1.weight f4 [256, 24]
00000000: 17c9 40be c36c f7bd 09be b03d 228d 063d
00000010: 25b4 e23c a036 f9bd 1ec6 9e3d 150a 993d
00000020: 6a84 90bb e377 3ebd 4812 bebd c205 8cbe
00000030: 238a debd f1a1 6cbd b1a2 7ebd 9a60 83be
00000040: 881d dc3a 414b 93bd 68fe 25bd 66a7 0dbe
00000050: 361d d0bc e4ae d8bb 906d 36bd 2a9b 20be
00000060: 5b18 16bd b97e a4be 607d 603e aae1 763c
00000070: 24d1 b7bc 01e6 fd3d 84ac 143e f932 6d3d
00000080: 2a97 9f3d 5531 20be 5ba7 733e c28d adbd
00000090: 342c 2dbd 7f3f 0ebd 2068 263e 61b5 e3bd
000000a0: 8c7b a33c b212 4e3b 1160 1e3d a856 423e
000000b0: 9af1 3b3c b096 a4bd a823 b93d 3d4b 413e
000000c0: 10ae 27bd 1164 8ebd 3e58 4fbe 3caf b8bb
000000d0: b7ad 033d 6115 cfbc 01ab 32be e94e 563c
000000e0: ca89 593e 9ef0 b03d a5d2 043e 42cd 72be
000000f0: f76a 033d 81a0 efbd fc9f cf3d 9b50 9fbe
00000100: b819 8abc 5b14 3fbd cf79 92bd 3a23 1cbe
00000110: db6d 7e3d a745 453d 038f 5c3b 22e9 04be
00000120: 5deb df3c d17b c4be 8d0a 2b3e a251 6fbd
00000130: 6aec 06be 5453 9a3e 5fc6 de3d dc86 50bd
00000140: ad74 21bc d4ea 7abe 8a34 6b3d 7254 02be
00000150: 5b48 34be cdde 413e 8d79 903d e3a6 3ebe
00000160: b054 1dbd 4365 a6be 4116 e1bd 33ab f1bd
00000170: 7ec2 61be 46b0 883e c4d3 56bd 5fe9 dabd
00000180: fb1d 01be 25eb 02be d35a 123c 04cb 59bc
00000190: 5e4b c33e 71dc 573e 37fc 783d e51f 8bbc
000001a0: 3ae1 903d 7060 47bd 49f5 83b9 ce2a 093e
000001b0: 8307 5a3d bdbc 35bd 4583 0f3d ccf8 c13d
000001c0: e4f6 b2bc d468 c83b fcf2 b6bd 414f 9ebd
000001d0: 7e46 ca3d f857 a63c 3ca3 d3bd 1b07 b8bc
000001e0: 02e6 71bc 7c0a 6bbc 3c1e 16be a2ec f63d
000001f0: efb9 76be bbc2 98bc e176 bbbd 0a1d 683d
00000200: b958 7bbd 6e32 a0bc e238 523d 5221 35bd
00000210: bbc2 50be 6798 303d 90a2 a83d 59d6 e9bd
00000220: 2727 acbb 2238 f3bc 53d2 3b3c 2b16 b03e
00000230: d888 b1bd 3ead 2d3d 2871 10bd 352d a73e
00000240: 0bcd 30be 397f b2bd f5a8 1fbe c371 ae3e
00000250: 0be9 a2bd f7ea 88bd ef9f c8bd 3de5 c03e
00000260: cef5 f7bc ac19 c5bd 1690 86bd 29d8 163e
00000270: 6d25 08be 80b6 7fbd beca a0bd dfd9 f23d
00000280: fc4e 003d 6521 afbd 8978 7abd ef71 0d3e
00000290: a9a5 0dbe 78ca a83d 2841 a9bd f470 bf3d
000002a0: a9f9 9cbb b3f5 69be 3495 003e 377a df3d
000002b0: 68b6 dcbc 387f 023d a62b 623e 3d58 d83c
000002c0: b894 c23d c5c8 f4bd 5dd5 ac3d fa6f ee3d
000002d0: 7690 56bd 5c28 88bb e596 bc3d 5b58 4b3d
000002e0: 3a63 663d f25e 423d fa52 073e 1cc2 683e
000002f0: 9bd1 a0bc 2596 44bd 50b4 da3c 97d5 a63e
00000300: 42db d83c fc9f adbd 79e6 4e3e 5157 953d
00000310: 50fc 18be 758f 6b3e ccd5 063e 63e6 193e
00000320: 023f 773c 8a73 41bd a1d2 ca3a 54ce 2e3d
00000330: b643 173c 05a6 9c3d fc7a 933d b91f c23d
00000340: ccd9 973c 7454 b43d 09e8 bcbb dadd d93d
00000350: 8899 883d 088f 67bd 495b 573d 46d4 153e
00000360: a837 f3bd 1167 32be 5bf1 5fbd 1b62 fbbd
00000370: 5c63 58be ae1b 7b3e dd19 fabc 6fe0 ebbd
00000380: a4b0 04bd 8790 f4bd f60b e4bc d82e 7bbd
00000390: 63c6 d6bd 8575 283d 468a 2d3d 46a1 2cbe
000003a0: db2c d3ba 1028 113d 1ccf f53c 782d 763e
000003b0: 94c5 33bd f166 b3bd 1ca6 0d3d 7ef3 493e
000003c0: e25a 433d 4a25 523e 94a2 48be 7a77 debd
000003d0: 5070 36bc ddd1 133e c997 3cbe 6862 23be
000003e0: a759 98bb e609 2a3e 905d 4abd 6ae5 b0be
000003f0: 8359 983d f2fd cb3d 3b5a 24bc e319 cfbe
-0.1882671 -0.120812915 0.08629996 0.03284944 0.02767379 -0.12168622 0.077526316 0.07472626
-0.0044103162 -0.04650105 -0.092808306 -0.27348143 -0.10866191 -0.057771627 -0.062166873 -0.2565964
0.0016793469 -0.07192088 -0.040525824 -0.13833389 -0.025404554 -0.0066126455 -0.04453808 -0.1568419
-0.03664432 -0.32127932 0.21922827 0.015068451 -0.022438593 0.123973854 0.14518934 0.05790994
0.07792504 -0.15643819 0.2379431 -0.08474304 -0.042278484 -0.034728523 0.16250658 -0.1111858
0.019956373 0.0031444249 0.038665835 0.18978369 0.0114711765 -0.08036554 0.09040004 0.18876357
-0.040937483 -0.0695268 -0.20248505 -0.005636124 0.03214809 -0.025278749 -0.17448045 0.013080337
0.21243969 0.08639644 0.1297098 -0.23711112 0.03208443 -0.117005356 0.101379365 -0.31116185
-0.016857967 -0.046650272 -0.071521394 -0.15247813 0.062116485 0.04816213 0.0033654578 -0.12979558
0.02733391 -0.38375714 0.16703244 -0.05842746 -0.13176122 0.301417 0.1087768 -0.050909862
-0.009854478 -0.24503642 0.057423152 -0.12727526 -0.17605726 0.18932648 0.07054434 -0.1861835
-0.038410842 -0.32499132 -0.10990573 -0.11800232 -0.22046849 0.26696986 -0.05244805 -0.10689043
-0.12609093 -0.12785013 0.008932787 -0.013293032 0.38143438 0.21080185 0.060787406 -0.016982982
0.070742086 -0.048675954 -0.0002516902 0.13395235 0.05322982 -0.044369448 0.035037298 0.09471282
-0.021846242 0.006116012 -0.08933064 -0.0772996 0.098767266 0.020305619 -0.10333869 -0.022464326
-0.014764311 -0.014345761 -0.14659971 0.12056853 -0.24094366 -0.018647542 -0.09153534 0.05666832
-0.06136391 -0.019555297 0.05132378 -0.04422123 -0.20386784 0.043114092 0.08234131 -0.11417837
-0.0052536908 -0.029689852 0.011463719 0.34391913 -0.08668679 0.042401545 -0.035264164 0.32651678
-0.17265718 -0.08715672 -0.15591796 0.34071168 -0.07954606 -0.06685441 -0.0979613 0.37674895
-0.030268576 -0.09624037 -0.06570451 0.14730896 -0.13295527 -0.062429905 -0.0785117 0.11857962
0.031325325 -0.085512914 -0.061150108 0.13812993 -0.13832726 0.08241743 -0.08264381 0.09347716
-0.004790504 -0.22847633 0.12556916 0.109119825 -0.026942447 0.031859607 0.22086963 0.026409263
0.09501022 -0.11952356 0.08439133 0.116424516 -0.052383862 -0.004155202 0.09208468 0.04964481
0.056246974 0.04745383 0.13215247 0.22730297 -0.019631198 -0.04799475 0.026697308 0.3258483
0.026471738 -0.0847778 0.20205106 0.07292045 -0.1494 0.23003943 0.13167495 0.15029292
0.015090706 -0.047229327 0.0015474149 0.04267724 0.009232452 0.07648853 0.07201192 0.09478707
0.01853647 0.08805171 -0.0057649654 0.10638018 0.06669909 -0.05653289 0.05257729 0.14631757
-0.1187585 -0.17422129 -0.054673534 -0.122745715 -0.21131653 0.24522278 -0.03052991 -0.11517417
-0.03239502 -0.11941629 -0.027837735 -0.06132397 -0.10487058 0.0411277 0.042368196 -0.16858396
-0.001611139 0.035438597 0.030005984 0.24040782 -0.043889597 -0.08759869 0.034582242 0.19721791
0.047694094 0.20522037 -0.19593269 -0.10862632 -0.011135176 0.14435525 -0.18417276 -0.15955508
-0.0046493593 0.16605338 -0.049405634 -0.3455003 0.07438948 0.099605456 -0.010031278 -0.40449437

fc1.bias f4 [256]
00000000: 1eb7 383e 8bca 2e3e d450 44bd a631 633e
00000010: a9ea 45be ee9a 373e 1fb4 ae3d 602c af3d
00000020: 0564 b93d 30fe ef3d a8db e93d 7cea 1ebe
00000030: 7c18 8f3d f2f7 6bbe e562 943c 9235 b7bd
00000040: f58b 11be 0fcf a3bb 492b 143c 2457 02be
00000050: 52ee f3bd 5140 073e 2051 4b3d 16a7 433e
00000060: 682b 133e a886 ee3d 541b 5ebe 5638 843d
00000070: fdf2 223e 2c39 44bd 4216 e8bd f12b 823d
00000080: 0f9c dcbd c503 00be c8fc 5ebd 69c4 e03b
00000090: 2a5b 1abe ee4e 003e 0f99 3abe 08b5 38be
000000a0: 2d80 14be 2da4 81bd 895c c73d 3a6e 99bc
000000b0: 94e2 2cbe f2c6 b3bc 66a8 3a3e 5f78 03bd
000000c0: ed5e 5e3d 2969 dbbc 7c09 15be 1f5d cabd
000000d0: 5c1c f33d 6915 11be 7000 a4bb 4dad 5e3e
000000e0: 55c9 1f3d d6f1 093e 28c1 2c3e 36ca e9bd
000000f0: c3d5 713d ff24 253e 3425 54be 3447 0c3d
00000100: 30c7 6ebb 95d9 26be 981d 27be 1a50 3e3d
00000110: 5801 05be 62d9 c73d c1fc 73bc 5779 c4bb
00000120: cf82 2dbe 23d8 903d e136 b4bd 1fca 443e
00000130: 41aa 11bc df3c 0ebe fb73 b83d 5814 653e
00000140: 4c29 38be a226 b4bd 50d1 04be 12a4 01be
00000150: 9b49 413d 9788 1bbe d1c0 933d 97ce 11be
00000160: 7ef9 0ebe 20f5 963d 25cb cd3d 3b89 e43c
00000170: 3d28 f8bd c63e 0b3e 999c 16be 00fa 213e
00000180: 8501 773e e4ea c13d 157f 21bc 5faf f8bd
00000190: a2b9 8e3d 84ad 503e 36c4 22be 5bd9 0d3e
000001a0: 8222 32be c0ac 5c3d deb1 fe3d f750 4abd
000001b0: fcb4 aabd 4154 f9bd 62bb efbc 7a60 f2bd
000001c0: e598 c6bd c654 4dbe e7fe 413e 2f2a 85bd
000001d0: 8db8 9ebd d5b0 b73d 5f95 873d e218 4d3e
000001e0: 2f2b 093e f295 523e 79a4 d9bd 0395 c33d
000001f0: f037 8a3d b4f4 70be 3945 2c3e 7f0c 043d
00000200: b035 2d3e 2659 273e b2e9 9d3d 04e5 cfbd
00000210: 5565 0e3e bd40 23bc c29f 06be 2004 e23d
00000220: 4806 71bc 19be ef3c 49af e53d 06db 363e
00000230: 43f3 dabb 2421 90ba 25db 483d 7d69 e43d
00000240: b403 3d3d d80d ae3d 8122 b7bd 60e4 c7bc
00000250: 1469 9bbd c373 0f3e 5242 363e 0fd1 c4bd
00000260: 3445 223e 3d2c 083e 68b2 d73d 04c1 753d
00000270: c968 8f3c 4539 553e 355c fc3d b08f cf3c
00000280: 68d9 613d c5b8 9bbb f6af edbd 3576 163e
00000290: a092 cf3d da90 43be eb85 c7bd 024d 4ebc
000002a0: 11ec fabd 7cf5 9dbd 97e4 5e3e f5d0 e53d
000002b0: 5ce6 45bd b198 0fbe a98e e33d 0bb0 1dbe
000002c0: 1829 2cbd 41e9 a4bd 281b e1bd 3440 0c3e
000002d0: ea63 0c3e 95b9 10bd 8f83 0c3e 0141 edbd
000002e0: c1a9 43be e5aa fa3c fe24 f6bc d1d1 f93d
000002f0: 6083 013e cd21 f5bd 55f6 083d 2b92 8f3d
00000300: bf2e 95bc 8786 893c 3f72 473d 441d 31be
00000310: 4c99 99bd 7c9f 14be 7168 72be e866 073e
00000320: c3a4 d9bd 2df7 e4bd 2488 6d3e 9056 ecbd
00000330: 4779 89bd 3d2f d93d 1cd0 383e c064 cc3d
00000340: 2758 8f3d 5d6c 4abd 542a 433e 2a65 3d3e
00000350: 5e8d 49bd bbcc a9bd b1c9 e4bd becd 0f3d
00000360: f428 0bbe b06d 05be 5aa2 39be 9950 04bc
00000370: 85b9 eebb 94b0 123e f5df 1d3c 94c5 dbbd
00000380: 9761 febd 02ec b8bd ac45 62bc 3909 223e
00000390: 451b b5bd c646 81bc e381 25be 69b5 89bd
000003a0: dee5 9b3d 1dc6 d8bd 16de ae3d ee32 f8bb
000003b0: 1a4d 53be 679b 1f3e 10de e0bd c288 303e
000003c0: aaaa aebd c996 423e 066c 12be b381 9ebd
000003d0: 4c4a 433e 8880 7c3c 2cea 4dbd 7f47 1d3e
000003e0: 235b e1bd 70fa 173e acd6 6ebd 987c ed3d
000003f0: 7c07 103e 0909 233e a9ce a1bd 4c27 8cbb
0.18038604 0.17069452 -0.047928646 0.22186908 -0.19327797 0.17930195 0.08530449 0.08553386
0.0905228 0.11718404 0.11418849 -0.15519136 0.06987092 -0.23043802 0.018113563 -0.089457646
-0.14213546 -0.0049990485 0.009043523 -0.12728554 -0.1191069 0.13208129 0.049637914 0.19106707
0.14372027 0.116467774 -0.21690112 0.06456058 0.15913005 -0.047906086 -0.1133237 0.063560374
-0.10771953 -0.12501438 -0.05444029 0.0068593514 -0.15073839 0.1253011 -0.1822245 -0.18037808
-0.1450202 -0.06330142 0.097344466 -0.018729318 -0.16883308 -0.02194545 0.18228301 -0.032097217
0.054289747 -0.026783543 -0.14554399 -0.09881043 0.118706435 -0.14168324 -0.005004935 0.21745797
0.039010365 0.1347116 0.16870558 -0.11415522 0.05904175 0.16127394 -0.20717317 0.034247592
-0.0036434643 -0.16293938 -0.16319883 0.04646311 -0.12988794 0.09758259 -0.014891804 -0.00599591
-0.16944431 0.07072475 -0.0879953 0.19217728 -0.008890689 -0.13890408 0.090064965 0.22371042
-0.17984504 -0.08796431 -0.12970471 -0.12660244 0.047189336 -0.15188824 0.07214511 -0.14238964
-0.13962361 0.07370973 0.10048512 0.027897468 -0.1211705 0.13598165 -0.14708175 0.15818024
0.24121673 0.0946863 -0.009856959 -0.121428244 0.069690004 0.20378691 -0.15895161 0.13852446
-0.17395976 0.053875685 0.12436269 -0.04939362 -0.08335301 -0.12174273 -0.029264156 -0.11834808
-0.09697131 -0.2005187 0.18944894 -0.065021865 -0.07750044 0.08969275 0.06620287 0.20029023
0.1339538 0.20565012 -0.10627074 0.09549906 0.067489505 -0.23530847 0.16823281 0.03223848
0.16915011 0.16342601 0.077105895 -0.10151103 0.13905843 -0.009964165 -0.1314688 0.11035943
-0.01471097 0.02926545 0.112150736 0.17856988 -0.006681831 -0.0010996205 0.049037118 0.11152933
0.04614611 0.08498734 -0.08942128 -0.02440089 -0.075884014 0.14009003 0.17798737 -0.09610187
0.15846711 0.13298126 0.10532075 0.059998527 0.01750602 0.20822628 0.123222746 0.02533707
0.055138975 -0.004752251 -0.116058275 0.1469353 0.101353884 -0.19098225 -0.0974234 -0.012591602
-0.12252057 -0.07712838 0.21766888 0.11221496 -0.04831539 -0.14023091 0.11111195 -0.15399186
-0.042031378 -0.08052302 -0.10991508 0.13696367 0.13709989 -0.035333235 0.1372206 -0.11584664
-0.19107725 0.030599067 -0.030046936 0.121982224 0.12647772 -0.119693376 0.033438046 0.07010301
-0.018210767 0.01678778 0.048692938 -0.1729632 -0.07499942 -0.14513963 -0.23672654 0.1322285
-0.10627129 -0.111799575 0.23196465 -0.11539948 -0.06712585 0.10604713 0.18048137 0.09980154
0.069992356 -0.04941975 0.19059116 0.18495622 -0.049207084 -0.08291002 -0.11171282 0.03510832
-0.13589841 -0.13030124 -0.18128338 -0.008075857 -0.0072852992 0.14325172 0.009635915 -0.107310444
-0.124209575 -0.0902939 -0.013810556 0.1582383 -0.08843092 -0.015780818 -0.16162829 -0.06724054
0.07612203 -0.10584662 0.08538453 -0.0075744307 -0.2063488 0.15586625 -0.10979855 0.17239669
-0.08528645 0.19002832 -0.1429902 -0.07739582 0.19071311 0.015411504 -0.05027215 0.15359305
-0.11003711 0.14841628 -0.058310196 0.1159603 0.14065355 0.15921415 -0.079007454 -0.0042771455

fc2.weight f4 [128, 256]
00000000: b478 58be fae3 fcbd 355e 4e3c 00bb ecbd
00000010: 0d4b 50bd c5f4 753d 8a84 cdbd 64c6 ccbd
00000020: 61de 97bb 97e6 2f3e 2be2 c33c 51a7 043d
00000030: a515 6abd e1fa f33c eda0 1e3e bacd 61bd
00000040: cf5d a4bd e1db 033e f475 f7bc 556d 47ba
00000050: dd47 603d 3b44 efbc 67c6 40be ceed c83d
00000060: 8117 98be 2b08 563e 0992 283d 961c 7ebd
00000070: e999 0bbd b2c6 073e b91f ad3c 9818 2e3b
00000080: a5ed 82bd 2161 f3ba 2d09 dabb da66 23bd
00000090: 3a18 3bbd 26e3 123e dc0c 243e 8652 0ebe
000000a0: eb5c 623e 86cb 4f3e 224d d73d 48ea fabd
000000b0: ef09 283e ae43 1c3e 59fe 0f3e 5d42 94bd
000000c0: af0c a9be 4b52 d03d 9529 033e 1ad3 dd3b
000000d0: 69e9 b0bd 1118 363d 1fa6 c5bd e27b 2ebd
000000e0: 6440 423e 2983 a03d 76f5 c8bd 9bf7 423d
000000f0: 17d8 d73b f709 b23d e94c 74bd df42 56bd
00000100: d6bb 24be 37ba 5c3e 2d8a fd3d f782 f73d
00000110: 69db 343d d3a6 21bd c74e 54be 581b 03be
00000120: 94db 5c3e da42 a73d 35cf 93be 1180 b7bd
00000130: 3439 23bd 2a11 12bd 10f7 1c3e 3748 093e
00000140: de33 06be 82ea 2bbe 909c 963d fb6f 823d
00000150: 4033 c4bd 1721 e63b 8a14 e43c 93ac 7b3d
00000160: 8e5a 683e cc43 01be 6559 bdbd a815 663e
00000170: 7f02 983c bbee 0abd f52d 8fbd 037d b9bc
00000180: d002 bdbe a8a8 54be 8672 ee3d d057 9ebd
00000190: 0165 81be 0be9 05be 1c79 24bc 6ee3 cc3d
000001a0: 145d 953e 4a01 98bd b8dc 763d cba1 073e
000001b0: 7205 5cbd b605 233d 6c8b 9bbd cb9f c03d
000001c0: 6116 dd3a c776 adbc cc00 193e ccbd efbd
000001d0: fd30 4cbe 594c e9bd da79 cf3d 71fd ad3d
000001e0: 2d2b 093d 1792 523d 7dbf 59bc 1eb8 1dbe
000001f0: 014e cabd d33f 1d3e 3d0a acbc d803 663d
00000200: 5424 023e 63fd e639 207c 453d a7d6 5f3d
00000210: 2655 16be 821c b63d b998 233e 15cd c93d
00000220: 938c e03d defe 6abd 91b3 093e ca71 acbd
00000230: 3b4f 59bd bce6 8fbd 5441 a03b 7aef 0fbe
00000240: 3c3d 303c 24f3 233d 129b 213c f27a 2a3e
00000250: 7d27 673d 104a 1fbe e140 c53d b68d f4ba
00000260: 6b37 91bb a8d4 433e 0f6c 9dbd 23f2 1fbd
00000270: 0247 e43d d214 6e3c 072c 25be 8f44 5d3a
00000280: c8ec 93bd 5ce8 8b3c 24c8 96bd f40e e43d
00000290: 618e 033e d85f 403e f15d ba3d 2e03 60bd
000002a0: 248c aabc 0043 1dbe 257a d5bd 1156 9638
000002b0: 76c0 58bd 6e1c 2a3c 7ead a23d 3176 183e
000002c0: f77b 33bb 3ddb f2bc 83de 0fbe 4eae 99bd
000002d0: 1d2b c53c fd7a 58be 4110 1d3d 0183 153e
000002e0: 528b d33d b7d9 ec3d f0d2 e03d 5e53 8a3d
000002f0: 8e54 dcbd a362 ff3d 9419 563e b3d7 863d
00000300: 3934 febc 0329 a1be e831 d13d 49ab 193e
00000310: 9ad5 c43c 16a6 85bd 1a68 ac3d fbfe 6c3d
00000320: da81 363e 3615 ec3d d3ca d83d 3052 24bb
00000330: ac0d 463d 9f2f e93d 1cdf 9abe 8fd2 a6bd
00000340: 9cd9 8a3d 7853 8e3d dfb0 873d 3e53 443d
00000350: 130e a03c 8b45 de3d 72a3 2d3e 4a2b a23d
00000360: 8c80 f8bd 025b b53d 69dd f4bd da8d 603e
00000370: 689b 153e 2e1f 20be e952 8fbd c985 2d3a
00000380: c852 f33d a279 eabc 1b03 023e 64cb d53d
00000390: 7584 4e3d 573a c1bd 6e1a d83c 0328 1e3d
000003a0: 7fdc a6be 331b 393d 776d a2bd 5e02 0e3d
000003b0: e666 5e3e ad93 f23c 5fa7 033e 9173 1ebd
000003c0: a3d4 5f3d a5bc 4abe a19a df3a 944c e03d
000003d0: 52b2 c73d 7852 593e 2f5e da3d 7384 37be
000003e0: 79d5 91be b91c d7bd 58bd 1d3d ed63 b0bd
000003f0: 4b0e 4fbe 37a5 c73d 6cbd ef3d 9b66 05be
-0.21139795 -0.123481706 0.012595703 -0.11559105 -0.050852824 0.060047884 -0.100350454 -0.099987775
-0.004634664 0.17177807 0.023911556 0.032386128 -0.057149548 0.029782714 0.15491076 -0.055127837
-0.08025705 0.12876846 -0.030207612 -0.00076075393 0.054756034 -0.02920734 -0.18825684 0.09810983
-0.29705432 0.20901553 0.041154895 -0.06203898 -0.034082327 0.1325939 0.02113329 0.0026564952
-0.06392983 -0.0018568375 -0.006653926 -0.03989301 -0.0456774 0.14344463 0.1602053 -0.13898668
0.22105758 0.20292482 0.10512759 -0.12251717 0.1641004 0.15260193 0.1406187 -0.0723922
-0.3301749 0.10171946 0.12808831 0.00676955 -0.086382695 0.044456545 -0.09650826 -0.042598613
0.18969876 0.07837517 -0.09812443 0.047599416 0.006587039 0.08693307 -0.05964366 -0.052309867
-0.16087279 0.2155541 0.123798706 0.120855264 0.04415456 -0.039465737 -0.20733176 -0.128034
0.21568137 0.08167048 -0.28869024 -0.089599736 -0.039849475 -0.0356609 0.15328622 0.13406454
-0.13105723 -0.16788676 0.07354081 0.06369015 -0.09580088 0.0070229876 0.027841825 0.061443876
0.22690794 -0.12623519 -0.09245566 0.22469199 0.018555878 -0.033919077 -0.069911875 -0.022642618
-0.36916208 -0.20767462 0.11642937 -0.07731593 -0.25272372 -0.1307718 -0.01003864 0.10004316
0.29172575 -0.07422121 0.060269088 0.13245313 -0.05371613 0.03980037 -0.07594952 0.09405478
0.0016867631 -0.021174802 0.1494171 -0.11706123 -0.19940563 -0.11391515 0.10130663 0.08495606
0.03348844 0.051408853 -0.013290283 -0.15402266 -0.09878159 0.15356378 -0.021000976 0.05615601
0.1270917 0.00044057806 0.048214078 0.054648068 -0.14680919 0.08892156 0.15976228 0.098535694
0.109643124 -0.057371967 0.13447405 -0.08420141 -0.053054076 -0.07026431 0.0048906 -0.14056197
0.010756787 0.0400268 0.009863632 0.16648462 0.056434143 -0.15555596 0.09631515 -0.0018657956
-0.004431655 0.1912409 -0.07686626 -0.03904928 0.11146356 0.014531331 -0.16130076 0.0008440697
-0.07222897 0.017078571 -0.073623925 0.111356646 0.12847282 0.18786561 0.09099949 -0.054690532
-0.020818777 -0.1535759 -0.10423688 7.1685885e-05 -0.05291792 0.010382755 0.07943247 0.14888836
-0.0027387121 -0.029645557 -0.14049725 -0.07503949 0.02406841 -0.21140666 0.03834558 0.14600755
0.103293076 0.11564963 0.10977733 0.06754182 -0.10758315 0.12469985 0.20908195 0.0658411
-0.031030761 -0.31476602 0.10214597 0.15006746 0.024027634 -0.06525819 0.08418293 0.057860356
0.17822972 0.11527483 0.10585561 -0.0025073402 0.048352882 0.11386036 -0.30248344 -0.081456296
0.06779787 0.06949514 0.06625532 0.04793095 0.019537961 0.10853108 0.1695688 0.07918413
-0.12133893 0.08855249 -0.11956293 0.21929112 0.14610064 -0.15636894 -0.06998236 0.0006619362
0.11881024 -0.028622452 0.12696497 0.10439184 0.05041929 -0.094349556 0.02637979 0.038612377
-0.325901 0.045191955 -0.07931035 0.034670226 0.2171894 0.029611433 0.12856816 -0.03868443
0.054646146 -0.19798525 0.0017059633 0.10952106 0.09750809 0.21222866 0.10662495 -0.17921619
-0.2848318 -0.10503525 0.03851065 -0.08612809 -0.20220296 0.09748309 0.11706051 -0.13027422

fc2.bias f4 [128]
00000000: 1753 edbd 406d b63c 3425 abbd eca5 eebd
00000010: 1d29 8abc f512 b93d 01ee 8c3d 4f81 a8bd
00000020: 9dd5 26bd 6760 26bd 3c68 103d 1c6c e3bb
00000030: 2dfe cd3c 431a 1f3c 9044 86bd a956 963d
00000040: f77a 95bd 0d4a fc3a d40d db3b 3f2d 22bd
00000050: 5841 5d3d 8d89 cebd 5f86 3abd e906 fe3d
00000060: 8dc5 87bd eadc a2bd 11bb 7ebb b515 0ebd
00000070: be4a c6bd 3c8d 013e 2b1c 81bd 5b60 923d
00000080: 79fd b63d 9424 acbc 7a62 6e3d 1ccf 9e3d
00000090: 587b 43bd 9b89 0ab9 9731 89bb 7ec5 85bd
000000a0: 9da6 8c3d 5ee8 833d ac37 a0bc c5a9 da3c
000000b0: 58d1 3fbd 6fff 3abd 2768 e4bc 3eb0 77bd
000000c0: 59bf 6c3d beed 4abd 29a4 2c3c a7c7 c73d
000000d0: a1fa 213c 543c 0f3c f559 da3b 20f2 0d3d
000000e0: d540 69bd de42 c13c e37d 0dbd abe2 f93c
000000f0: b96a 733d b0c4 8dbd c9c0 893d ab5e c6bd
00000100: a1d9 9e3d 38ac 563d 4d9b 88bb 745b 0dbd
00000110: dc37 61bd dd10 0fbd 27d8 9cbc 2d5a 94bd
00000120: 852f 973d 2e43 eebd 2d8e 8b3c 72ea 153d
00000130: 47a2 acba e5f4 20bd 24e3 243e c6e4 e3bd
00000140: a49b ae3d 4601 953b 5df0 e3bc 8368 5dbc
00000150: 5d2d b13c ad6b 263c 0291 85bd 1057 e83c
00000160: ba82 cf3c ed80 38bd 5a9d 5e3c 8c98 3cbd
00000170: 9ccc 593d d988 9fbb 2de7 1c3e 57b8 7a3c
00000180: 1220 343d 8a5e d4bd 7ad5 4dbd 6523 843d
00000190: 06ec 5b3c 84e3 193d 51f8 1dbd 6026 a73b
000001a0: 9e04 893c e585 77bc 5d15 9fbd 5259 cdbc
000001b0: 23d5 313d 0c40 6c3b 2de3 e43a dadc 873d
000001c0: c1ed 6ebc cc28 afbc d5f7 33bd c99b 1ebe
000001d0: ca62 093c 1108 d0bd 2af3 153e 7592 4f3c
000001e0: 54a0 163c 2e0c 7abd 0471 62bd 22ff 5a3c
000001f0: 00e7 c43b 2efd 5f3d 046c 1e3c 5602 cc3c
-0.11588114 0.022268891 -0.08356705 -0.11652741 -0.016865307 0.09036819 0.06881333 -0.08227789
-0.04073106 -0.04061928 0.035255656 -0.006940378 0.025145615 0.009710851 -0.06556046 0.07340748
-0.07298844 0.0019248143 0.006684998 -0.03959393 0.054017395 -0.100848295 -0.045538303 0.12403662
-0.06629477 -0.07952292 -0.0038868824 -0.03468867 -0.09682225 0.12651533 -0.06304201 0.071472846
0.08935065 -0.021013536 0.058199383 0.07754347 -0.04772505 -0.00013211968 -0.00418682 -0.06531809
0.068677165 0.06440805 -0.019557796 0.02669228 -0.046830505 -0.045653757 -0.027881695 -0.060470812
0.05779967 -0.049543135 0.010537186 0.097548775 0.009886415 0.008742411 0.0066635557 0.034654737
-0.056946594 0.023591455 -0.034543883 0.030503592 0.05942795 -0.06922281 0.06726224 -0.09686025
0.07756353 0.052410334 -0.004168904 -0.034511045 -0.054984912 -0.03492819 -0.019146038 -0.07243762
0.073821105 -0.11633907 0.017035568 0.036600538 -0.0013170921 -0.03929605 0.16102272 -0.111276194
0.0852578 0.004547271 -0.027824575 -0.013513687 0.021628076 0.010157508 -0.06521799 0.028361827
0.02533089 -0.04504483 0.01358732 -0.046043918 0.053173646 -0.0048686084 0.15322562 0.015302739
0.043975897 -0.103695944 -0.050252415 0.064520635 0.013422972 0.03757049 -0.03856689 0.00510101
0.016725834 -0.015107607 -0.077677466 -0.025067005 0.043416154 0.0036048917 0.0017462723 0.06633921
-0.014583052 -0.021381758 -0.043937523 -0.15489115 0.00838537 -0.101577885 0.14643541 0.012669195
0.009193499 -0.06104677 -0.05528356 0.013366492 0.0060089827 0.05468481 0.009669308 0.024903458

fc3.weight f4 [2, 128]
00000000: 7420 563d d844 c23d c6ac 1a3c e265 923c
00000010: 76aa 6bbd 1b21 db3c 6e80 9fbd 6217 713d
00000020: b9de 6c3d e453 21bc f446 04bd 0283 003d
00000030: d179 0c3c 9ac6 f3bc efae a8bc 1b3b 3dba
00000040: 3097 cfbd 977f 44bd f75f 5f3c a53c 6a3d
00000050: a604 443c 2bf6 b83d d69e 4b3d 8515 e7bd
00000060: f3fc 07be 46ad 223c eeec 7c3d afca e53c
00000070: d376 253d 3d27 15bd cc40 5d3d 09e5 23bd
00000080: 809d 75bd 9c8f 2c3d e522 9d3d 4106 213d
00000090: ec9f 053d ed8e c5bd e2ec c43c a95a 6b3c
000000a0: 9f09 15bb cf76 703d 8884 f43c 109e 703d
000000b0: c805 3f3d b6dc c93c 01f2 7ebd 8256 c53c
000000c0: 39f4 a53d 449e 3e3d 4577 2ebe 313e a7bd
000000d0: 9f52 5cbd 8e07 66b9 e229 68bd 5ac1 22bc
000000e0: 2063 243d 5f80 1dbd 22f9 1ebc 4623 8bba
000000f0: dd77 eebd 0fa0 d5bd b4d5 1b3d f377 6ebb
00000100: 4f0f a83d 0498 393d 3004 9abc 744c 943d
00000110: 90d9 70bd 1b5e ac3c 5f1c 513c 02fb 0fbc
00000120: fcf9 d73a 6131 273d 12f1 27bc a184 9e3c
00000130: 648a 16bd fbe4 f5bd 7306 573d c51a fe3c
00000140: 437a 78bc e17d 9fbc 16d3 dbbd f361 37be
00000150: 10f9 663c 67b1 70bd 7c81 1a3d ddbb c1bd
00000160: 5fb8 22be 050a 7f3d 5b66 20bd ffeb 8b3d
00000170: 92c0 d7bc 7962 ac3d 76a1 9d3b 1c58 14be
00000180: 786a aebb 1625 1dbd a528 ef3c ab37 c1bc
00000190: 8e29 66bc 56b7 b7bd e498 3b3d e63e 0dbd
000001a0: 8543 25bb 0fa4 5c3d e8ed 593d a307 ff3c
000001b0: 71d4 103c 2a5e 91bd 7524 0bbe 1d9d 1e3d
000001c0: bc2f b03b 5406 cebc c350 8e3d 9ceb 2d3d
000001d0: 67f5 913d 5133 273e 1aa3 3dbc d904 093d
000001e0: ced9 713d aaa9 023e 8179 8e3d 3ca5 5d3d
000001f0: 09ff f5bd fce4 1b3c ba37 0bbe 22fa 883d
00000200: f7ba 2dbe bce6 ea3c 780a 1ebd aad4 e0bd
00000210: 29e6 d03d a854 323e aa48 1f3d f890 a1bc
00000220: fac0 8abd 3d13 f13d b19e 793d 6089 983d
00000230: 1abf abbd b23a 5f3c 7d64 0ebe 63bf c0bd
00000240: 853c 89bc 4831 04be b02e 9e3c c58b b53c
00000250: 9761 093d 1e10 013d 3be5 df3b 50a5 05bd
00000260: 298d c1bc 3167 39be dcc3 fe3c c2ad f23d
00000270: 64f8 b1bc 25e1 ebbd 190b c13c d16b a4bd
00000280: 78e9 ce3d d50f 80bc cbdd 993c 5269 e7bd
00000290: 480b 603c 297e ec3d e373 873d ce1b 5cbe
000002a0: 7cd4 debd 5565 843c 605d ea3c bbbd 443d
000002b0: c687 ec3c 822b 883d 0647 0b3d 8551 983e
000002c0: 8b34 003e 8e90 963b e6be 0c3d 6a9a 313d
000002d0: 9463 ecbd afc3 1abe 95d3 b93d 3143 ad3d
000002e0: 0c4f 96bc d1f1 f6bd 0d95 bf3d 6e13 693e
000002f0: 7930 8abd d256 8d3c c446 a73d 5815 26be
00000300: f469 22bc 67a4 973c 0978 12be f26a 3d3d
00000310: 2ae1 ccbc 30fb db3d f3c1 093d cf5c 3fbe
00000320: a0ec 143e e22c 1bbe c99a ac3d 2cd0 b83e
00000330: 8827 1cbd e129 ca3c 9d5d 3a3e b490 eb3c
00000340: 6dae 88bd 4807 a23a edfc 843d 5aac 0e3d
00000350: fca9 31be cea2 6bbc 13b3 953b a9f0 873d
00000360: 25a5 a73c 215b f539 1a6f d1bd 62f7 093c
00000370: 90f1 e6bd 5b52 523c c895 2f3e a283 9d3d
00000380: 13a4 873e 8636 4bbe a200 49bd 55c5 933b
00000390: 669f f83d 1a85 373d ef3f ccbd 4731 3c3d
000003a0: 72ee 25bd b3a5 22bd 487c df3d cfa0 bebd
000003b0: 1b2b 63bd 2103 81bd 479a 823d 62d3 fd3d
000003c0: cfcc 7bbd 818e e53d 8a25 7abd 8134 e9bd
000003d0: 03de 27bd fd66 3e3e 6386 113e 10c4 013d
000003e0: ddd9 623e 8c38 003c 0de9 c33c 7a34 783c
000003f0: db0b 6ebc 5b63 8f3c c8b4 4a3d 518a 8dbc
0.052277043 0.09485787 0.009440606 0.017870847 -0.05753561 0.026749184 -0.07788168 0.05886019
0.057829592 -0.009846661 -0.03229423 0.03137494 0.008573965 -0.029757787 -0.020591227 -0.0007218585
-0.101362586 -0.04797324 0.01363372 0.05718674 0.011963999 0.09031328 0.049712025 -0.112834014
-0.13280086 0.009929007 0.06174939 0.028050749 0.040396523 -0.036414374 0.054016873 -0.040013347
-0.059964657 0.042129144 0.07672671 0.039312605 0.032623217 -0.096464016 0.024038736 0.014364877
-0.002274133 0.058707055 0.029848352 0.05874449 0.046636373 0.024641376 -0.06224251 0.024089102
0.081032224 0.046537653 -0.17037685 -0.08166159 -0.05378973 -0.00021937324 -0.056680568 -0.009933794
0.040133595 -0.038452502 -0.009702953 -0.0010615371 -0.11643956 -0.104309194 0.0380456 -0.0036387413
0.08206045 0.04531099 -0.018800825 0.07241145 -0.058801234 0.021040967 0.012763112 -0.008787872
0.0016477699 0.040818576 -0.010250347 0.019350352 -0.036753073 -0.12006565 0.052496385 0.031018624
-0.015165868 -0.019469203 -0.10733621 -0.17908458 0.014097467 -0.058762934 0.037721142 -0.0945966
-0.15890644 0.062265415 -0.039160114 0.06832122 -0.026336942 0.0841722 0.0048105074 -0.14486736
-0.0053227507 -0.038365446 0.029194186 -0.023586115 -0.014047993 -0.089705154 0.045800105 -0.034483813
-0.0025217247 0.053867396 0.0532054 0.031131571 0.0088397125 -0.070980385 -0.13588126 0.038724054
0.005376784 -0.025149502 0.06948998 0.042461023 0.07126885 0.1632817 -0.011574531 0.03345189
0.059045605 0.12760034 0.06956769 0.054112658 -0.12011535 0.009515043 -0.13595477 0.06688334
-0.16965853 0.028674476 -0.038584203 -0.109780625 0.102001496 0.17415106 0.038887657 -0.019722447
-0.067750886 0.117712475 0.060942356 0.07448077 -0.08386059 0.013624834 -0.1390552 -0.09411504
-0.01675249 -0.12909424 0.019309372 0.022161374 0.033540335 0.03150951 0.0068327463 -0.032628357
-0.02362688 -0.1810577 0.031099252 0.11849548 -0.021724887 -0.11517552 0.023564862 -0.08028377
0.101031244 -0.01563255 0.018782517 -0.11299385 0.013674565 0.11547501 0.066139005 -0.21494982
-0.10880372 0.0161616 0.028608978 0.048032504 0.028873336 0.066489235 0.03400328 0.29749694
0.12520044 0.004594869 0.034361742 0.04336015 -0.115424305 -0.1511371 0.09073559 0.08460081
-0.01834824 -0.120578416 0.09354601 0.22761318 -0.06747527 0.017253313 0.08167794 -0.1621908
-0.0099129565 0.01851101 -0.14303602 0.04624457 -0.02500971 0.107412696 0.03363223 -0.18687747
0.1454339 -0.1515384 0.084279604 0.36096323 -0.038123637 0.024678173 0.18199773 0.028755523
-0.06673894 0.0012361789 0.06493554 0.034832336 -0.1735 -0.014382077 0.0045684665 0.06637699
0.02046449 0.00046797938 -0.10226269 0.008420797 -0.11276543 0.012837018 0.17146981 0.076911226
0.26492366 -0.19845018 -0.04907287 0.004509608 0.12139778 0.04480467 -0.09973132 0.045945432
-0.040510602 -0.039708804 0.10912377 -0.093080156 -0.05546103 -0.06299425 0.06377082 0.12393834
-0.061474618 0.11208821 -0.061070956 -0.113869675 -0.04098321 0.18593974 0.1421142 0.03168112
0.22153421 0.007825982 0.023914838 0.01514923 -0.014529194 0.017503431 0.049488813 -0.017277868

fc3.bias f4 [2]
00000000: d628 cb3c 3cf9 2dbc
0.024799746 -0.010618504
