checkpoint_actor_1_last.pth (torch_old, 159204 bytes, 6 tensors)

fc1.weight f4 [256, 24]
00000000: 5545 5a3e daad 283e 8b0c bd3d 3164 5b3d
00000010: c36e 0a3e 876b e3be 4e5b c63d 31b4 053e
00000020: 7057 903d 4a0e 4a3e 1ba7 40bd 33aa 29be
00000030: b06b 763e 0def 9cbe 2326 763c 6365 e6bd
00000040: de19 c53b 7bc8 143e 754f 10bd e6ee 60bd
00000050: 2472 5f3e caea 90bd 6429 f73c 6bf5 ccbd
00000060: 90f5 283e 9c5f 1e3e cc0f 43bc 710e dbbd
00000070: 90dc 033d 55f8 bdbe 190a 5ebb 9c83 4cbe
00000080: b194 eb3d 3756 133d a970 413c a2fa 76be
00000090: f456 013e da6a ddbe 86de 11bd 4bad 6cbe
000000a0: e60a be3d cab9 cabd 7717 1dbe 7548 66be
000000b0: 6258 a03e a0aa cabe f194 ddbd fbc1 86be
000000c0: 5bf6 0e3c d2c4 963e 5ea6 2fbd ee9c 423e
000000d0: 6435 8c3e 89bd 7b3d eda8 00be 675c 0b3e
000000e0: 33eb 7d3d 6cb7 a03e 9df2 23bc 8746 e73c
000000f0: 733a 523e 4b3d 5b3e a25d 163c 26e1 443d
00000100: faa7 e33d 715f b83e c3f5 b7bd db4f 433b
00000110: bda5 113e 2b0b 6e3d d2f0 31bd faf4 9f3d
00000120: c8e8 f13d c8e9 053d bc81 88bc 9b74 90be
00000130: 59b6 9fbd 84db 873d b681 ea3b 1105 94be
00000140: 7717 8a3d b46b f63a bbdc 0a3d b3c2 60bd
00000150: 4be5 523e 5570 2dbc 502b 943d 8606 8b3c
00000160: fff0 b53d c8a0 de3d 82f2 b2bd ead7 f83c
00000170: 33c9 b63e ad27 7abd cb4a 153c 1981 753d
00000180: bf35 a0bd 94c4 db3e 77c4 913d 66c4 b5bd
00000190: 2741 df3e 8c6b 27be b693 0dbd 9adb 24be
000001a0: 8ca7 51bd 2ee3 b83e c92e 923c 3084 e5bd
000001b0: e490 9f3e 8c08 543e 1223 233d 3058 37bd
000001c0: e97f 153d 8577 c33e dc9e d1bc b5db 623d
000001d0: a8ae 383d eccd 103f 9cde 553c 0d3a fd3d
000001e0: b384 d43e de18 2a3e de31 d1bb 4cf5 50bc
000001f0: 72ff 2fbe 24f2 92be 061b 933d e563 b33b
00000200: f728 af3e 3679 413e b121 683d 91f6 21be
00000210: 68d8 f7bd 67e7 31be 407f fe3d d15c 07be
00000220: 5878 a43e 9c88 213e 9651 fd3a f368 113d
00000230: 0ba6 39bd 16ff 383e 4fb1 263c 6370 183c
00000240: 1533 5c3b 7f17 d63d 28ec 23bc 1a9a db3c
00000250: d419 87be 27f1 29bf 91df 8e3c ed44 ee3d
00000260: 3d5c 8e3d fa75 a83d 910b 293b 9e27 0fbe
00000270: 7b2c 44be 3f45 b1be eee6 98bc 95b8 06be
00000280: 6d64 853d 8678 703d 42e0 8a3c ab31 9abe
00000290: 4a7d fb3c 60d7 073c 7d1c 743c 2871 8abe
000002a0: d2c5 213d 9290 8e3e 751c c4bc 165c 30be
000002b0: 5df0 7a3e e4ae 04be 9616 823b 7945 5fbe
000002c0: 1f85 13bd f190 963e 069a e4bd d1f9 9bbd
000002d0: ced9 bcbd dcb6 c53d 2c22 c9bd e799 8cbd
000002e0: a0e3 85bd 6097 213e 7f05 93bd 8112 99bc
000002f0: a0df 93be 9fd9 a03e acaa 9b3b 0f5d 1cbd
00000300: f588 0dbd b1b3 c43e 3c66 8c3d d1f9 ddb5
00000310: 471f 863e 6c97 9c3c d76c 913d 46c9 cfbc
00000320: 1368 853c 2804 bc3e ae9b d9bc 3915 833d
00000330: 9da1 293e 3f2b 803e a304 d0bb f5c0 b53d
00000340: 5aba e43d 0992 df3e 0af1 e93b 036e 79bd
00000350: bae7 b53b 5df4 a23e 777b 90bd 4e36 02be
00000360: 5048 89bd 7a5f b13e 8ad9 9d3c b69a 253e
00000370: 05ae 7abd 30d6 dd3e 44c3 353c 639d 373e
00000380: 1007 1abe f341 aa3e 98fd aebc daeb f43d
00000390: bf76 4e3d dbbf bf3e 7675 88bd 77e5 493d
000003a0: fa12 b2bc 2e6c bc3e 0dfd 7ebd 1e53 883d
000003b0: 5214 253e da23 243e 8621 0e3d 1ca6 253d
000003c0: 2bea 27bd 2887 403d 3fcd 08bc c5fb 543e
000003d0: a116 b5be fe17 743d e0c7 4fbd b70a 873e
000003e0: 3471 483b 66f1 923d 8b6b ee3c f673 543e
000003f0: b1aa 98bd a7d1 733d 0ddc 48bc b573 6a3e
0.2131551 0.16472569 0.09230908 0.053562347 0.13518815 -0.44417974 0.09685384 0.13057019
0.070479274 0.19732013 -0.047034364 -0.16568832 0.24064517 -0.3065113 0.015023741 -0.11249807
0.0060150465 0.14529602 -0.035232026 -0.05491533 0.21820885 -0.070760325 0.030171104 -0.10007747
0.16499925 0.1546616 -0.011905622 -0.10696114 0.032192767 -0.37103525 -0.003388053 -0.1997208
0.1150297 0.035970893 0.011806645 -0.24119046 0.12630826 -0.43245584 -0.035612606 -0.23112981
0.092794225 -0.09898718 -0.15340982 -0.22488578 0.3131743 -0.39583302 -0.10819424 -0.2631987
0.008725728 0.29447037 -0.04288327 0.19005176 0.27384484 0.06146005 -0.1256444 0.13609467
0.06199188 0.3138994 -0.010006574 0.028231872 0.20530109 0.214101 0.009177597 0.04806628
0.11116023 0.36010316 -0.08982422 0.0029802236 0.1422338 0.05811612 -0.043442555 0.078103974
0.118119776 0.032693654 -0.016663425 -0.28213963 -0.07798452 0.06633666 0.007156576 -0.28910115
0.06742757 0.0018800409 0.03390191 -0.05487318 0.20595281 -0.010585864 0.07234824 0.016970884
0.08883857 0.1087051 -0.08737661 0.030376393 0.35700378 -0.061072994 0.00911207 0.05993757
-0.07822751 0.42923415 0.07117551 -0.08875351 0.43604395 -0.1634962 -0.034564696 -0.16099396
-0.051185176 0.36110824 0.017844575 -0.112068534 0.3116523 0.20706385 0.039828368 -0.044761837
0.036498938 0.38177124 -0.025588445 0.05538531 0.04508844 0.5656421 0.0130535625 0.12364588
0.4150749 0.16611049 -0.0063841185 -0.012753796 -0.17187288 -0.28700364 0.07182889 0.005474555
0.3421094 0.18893895 0.056672756 -0.15816714 -0.12101823 -0.17373429 0.12426615 -0.13219
0.32123065 0.15774769 0.0019326683 0.035500478 -0.045324367 0.18066058 0.01017411 0.009304139
0.0033599783 0.104537 -0.0100050345 0.02680688 -0.26386893 -0.66383594 0.01744059 0.1163424
0.06951187 0.08225627 0.0025794248 -0.13979957 -0.19157593 -0.34623143 -0.018664803 -0.1315635
0.06513295 0.05870869 0.016952638 -0.3011602 0.03069939 0.0082910955 0.01489937 -0.27039456
0.039495297 0.27844673 -0.02393935 -0.17222628 0.24505754 -0.1295734 0.0039699776 -0.21803845
-0.036015626 0.29407457 -0.1116219 -0.07616008 -0.092212304 0.09654018 -0.09820971 -0.06865292
-0.06537557 0.15780401 -0.07178783 -0.018685581 -0.2888155 0.31416032 0.0047505703 -0.038174685
-0.03455444 0.38418344 0.06855437 -1.6538489e-06 0.26195738 0.019115172 0.07100838 -0.02536453
0.016284978 0.3672192 -0.026563492 0.06400532 0.16565557 0.25032994 -0.006348209 0.08874694
0.11168356 0.43666103 0.00713933 -0.06089593 0.0055513056 0.3182706 -0.07054799 -0.12716028
-0.06703246 0.34643155 0.01926877 0.16172299 -0.061201114 0.43327475 0.011093918 0.17931132
-0.15041757 0.3325344 -0.021361157 0.119590476 0.050406214 0.37451062 -0.06663029 0.0492911
-0.021737564 0.36801285 -0.062253047 0.06656478 0.16121033 0.16029301 0.03469994 0.040441617
-0.040994804 0.047003895 -0.008349716 0.20799167 -0.35368827 0.059593193 -0.050727725 0.26375362
0.0030585052 0.07174949 0.029104015 0.2074736 -0.07454432 0.059526112 -0.012259495 0.22895701

fc1.bias f4 [256]
00000000: d16e 48be b0bd e63c 8a87 293e 3b65 693e
00000010: a21c c6bd 6b51 fbbc bd2b 3abe 8f83 9bbd
00000020: 9d23 06be 8cd9 2dbe 38b9 923c 20df 7b3e
00000030: dabf aebd e381 babc 048c c7bc 468b 21bd
00000040: 942c 4c3e 8944 713d b9c3 6bbe 0756 613d
00000050: d2b8 993e a0d6 e0be 6620 6a3e d661 8abe
00000060: c195 5e3c b288 aabe b719 c13b 110e 503e
00000070: 0227 133e 5396 263b 5a6e 4cbe 295a 8fbe
00000080: 7664 233c 9755 823d 2264 593d fd4e ee3d
00000090: 0ffd 3cbe 236c 5b3e 9483 dabd 0f33 be3c
000000a0: 005f 5a3e 71de cabd 28f2 a43d f32a 60be
000000b0: 569d bd3c a8b4 ef3c 2a66 c4be 4759 a6be
000000c0: 1eca a53e 4973 d33e 2cc5 0ebd 402f 12be
000000d0: f9ad 33be 54f6 52be a828 633d 17be 84bd
000000e0: 35fe cfbd 00b2 33bd 5d28 77be d4c0 ce3e
000000f0: 150b 903e 528a 803d 601c 83be 5f50 83be
00000100: ddee a5be 1d7e 95be efef abbd 33d9 01be
00000110: 2576 86be 1da3 a9be 37c0 463e 53dd aabe
00000120: 916d 0cbd ea1c 95bd 7f69 a6be a98b ec3d
00000130: 0067 e8bd 1e04 3dbd 4f44 51bd 4ded 823c
00000140: 657c 80be a6d2 373d ed3f e8be a37c 7dbd
00000150: 8533 c33e 9351 9b3b 1acd 35be ef46 833d
00000160: 25d0 393d d361 103e f975 843d 6d96 433e
00000170: 538e 983d 68cf 233e c7ab 09ba 267e c3bd
00000180: 2531 29be 95a0 b8be a433 4a3e 4ee7 10bd
00000190: b47f c53d b80b 5c3d 45e7 353e 3dfa 20bd
000001a0: f459 9cbe 5b2a c43d 0cce d43e 6cb8 3abe
000001b0: 1ef0 933e 0749 babd 7839 223c 140c cc3c
000001c0: 663f 00be 6e7e f63b a36b e03d 237b 5c3e
000001d0: e8a8 353d b9f7 2cbe d7ab 003e 7867 babd
000001e0: c55c 52be 185b 7cbe 3bd1 e73c eb65 803d
000001f0: 4fe7 163d a1fd 96be a63a 673e c6a7 f2bd
00000200: 0e70 543e 2c17 c63c c93d 75bd 4bd2 9e3e
00000210: a2da 70bd 5325 ea3c e339 e63e f612 d3bc
00000220: 2ab4 84be 2ae8 9cbd b6c1 393d dbcf 9f3e
00000230: 5db0 4e3e 25e2 c43d df84 1a3e 76d4 a63e
00000240: 2958 763e 5078 53be 4918 2d3d 382d 8a3c
00000250: a943 353e 0420 a73e d62b eb3d 7fec 5b3e
00000260: 0b0a f83d b61e 7abe 5fc6 d03d a29a 5cbd
00000270: 4874 8e3d f39d 073e 051f 20bd fe3c 0d3e
00000280: f0c5 21be 9b8b b1bd d2f0 9c3d 0e53 c63c
00000290: 2fb2 f7be b7d5 ec3e 7eb5 733e d4a4 173e
000002a0: 54b5 56bc 7937 01bc 6a51 5abd dd2e a1be
000002b0: a79c 9cbe 9894 69be 7ebf 04be 9a78 8bbe
000002c0: 12e7 0b3e 76f0 e5bd 3c61 75be 0ce9 a43d
000002d0: 52f5 cfbd fd1c 683e 5dcc 83bd cc19 b73e
000002e0: 56a7 b13e b2cb c9bd a0fe cfbc 7000 1fbe
000002f0: 9f1b 9fbe bb88 633d 5876 9cbb 405c 793d
00000300: fc25 223e 1368 84be e179 e53e 063f 72be
00000310: d0be 333e c243 763d a9cd fe3e b036 d83e
00000320: 16e1 563e 1fff a03d 72f5 813e 3c0d 043e
00000330: e83f a43e d46a 753d 8159 763c 5097 b53e
00000340: a455 ec3d fbf2 47be ed1f bd3d 1595 01be
00000350: a9e8 a13d 07a4 fb3d efaf cabc f22c 98bc
00000360: 26ab c23d 3752 bfbc 2ab8 26bd fc09 9abd
00000370: 4119 9f3d 6c4d 193e b803 9b3e fd6f 043e
00000380: dfac 9a3d 8ea3 c4be 7fcd 81be a260 cbbd
00000390: 0b90 bcbe 9b31 4abd 19a6 963e 384c ba3e
000003a0: 1e58 4bbe 263e 76be fd2f 583e d800 3abe
000003b0: 7a76 92be dcd5 c63d c448 dc3d 948e 933e
000003c0: 3f4c 85bb 0ab8 d4be 7315 67bd e8d4 9f3d
000003d0: 002f e8bd 3c74 1c3e 6e97 5a3d 7426 3fbe
000003e0: eb10 86bd ee85 d6be a2ee 97be 2a3b b0bd
000003f0: 62f2 bf3e 7018 953e 51bb 6abd 2f88 8d3e
-0.19573523 0.028166622 0.1655561 0.22792523 -0.0967343 -0.030678472 -0.18180747 -0.07593452
-0.13099523 -0.16977519 0.017910585 0.24596834 -0.085326865 -0.022767013 -0.024358757 -0.039439462
0.1993888 0.05890325 -0.23023881 0.055013683 0.3002382 -0.43913746 0.22863922 -0.27027768
0.013585509 -0.33307415 0.005892958 0.20317866 0.14370349 0.002541919 -0.19963971 -0.27998474
0.009972682 0.06363981 0.05307401 0.116361596 -0.18455909 0.2142797 -0.10669628 0.023217706
0.21325302 -0.099057086 0.08054 -0.21891384 0.023146313 0.029260948 -0.38359195 -0.32489988
0.32380766 0.41298893 -0.034856007 -0.14275837 -0.17546834 -0.20601779 0.055458695 -0.06481569
-0.10155908 -0.043870926 -0.24136491 0.4038149 0.28133455 0.062763825 -0.25607586 -0.25647256
-0.324088 -0.2919778 -0.08395373 -0.12680511 -0.26262012 -0.33132258 0.19409262 -0.33371982
-0.03428418 -0.072809055 -0.32502362 0.115500756 -0.11347771 -0.046146505 -0.051090535 0.015982294
-0.25094905 0.044878624 -0.45361272 -0.06188644 0.38125244 0.004739949 -0.17754021 0.06410014
0.045364518 0.14099817 0.06467814 0.19100352 0.07449021 0.15997088 -0.0005251732 -0.09545545
-0.16522653 -0.36060014 0.19746262 -0.03537684 0.09643498 0.053722113 0.17764004 -0.039301146
-0.3053738 0.09578391 0.4156345 -0.18234414 0.28894132 -0.0909596 0.009901397 0.024908103
-0.12524185 0.007522396 0.1095803 0.21531348 0.044350535 -0.16891374 0.12565552 -0.09101766
-0.20543201 -0.24644125 0.028298011 0.06269439 0.036841687 -0.29490378 0.22580966 -0.118484065
0.2074587 0.024180971 -0.059873376 0.31019816 -0.058802254 0.02858225 0.4496604 -0.025765877
-0.25918704 -0.07661469 0.045350753 0.3121327 0.20184465 0.09613446 0.15089749 0.3258397
0.24057068 -0.20651364 0.04225949 0.016867265 0.17701592 0.32641613 0.114829704 0.21476935
0.121112905 -0.24425778 0.10194086 -0.053858407 0.06955773 0.13243847 -0.039092083 0.13792798
-0.15798163 -0.08669206 0.0766312 0.024209525 -0.4837813 0.462568 0.23799703 0.1480897
-0.013104755 -0.007886761 -0.0533003 -0.31481066 -0.30588266 -0.2281059 -0.12963673 -0.2724045
0.13662365 -0.11227505 -0.23962873 0.08052263 -0.10154213 0.22667308 -0.064354636 0.3576187
0.3469798 -0.09853305 -0.02538997 -0.1552751 -0.3107576 0.05555032 -0.00477485 0.060878992
0.15834802 -0.25860652 0.4481955 -0.23656854 0.17553258 0.060123213 0.4976628 0.42229223
0.20984301 0.078611605 0.25382572 0.12895674 0.32080007 0.059916332 0.015035988 0.35467005
0.11539772 -0.19526283 0.09234605 -0.12654527 0.079057045 0.12287145 -0.024742095 -0.01857612
0.095053 -0.023354633 -0.040702976 -0.075214356 0.07768489 0.1497094 0.30276275 0.12933345
0.07552504 -0.38406032 -0.25352094 -0.099305406 -0.36828646 -0.049363714 0.29423597 0.36386275
-0.19857833 -0.24047145 0.21112056 -0.18164384 -0.28606015 0.09708759 0.107560664 0.28819716
-0.004067927 -0.4154666 -0.05641694 0.078042805 -0.113370895 0.15278715 0.05336707 -0.18667012
-0.065461956 -0.41899055 -0.2967425 -0.08605035 0.3748961 0.29120207 -0.057307545 0.27642962

fc2.weight f4 [128, 256]
00000000: 72e9 30bc 23fc 53bd 444f 4b3e 654a c8bd
00000010: fb3b 2a3e 372f 363d dc72 83bd a06e cd3c
00000020: d8e8 023e 18ea ac3d 1585 f4bd f547 0abe
00000030: 773d 823c 703b 81be 2f97 ea3e 7dd2 2f3e
00000040: 8417 db3d 16ee 033d ea35 953d 27dc acbc
00000050: 0693 3a3d e85c f4bd 4d0c 52bd a705 803e
00000060: e0b8 33bd 9af7 27be 8535 86bd 29e9 01be
00000070: 3d15 a23d 7691 46bd b065 e53d 1e12 da3d
00000080: f85c 233e 7b41 6fbd 5e8a b83d 8f25 543d
00000090: 5d04 5a3e 5d60 95be 1a39 2d3e 9225 693e
000000a0: fc63 25be 6778 0dbd c243 113e 1d9e 1abd
000000b0: 7b0b 353c 0c0b cc3d 17c1 0a3e 3784 26bd
000000c0: 6829 45bb 69e1 37be 73a9 19be 383f 583d
000000d0: 88dd a03d 388e cdbd d656 d8bd bea5 a0bd
000000e0: 296c 90bd 962f 4ebe c759 35bb 0725 08be
000000f0: 61ec efbd c6b3 1c3e ef3b 403e b1a4 cabc
00000100: a234 f33c 6e71 673c 8e86 89bd 506c dd3d
00000110: 3d15 5e3d 332f aabc e2e5 383d 7483 16be
00000120: 3474 17be 2da6 d43d a2f7 0f3d ae44 aebc
00000130: 9776 d1bc d005 173e 38e8 f23b a1c4 88be
00000140: 3370 e33d 70bf b3be 29b5 8f3d 4b14 453e
00000150: 6ed5 d63d 35e6 5abd 5d6e b3be 2ad8 05bd
00000160: f2d3 70bd d2f0 fc3c e4a0 a93c c43f 5c3d
00000170: c7fa c4be 5016 643e 3c2e e5bd 5d9e 6dbe
00000180: fcd4 5d3e d1df 18be 882d 263e ed78 343d
00000190: 940e 3fbe 61f8 733e e9a8 173d 4f38 2bbe
000001a0: be4e c13d 2ea8 473e afa0 40be f7a7 b23e
000001b0: 754f 17be ad3c 913d 3f6e dd3d 82ad 26be
000001c0: fc3a 60bd 9d84 5e3d 60cd 25be 8142 87be
000001d0: f1db e63d 94d7 5e3e 8295 0abe ede1 98bd
000001e0: dcd4 093e c863 523e 6043 99bd 146a 59bd
000001f0: f64c c13d 0e3a a93e ebda 8e3d 159b 133e
00000200: cd52 883c f23d 8b3e d2e9 ccbe 00a3 b63d
00000210: 53c1 a4bd 4af2 07be ec56 d4bd 0596 12bd
00000220: 005c 2b3e 64b7 51be dd85 5bbe 2f62 1abe
00000230: 6da3 1cbd 9509 39bd 3136 c5bd 8af6 98be
00000240: c55e dabd f30d 9bbe 7ccd c2bc 638b d9bc
00000250: 5c08 52be c2b7 c73d 3bbe 48be 3e98 20bd
00000260: 3c7b c43c 8ca0 fcbd 97f5 143d 7dc2 593e
00000270: 84a6 41bd a71e 03bd 88aa 3ebe d6c4 b4bd
00000280: d3c0 d4bd 1830 423d 0970 dcbc 9084 043d
00000290: 28e7 593e 315c 8abe 6c43 3ebe 9dd9 ed3d
000002a0: 61ca ed3c 5299 6f3d b5f7 b83c 906b 103d
000002b0: f79b e53c 9d97 0cbe 4275 bfbc 8858 80ba
000002c0: 3671 24be 22c7 703d d59f 733e f4c7 d73d
000002d0: e27f 053d b6e6 63be a6d3 e03c fdb7 373d
000002e0: 5ac9 6bbe 3c59 0d3e 5165 93be 5c8d d5bd
000002f0: f64c 2bbc af06 2f3e 0240 f33c 8bfa 4fbd
00000300: a194 20be 1c3f 433d d06b 0bbe dcbc af3d
00000310: caee 10bc b2d3 113e c4ce 52be 6b32 70bc
00000320: c914 043e 5b6a 563d 48ac 14be c428 43bd
00000330: 8f05 5e3e 3844 843e 5fff a6be 6a4e 853d
00000340: ef98 90bd dcd1 843e 3b1c 79bc 196f 02be
00000350: 69b9 3e3e d9d9 bcbd 7ee5 33be f60e 9fbd
00000360: 10d2 31be 48c6 bebd d021 bb3c e967 e3bc
00000370: 2b22 593d d2f6 523e 8c08 5f3d ff39 a93d
00000380: 276f 37bc b30c 2f3d 8991 a1bd fc15 563d
00000390: 56f0 f83c 5b42 30be 0d23 9fbc a7e6 fa3d
000003a0: 884a bdbd d093 a93e f95d 06be 308e 4b3e
000003b0: f085 d33d 0e3c dbbd ceb7 0fbd 932a 4f3d
000003c0: 1366 cbbd 5695 9ebd 4fc4 7f3d b6bd c4be
000003d0: 88b2 63bd c912 bc3d e3e7 cc3d 8abe a6bd
000003e0: 9456 253e b37a a73d 5193 8e3d 19df 2dbe
000003f0: e3f6 8abe 5c76 df3b 557d 493e c19b 0abe
-0.010797845 -0.05175413 0.19854456 -0.09779815 0.16624443 0.04447862 -0.06418392 0.025077164
0.12784135 0.08443087 -0.11939446 -0.13504012 0.01589845 -0.2524066 0.4581847 0.17170139
0.106978446 0.03220948 0.07285674 -0.02110107 0.04555037 -0.11931783 -0.051281262 0.25004312
-0.043877482 -0.16403046 -0.06553177 -0.126866 0.07914207 -0.048478566 0.11201036 0.10647987
0.15953434 -0.058412056 0.090107664 0.05179363 0.21290727 -0.29175082 0.16916314 0.22768238
-0.16151422 -0.034538653 0.14186004 -0.037748445 0.0110501 0.099630445 0.1355022 -0.040653434
-0.0030084495 -0.17957081 -0.15006046 0.052794665 0.07854754 -0.10036892 -0.10563438 -0.07844113
-0.0705188 -0.2013534 -0.002767192 -0.13295375 -0.117150076 0.15302953 0.18772863 -0.024736734
0.029688183 0.014126165 -0.067151174 0.108116746 0.054219473 -0.02077446 0.04514111 -0.14698583
-0.14790422 0.10383258 0.03514827 -0.021272983 -0.025569243 0.14748311 0.0074129365 -0.26712516
0.11105385 -0.35106993 0.070169754 0.19246022 0.10489927 -0.0534422 -0.35045138 -0.032676853
-0.058795877 0.03087655 0.020706601 0.05377175 -0.38472578 0.22274137 -0.11190459 -0.23204942
0.21663278 -0.14929129 0.16228306 0.044060636 -0.18657905 0.23825218 0.03702632 -0.16720699
0.09438847 0.19497749 -0.18811296 0.34893772 -0.14776404 0.07091651 0.108120434 -0.16277125
-0.054743752 0.05432569 -0.16191626 -0.26417926 0.11272419 0.21761924 -0.13533595 -0.07464967
0.13460106 0.20545876 -0.07483554 -0.05307968 0.09438507 0.33052105 0.06975349 0.14414628
0.016641045 0.27195698 -0.4002214 0.089178085 -0.08044686 -0.1327602 -0.103681415 -0.0357876
0.16734314 -0.20480114 -0.21437784 -0.15076517 -0.038241792 -0.045175154 -0.09629477 -0.29875594
-0.10662607 -0.3028408 -0.023779623 -0.026555723 -0.20511001 0.09751846 -0.19603817 -0.03920769
0.023984544 -0.123353094 0.036367025 0.21265598 -0.047277942 -0.032011654 -0.1861974 -0.08826606
-0.10388341 0.047409147 -0.026908891 0.032352984 0.21279585 -0.2702346 -0.18580407 0.11613772
0.029027166 0.058495827 0.022579053 0.03525883 0.028028471 -0.13729711 -0.023371343 -0.0009792009
-0.16058812 0.058783658 0.2379144 0.10536185 0.03259266 -0.22255978 0.027444672 0.0448532
-0.23026028 0.13803571 -0.28788236 -0.10427353 -0.010455361 0.17092393 0.029693607 -0.050776046
-0.15681697 0.047667608 -0.13615346 0.08580944 -0.008845994 0.14240912 -0.20586687 -0.014660458
0.12898554 0.052347522 -0.14518845 -0.0476463 0.21681808 0.25833297 -0.32616708 0.06509097
-0.0706042 0.2594136 -0.015204485 -0.12737693 0.18625416 -0.09221239 -0.17568013 -0.077665254
-0.17365289 -0.09315163 0.022843271 -0.02775951 0.0530111 0.20601967 0.05445151 0.08263015
-0.011195934 0.04273672 -0.07889087 0.05226706 0.030388039 -0.17212813 -0.019425893 0.12251025
-0.09242731 0.33120584 -0.13121785 0.19878459 0.10328281 -0.10704814 -0.0350874 0.05057771
-0.099315785 -0.07743327 0.062443074 -0.38425988 -0.055590183 0.091832705 0.100051664 -0.08141811
0.16146308 0.081777 0.06961692 -0.16979636 -0.27141485 0.0068195295 0.19676717 -0.13535978

fc2.bias f4 [128]
00000000: 89aa 813b 9d30 eb3d d61e b23d e708 463b
00000010: bbbe 1c3e 7cf2 bfbd 61da 41be d8f7 043d
00000020: 1470 a53d 79a6 2a3d 182d ce3d 6b7d 073d
00000030: f95a 093e 6214 64be 3c0f 5bbe 313b 0d3e
00000040: eb59 2fbe 11b2 5c3d 1225 4fbc acd9 97bd
00000050: 60f0 11bc 4ddc 89bd fea7 1bbe 0c5a 103d
00000060: 0fe8 a5bd 878f 2d3e 9600 01ba d608 813e
00000070: 31d8 baba f1bb 153e 25c1 ce3d 37f9 bdbd
00000080: 9030 ce3d cd6b 34be 67c8 46bd 0da7 dd3c
00000090: 7837 efbd bcf1 a33d 031a 3cbd 14dc 40bb
000000a0: f9f0 2b3e 99c5 983d 03b1 0bbe 6652 b93d
000000b0: 2f4a b3bd 2263 c43d b0b0 463c e6de 683e
000000c0: f51e 333e b1f4 8dbc c293 173e 0e84 32be
000000d0: 678b 6d3c e725 14be b150 97bc be8a f33c
000000e0: 52c0 16be c977 f73d f46c 2dbb 9bbd 88bd
000000f0: 4909 2bbe 24bd e4bd 7c81 bfbd 46b2 ed3d
00000100: bd44 edbd 4881 6e3c 6260 2b3d 8b1b a63d
00000110: 0771 7cbe 1b4e 6bbd 4399 953d ac30 8c3c
00000120: 7bb7 233d 6127 2a3d 5221 c7bc f213 113e
00000130: b210 b13c d5ad d1bc 7b6a 65bb 2726 f93c
00000140: bf88 b53d ff16 2b3d 57b3 b03d aa52 8dbe
00000150: 62de 5f3d 385d b03d d289 68be 923d 9f3d
00000160: 1a40 ecbc 6ae5 c73d 25c0 07be b1b4 593e
00000170: 0e80 68be 2283 e13d 681b 353d b62d 233e
00000180: 0326 20be 1a4e fbbd cc42 173e 9c38 8b3e
00000190: 82e9 2a3e 8c44 153e 27d3 313d 8b15 503d
000001a0: ff06 94bd a217 8a3c bd8f a5bd b129 a23d
000001b0: c90c 0cbe b1cd 4a3d e4ba cd3d f158 a63d
000001c0: 0236 b9bc c1b8 493d f33c 6ebd 3fcd b53d
000001d0: 882c 8ebd 6507 6b3d d292 7a3d f92a b63d
000001e0: 5c7c 0b3e 1711 543d 6ef8 203d f820 373d
000001f0: 8d2e 1d3e 123a 76bd 0be8 493e b1c3 2bbe
0.003957097 0.114838816 0.08697288 0.0030217709 0.15307133 -0.09372422 -0.18930961 0.032462925
0.08078018 0.041662667 0.10067195 0.033078592 0.1341361 -0.222734 -0.2139253 0.13792111
-0.17124145 0.053880755 -0.012643116 -0.074145645 -0.0089074075 -0.06731472 -0.15200803 0.035242125
-0.08100902 0.16949283 -0.0004921047 0.25202054 -0.0014255104 0.14622475 0.10095433 -0.092760496
0.10067856 -0.17619248 -0.048530962 0.027057195 -0.11680502 0.080050915 -0.045923244 -0.0029428052
0.16791143 0.07459564 -0.13641743 0.090489194 -0.08754384 0.095892206 0.0121270865 0.22741279
0.17492278 -0.017328592 0.14802459 -0.17433187 0.014498568 -0.14467584 -0.018471094 0.029729243
-0.14721802 0.12083394 -0.0026462646 -0.066767894 -0.16702761 -0.11168888 -0.09350869 0.116062686
-0.115853764 0.01455719 0.041839965 0.08110722 -0.24652492 -0.057447534 0.07304623 0.017113052
0.039969902 0.04154146 -0.02430788 0.14167765 0.021614406 -0.025595585 -0.0035006094 0.0304137
0.08863973 0.041769978 0.08627956 -0.2760213 0.05465544 0.0861153 -0.22708824 0.077754155
-0.02883916 0.09760554 -0.13256891 0.21260335 -0.22705099 0.1101134 0.04421559 0.15935406
-0.156395 -0.12270756 0.14771575 0.27191627 0.16690639 0.1457693 0.04341426 0.050801795
-0.07227897 0.016856972 -0.080840565 0.07918108 -0.13676752 0.04951257 0.10045412 0.08122433
-0.02260876 0.04924846 -0.058163594 0.08877038 -0.069420874 0.0573801 0.061175175 0.08894915
0.13621658 0.05177411 0.03929942 0.044709176 0.15349789 -0.060113974 0.19717424 -0.16773869

fc3.weight f4 [2, 128]
00000000: e34f 9abe 737d 2cbe fabf 45be 6609 7fbd
00000010: 61aa 6c3d cb3b 063f 402f 9a3e 8bc4 33be
00000020: 1cb9 0abd b072 593e 6e7b 5ebd 72ef d83e
00000030: 15fa 47be afc5 f83e 8220 123e a886 af3e
00000040: 9e76 3f3e 861c 1c3d 90ec 0abd dd75 05bd
00000050: 18e9 13bc cbe6 5d3e 16d0 a63e d007 6ebc
00000060: b982 333e 96f0 39be a088 a0bd dc5e 98be
00000070: bcdd 78bd 6318 74bd a448 9abc 3c0a c93d
00000080: 6f54 13bf 31fd c33d 9df6 5f3d c3e2 123d
00000090: f60d d53d d950 443e ae1b 3c3c b64c ca3d
000000a0: 7444 8bbe 1017 043e 107c 04bb 3c70 0cbe
000000b0: 9742 793e a748 093f b605 a1be ae1f 80be
000000c0: 53fc 02bd ead3 203e ca26 47bd f681 793e
000000d0: cb97 ed3e 743b 4fbc 3d45 9bbd fb91 2d3e
000000e0: e60a ef3e 081a e5bd 15ee 57be 7a90 4a3d
000000f0: 84f1 263d 2d55 313e 0c58 183d 28d4 9dbd
00000100: 1d7e 24bd 2011 663e 0352 4cbe 9abb 70bd
00000110: 9237 563e 8583 a03e 9f95 4bbd a27a 11be
00000120: 2065 8f3e db56 ecbd 2ddf 4c3e 05f4 02be
00000130: 7234 00be ce46 bd3e f929 6fbd 8067 b7bd
00000140: 960a a6bd 96c5 9fbd 345b d8be 5e64 a13e
00000150: a483 393e 89bf 163e ad02 9a3e 089d 19bc
00000160: ee1a 02bc 3d77 2ebd ef0d 013e 8aca 01be
00000170: 2d09 413e 33cb 2cbe 5bff 8f3e df78 1dbd
00000180: 4232 533e a6f0 5a3e 2dd7 e3bd f4f8 98be
00000190: b866 a4bd de77 78be 1032 3dbe dcf2 12bd
000001a0: 8b21 b3bd a1c1 1ebb 4d52 083d 1dc3 83bd
000001b0: 83cf fcbc a8bb c63e 79dd c73d b339 86be
000001c0: 9807 14be 92d8 3c3d 9c8a 8e3e 38d3 21be
000001d0: a795 ed3e 02de 5dbe 245b a93d bd8f f9bc
000001e0: 18f0 ee3b 10fe 3a3e 89e0 d0bd 7da6 81be
000001f0: 7e7d c1be a8a8 1b3d d4e6 57be 90bf 773e
00000200: d826 ebbe 9c9f 223c 9e3d 303e 9f57 903e
00000210: 3456 82be d179 a6bd 7d54 3b3e 9c15 a0bd
00000220: 4915 b33d d8d5 bcbc bf82 a03d bd2b 58be
00000230: 142b a63e c44e a43d d4f3 d93e 71de 0ebe
00000240: 441e a43e 67d1 8fbe 74b9 653d cdea abbd
00000250: d5ac b4be 0aa3 02bf d37f 413d 4588 8b3e
00000260: 29a5 38be c476 54be 8744 703e 5d47 493e
00000270: 10bc 8c3d a84d 58be 2878 a93c 408b 14be
00000280: e72e 3fbe 4630 d23d 8253 153e 1d29 cdbe
00000290: 966e 143c 7b72 18bf ded8 903e e822 8cbe
000002a0: a783 a2be e55e 793e 4588 0c3e 037c 2f3e
000002b0: 6927 4bbd bef3 583e c978 3f3e 7ed9 c03d
000002c0: c3d7 cebe 6efa a43e 9093 35be d73d ccbd
000002d0: e916 373e c853 5d3e cd67 35be ddd8 49bd
000002e0: a68c 2b3e 94e4 08be 664b a3be ca27 d33d
000002f0: 3ba9 6f3e 9623 1abe 883a b23e c2e9 833d
00000300: b4f0 573e 933c 9cbe e4ba 40be 6e7b 8bbd
00000310: 38dc 8bbd 9d02 893d bf7e db3e 0723 bbbe
00000320: 0ecd e03e 2ab5 853d 8855 00bd 3035 7e3b
00000330: a671 793e 2e59 49be 4858 b53e 3a74 023f
00000340: b3ec a03d 6347 213d e44b 8abe 5d02 bc3e
00000350: 3b1f dcbd 86e3 a0be 9bb0 86be ff14 3cbe
00000360: 4716 793e 1d3a 53be 2874 fb3d 466e 3a3e
00000370: f001 d1bc d647 e8bd 6caa a63e a5d6 36be
00000380: 0b80 163f 2bd1 02be 08f3 1bbe 9f29 23be
00000390: 02ea 813b 9082 02bd 3fc7 88bd e520 b43d
000003a0: 690b cebe 74ee 89be 65e8 073f c916 37bd
000003b0: 95fb ddbd 93f1 6b3d 8872 94be cb75 1bbe
000003c0: b9a5 983e 3409 58be e3fb c63d 603a 7abd
000003d0: 6ab0 99be 13b9 d0be da7c c3be 2aa0 49be
000003e0: fb9d b6bd b1ec 5bbe 7da2 37bf 3ad2 76ba
000003f0: 0273 e13d ccfd 0f3e f4ba 23bf 2378 433e
-0.30139074 -0.1684473 -0.19311514 -0.062264822 0.057779673 0.52434987 0.30114174 -0.17555444
-0.03386794 0.21235156 -0.05431693 0.42370182 -0.19528992 0.4858832 0.14270213 0.34282422
0.18697593 0.03811314 -0.03391701 -0.032583106 -0.009027742 0.21670072 0.32580632 -0.01452823
0.17530335 -0.18158183 -0.07838559 -0.29759872 -0.060758337 -0.05959357 -0.018833466 0.09816405
-0.5755071 0.09569777 0.054678548 0.035860788 0.104030535 0.19171466 0.011481209 0.09877913
-0.27200663 0.12899423 -0.0020215549 -0.13714689 0.24341808 0.53626484 -0.3144967 -0.2502417
-0.031978916 0.15705839 -0.048620977 0.24365982 0.4640487 -0.012648452 -0.075815655 0.16950218
0.46688002 -0.11186606 -0.21086915 0.04945419 0.04075767 0.17317648 0.037193343 -0.07706481
-0.040159333 0.2246747 -0.1995316 -0.05877266 0.20919636 0.3135034 -0.049703237 -0.14206937
0.2800684 -0.11540004 0.2000701 -0.12788399 -0.12520006 0.36968082 -0.058389638 -0.08955288
-0.08107488 -0.078013584 -0.42257082 0.31521887 0.18116623 0.14721502 0.30080166 -0.009375818
-0.007940991 -0.042594183 0.12602971 -0.12674919 0.18851157 -0.1687439 0.28124508 -0.03844535
0.2062464 0.21380863 -0.11125026 -0.29877436 -0.080274045 -0.24264476 -0.18476129 -0.03587614
-0.08746632 -0.0024224299 0.033281613 -0.06433699 -0.030860668 0.38815045 0.097590394 -0.26215896
-0.14456022 0.046104975 0.27840126 -0.1580323 0.46403238 -0.2166672 0.08269337 -0.030464048
0.007291805 0.1826098 -0.10199077 -0.25322333 -0.37791055 0.03800264 -0.21084148 0.24194169
-0.45928073 0.009925749 0.17211005 0.2819185 -0.25456393 -0.081287034 0.18293948 -0.07816622
0.08744294 -0.023051187 0.07837438 -0.21110435 0.3245474 0.08022836 0.4256884 -0.13952042
0.3205434 -0.2808945 0.056085065 -0.08394394 -0.3528811 -0.5103003 0.047241043 0.27252403
-0.18031754 -0.2074843 0.23463641 0.19656129 0.068718076 -0.21123374 0.020687178 -0.14506245
-0.18670236 0.10263114 0.14582637 -0.4007043 0.009059569 -0.59549683 0.28290457 -0.2737038
-0.31741068 0.24352606 0.13723858 0.1713715 -0.04959813 0.2118673 0.1869842 0.09416483
-0.40398988 0.32222313 -0.17732072 -0.099727325 0.17879833 0.21613991 -0.17715378 -0.049279083
0.16752872 -0.13368446 -0.31893462 0.103103235 0.234044 -0.15052637 0.3481028 0.0644107
0.21087915 -0.30514964 -0.18821293 -0.06810652 -0.06829113 0.066899516 0.42870137 -0.3655016
0.43906444 0.06528695 -0.03133157 0.0038789026 0.2435976 -0.19662926 0.35418916 0.509586
0.07857647 0.03937472 -0.27011025 0.36720553 -0.10748144 -0.31423587 -0.26306614 -0.18367384
0.24324904 -0.20627637 0.122780144 0.18206128 -0.02551362 -0.113418266 0.32551897 -0.17855318
0.5878913 -0.12775104 -0.15229428 -0.15933846 0.0039646635 -0.031862795 -0.06678628 0.08795337
-0.4024308 -0.26939738 0.5308898 -0.044699464 -0.10839001 0.05760343 -0.2899363 -0.15181653
0.29813936 -0.2109726 0.09716012 -0.061090827 -0.30017406 -0.407662 -0.38181192 -0.19690004
-0.08916851 -0.2147701 -0.7173231 -0.00094154815 0.11008264 0.1406166 -0.6395714 0.19088797

fc3.bias f4 [2]
00000000: d5fd f2bd e5df 38bd
-0.11864821 -0.045135397
