checkpoint_actor_2.pth (torch_old, 159146 bytes, 6 tensors)

fc1.weight f4 [256, 24]
00000000: 118f 82bd bc28 6dba b8ce 173d e939 0e3b
00000010: 25ed 64bd e883 71bd 94bd e73c cf6a 343d
00000020: 4353 1a3c 7248 283d 5b4a b23c d79c 4cbc
00000030: 13de 5fbd b8cb bbbc eaa7 563d 6113 903b
00000040: c2a1 c33b a95c bf3c 9b63 f73c 3734 babc
00000050: 94d4 eebb 73dd 20bd 3385 d63c e8e8 28bd
00000060: 466a f5bc e77d 3e3c 20e0 163d 9ae0 2abd
00000070: f0fc 5ebd 785b 81bd dd61 18bd 172b 933a
00000080: 8389 513d 9942 c6bb df95 3e3d 40b7 c43c
00000090: 37e9 153d ea7b 4cbd 6ed1 ecbc 5a32 1fbb
000000a0: e04d 53bd 481a ee3c cb30 0cbd a7b6 31bd
000000b0: 6475 643d b2c0 16bb 406d 8f3c 6de4 35bd
000000c0: 227f 6eba f05a 9bba 2742 ccbb 3607 febc
000000d0: ecc4 403b d712 e7bc b459 b23c 2f66 49bc
000000e0: 9988 283d 5433 ebbc 27d2 373d 16cb 433d
000000f0: 098c ab3c d258 183d 208e 873c ac0f d7bc
00000100: 6538 ac3a fb97 dc3c 41d4 52bd 87d3 ca3c
00000110: 2886 9939 0291 6dbc 63cf bf3c 5253 423d
00000120: fb3d ab3c ab3f 183c 2ed2 12bc 613c 573d
00000130: 93a9 973b eeb3 bb3c 29a9 89bd 4507 763d
00000140: a5de 263b b373 4a3d 9f8e 41bc 57f7 4e3d
00000150: 41b9 5dbd 302f 0bbd 5761 ab3a 4047 09bc
00000160: c622 413d 3545 a5bc 9553 20bc 0977 8dbc
00000170: d5d1 1abd afd2 48bb 3e45 433d 41bd c9bb
00000180: ca9a fc3b 053f 0c3d 13f0 86bb 6692 5c3d
00000190: 10d2 413d 95a4 46bd 6187 433d 4075 4d3d
000001a0: 9106 f23c b716 1abd 03cc 3bbd 678d b33c
000001b0: 34f6 aebb 55e1 61bd 0206 2dbc d2e3 8dbc
000001c0: 55e5 2ebd b885 8c3c b33c 34bd e13c fabc
000001d0: c13e d43c 4341 123d ad9d 6dbd bbf7 c63c
000001e0: 68e7 6dbd e1b5 233d 3302 cfbc 2691 473d
000001f0: 4a9f 74bd b39b 023c 2511 f43c 86ad 78bc
00000200: 10d7 7cbd 0d19 223d 7941 bd3c f4cb 903c
00000210: e0c9 71bd 7e04 c6bb 66ad 5d3d d229 56bd
00000220: 29c4 c33c 1349 60bc cdd4 00ba cf8b 643d
00000230: 04c6 fabc 7ef8 2abd 1669 41bd 0f44 1d3d
00000240: 9405 4cbd 01e4 07bd f308 283b 0440 1dbb
00000250: 8be3 30bc 94f8 a2bc 71e3 773d 07c7 093d
00000260: 466c 183a 0901 41bd e7ec 3e3d a406 ef3c
00000270: d105 e7bc 28e9 93ba 9177 0a3d c993 eb39
00000280: 80f9 ef3c 0ad8 5abd d0f4 f0bc 97fb 813d
00000290: 475d 3ebd ef62 2c3d ed84 50bd 6322 9a3c
000002a0: f0ca 10bc 8db3 94bc 4d06 34bd 5f37 3a3d
000002b0: 85f2 43bd dac2 e8b9 5353 523d cb91 18bd
000002c0: 03a9 393d fec0 14bd 7101 613d 2cf9 353d
000002d0: b4bc 113d 319e 203b 3542 803d e91b b7bc
000002e0: f7d0 4abd c647 6f3c 1ac5 513d 8b8f 16bd
000002f0: 2971 3e3d dc5c 383d 162d 5ebd d915 7d3d
00000300: 14f6 18bd b477 1a3d 7368 2b3d 37cc 22bd
00000310: e6fe 3ebd b956 38bd 37b3 e9bc ed1f 1a3d
00000320: 4bfe 01bd 97bb 2bbd b1fe 72bc ac24 bcbb
00000330: 7bcb 193d be3c dabb 74df 633d 49eb 3d3d
00000340: 88b7 17bd 9eda 2e3c 7254 24bd 0a0a d9bc
00000350: 6cf4 713d 50b7 a23b c646 953c 443f 5c3c
00000360: c33a 8cbc 02a1 bbbc 4fb7 05bc 2735 6abd
00000370: 28e8 1fbd b913 7a3d e5ec 823c 0531 4bbd
00000380: 5223 8cbc 2a24 27bd 838a 8abd 17f8 603d
00000390: 2ae7 babc 54c8 1b3d c1a8 273b 455e 56bd
000003a0: bd9b 51bd f9cc 8d3c 61b8 ed3c 4134 f33a
000003b0: e182 e53b c95d 3bbc a99a 093d f74e 29bd
000003c0: 1259 4f3d e6ca 08bc 31eb 68bd 14b2 283c
000003d0: afa5 d63b 4a25 2abd 2bc0 38bd 336e 26bd
000003e0: 3d60 08bd d8bd 5ebb 8c70 6fbd 0330 a73b
000003f0: 3ffa 1e3d adc9 3c3d 6552 9cbc a8be 5cbd
-0.06374944 -0.00090469024 0.037062377 0.0021701998 -0.05589022 -0.058963686 0.02828864 0.044047173
0.009419265 0.041084714 0.021763971 -0.012488565 -0.054655146 -0.02292429 0.05240623 0.0043968414
0.005970211 0.023359613 0.030198863 -0.022729976 -0.007288525 -0.03927369 0.026186561 -0.04123774
-0.029957902 0.011626697 0.036834836 -0.041718103 -0.05444044 -0.063162744 -0.037202705 0.0011228052
0.051156532 -0.0060504195 0.046529647 0.024013162 0.036599364 -0.04992286 -0.028908458 -0.0024291486
-0.05158794 0.029065266 -0.03422622 -0.04338708 0.055776015 -0.002300304 0.01750815 -0.044407297
-0.0009097924 -0.0011852663 -0.006233472 -0.031009298 0.002941425 -0.028207226 0.02177129 -0.012292429
0.041145895 -0.028710999 0.04487815 0.0478011 0.020940797 0.03719408 0.016547263 -0.02625259
0.0013139365 0.026927939 -0.051471952 0.024759067 0.00029282388 -0.014499905 0.02341432 0.04744274
0.020903578 0.009292523 -0.008961244 0.052547816 0.004628369 0.022912946 -0.06721718 0.060065527
0.0025462296 0.049426746 -0.011813789 0.05052885 -0.05413175 -0.03398055 0.0013075274 -0.008378804
0.047152303 -0.020174602 -0.0097855525 -0.017268674 -0.037797768 -0.0030643155 0.047673456 -0.006156594
0.007708882 0.034239788 -0.0041179745 0.053850554 0.04731947 -0.0484968 0.04773653 0.050160646
0.029544147 -0.03761932 -0.045848858 0.021918012 -0.0053394083 -0.055146534 -0.010560514 -0.017320547
-0.042699177 0.017153606 -0.0440032 -0.030546607 0.02590883 0.03570677 -0.0580117 0.024288049
-0.058082014 0.039968375 -0.025269603 0.04872241 -0.059722222 0.007971692 0.029793331 -0.01517809
-0.061728537 0.03957467 0.023102509 0.017675377 -0.059030414 -0.006043016 0.054120444 -0.052285977
0.023897247 -0.013689297 -0.0004914522 0.055797394 -0.030612 -0.041740887 -0.04721936 0.038394984
-0.049810007 -0.033176426 0.00256401 -0.0023994455 -0.010796438 -0.019893922 0.06051964 0.033637073
0.0005814474 -0.047120128 0.046612646 0.029177971 -0.028201016 -0.0011284696 0.033805434 0.000449328
0.029293776 -0.053428687 -0.02941361 0.06346815 -0.046475675 0.042086538 -0.050908018 0.018815225
-0.008837447 -0.018152023 -0.04395132 0.045462962 -0.047838707 -0.00044395664 0.051348995 -0.037248414
0.045327198 -0.036316864 0.054933015 0.044427082 0.035580352 0.0024508352 0.06262628 -0.022352176
-0.04951569 0.014604514 0.05121336 -0.036757987 0.046494637 0.045010433 -0.054242216 0.061788414
-0.037344053 0.037711814 0.041847657 -0.039745536 -0.04662981 -0.04500458 -0.02852784 0.037628103
-0.031736653 -0.041926946 -0.014831231 -0.0057416763 0.03754757 -0.006660073 0.055633023 0.046366964
-0.037040263 0.01067224 -0.040119596 -0.026494045 0.05907099 0.0049657 0.018222224 0.013442818
-0.017117864 -0.022903923 -0.00816138 -0.057179596 -0.03903976 0.061053965 0.0159821 -0.049607296
-0.017106686 -0.040805973 -0.067647 0.054924097 -0.022815306 0.038032845 0.0025582763 -0.052335996
-0.051173914 0.017309653 0.029018583 0.0018555002 0.0070041274 -0.011435934 0.03359476 -0.041335072
0.050622053 -0.008349156 -0.05686492 0.010296363 0.0065505127 -0.041539468 -0.04510514 -0.040632438
-0.033294905 -0.0033987667 -0.058456942 0.005102159 0.038812872 0.04609077 -0.019082258 -0.05389276

fc1.bias f4 [256]
00000000: 8e86 033e df95 373e 7f69 83bd c782 0a3e
00000010: 73e8 31be 4320 d63d cc3a be3d 2c41 003e
00000020: 2134 093e 0ab2 123e d4bf 123e 8e97 2abe
00000030: f727 293d 0156 36be b009 893d 9bb3 9dbd
00000040: 2308 bdbd 97dd c63a 542e de3c 9812 fbbd
00000050: c744 41be a949 383e 284e 503d 0dcd 4a3e
00000060: 1375 573d 53b3 063e adc3 33be 24cb 8d3b
00000070: 7070 403e ad46 a8bb f266 a1bd d7fb 1f3d
00000080: 4b61 12be 4b33 02be 2493 e7bd 8579 243d
00000090: 6b97 2ebe 108f e03d 5af6 c7bd aea9 2fbe
000000a0: 295a 0bbe a2f9 8c3c 41af dc3d 4fcf 14bd
000000b0: 71ae 46be f577 80bb dfb3 413e 8a19 e8bd
000000c0: 0759 fa3c 8c4f 6e3d d382 f2bd 4a29 1dbe
000000d0: d8e9 d23d cdfb dabd c627 513c 1269 323e
000000e0: 0dd8 ac3d 4ae5 f13d c2f7 1a3e 5288 cdbd
000000f0: e210 8a3d b152 263e 49fc 15be ddd5 723d
00000100: 382a 9cbd d0a1 30be 3ccf 24be 2ba7 013d
00000110: af2e 15be f916 e83d 5176 a5bc a495 41bd
00000120: a8d7 1bbe c47b bf3d 1ec1 f7bd c45c 133e
00000130: db94 0bbc 213b 17be 8c65 203e 068e 243e
00000140: 9b03 35be 0499 e9bd 3f27 b1bd 97e0 12be
00000150: 32d1 d13c c146 1cbe e97b da3d d30c 2dbe
00000160: 72ca 39be a910 053c 0d8e 84bb 2cd5 433d
00000170: 016f 29be c083 373e aa65 25be a7a6 1f3e
00000180: 87ef 3b3e 8737 483d 9015 413d c5b0 e3bd
00000190: be7e 813d 17eb 2e3e 75aa 30be bce6 343e
000001a0: 4464 bbbd 40da 513d fb1f d33d 7eec 703c
000001b0: 34ed efbd 1677 f2bd cd0c 513c 4d4c ebbd
000001c0: 6bec 1ebe 2ff4 46be 6b2e 4d3e 0fae 3cbe
000001d0: 9ae7 0bbe 7545 b33d b73d 083e 626d 4b3e
000001e0: c645 a53d b343 3e3e f812 e2bd 0ae2 8b3d
000001f0: 5af3 053d a3ce 3bbe 7451 363e a4d5 853d
00000200: 1d2f db3d 8881 e13d f998 853d 33ff dabd
00000210: 5822 043e 7895 6c3c 1cb2 c5bd aa75 e83d
00000220: 694c 19bc 60f6 0a3d f71d 0d3e 4b73 213e
00000230: 3db4 6cbc c7b1 b63b 2644 223c 680d cf3d
00000240: af88 a93d 5031 063e 20cd 7cbd a37b bebd
00000250: 5cda 38bd 7a68 f93d 1ea0 283e 2cc6 b7bd
00000260: c50d d73d cc09 4a3e 5b95 183e 47c1 793c
00000270: 769c 15bd 4443 493e a80e 8f3d aa1b 95bd
00000280: 9cca 3f3d 1f16 e9bd 3332 d8bd ab93 2d3e
00000290: b6da e73d e9ea 14be 22f0 0bbd 80a8 90bc
000002a0: ad1f c6bd 017d debd fc50 f23d 2577 0b3e
000002b0: dd85 8abd bc17 45be 2795 1e3e c952 fbbd
000002c0: 25e8 22bc b364 d9bd c89d acbd e3f4 053e
000002d0: b8b0 2d3e 9799 cabd 5382 193e 7a5f f3bd
000002e0: 1a9b 27be e534 4f3d 1fac 15bc f976 d03d
000002f0: 64a7 173e cccc 9dbd 0391 283d 3e61 9e3d
00000300: 58ae ec3b 92aa 02bd f5a6 6d3d ebef 2cbe
00000310: 9d10 31bc ffce fabd b30a 45be 2169 2d3e
00000320: df50 0ebe 8b8c abbd 05d0 2f3e a549 fcbd
00000330: 7e31 d0bc 3d5e 2b3e 7ea7 be3d 22dd e03d
00000340: a5b2 863d c4bb 81bc 299a 263e 2826 313e
00000350: d8fa b3bc 7c6b 80bd 9a28 a9bd add3 9f3c
00000360: 834b 21be 50b7 33be a9e3 48be 9693 c43d
00000370: bc89 243d a207 bb3d 90fc 43bc 92ba efbd
00000380: 5657 b43c 140d dcbc 043f 79bd a3ce 033e
00000390: 382d a4bd 13cc d63c ceb9 c3bd a9da f6ba
000003a0: fd07 163c c757 f9bd eb43 c53d 92e4 27bd
000003b0: 02de 11be 6e9d 0d3e 7524 b9bd 72c4 443e
000003c0: 1d96 20bd a202 403e 95fb 0abe 0450 84bd
000003d0: 2bd2 483e ef82 e3bc 0c61 b1bd 2745 983d
000003e0: ebfd 0fbe b231 033e 4032 96bd 1df5 323e
000003f0: ecfe 113e 38d3 2f3e e547 29bd 666d 0dbd
0.12844297 0.17928265 -0.06416606 0.1352645 -0.17373829 0.10455372 0.09288558 0.12524861
0.13398792 0.14325729 0.14330989 -0.16659376 0.04129788 -0.17806245 0.06691301 -0.07700273
-0.092300676 0.001517224 0.0271217 -0.12259406 -0.18873893 0.17996849 0.050855786 0.19804783
0.052601885 0.13154344 -0.17555113 0.0043271948 0.18792892 -0.0051353783 -0.078809634 0.039058533
-0.14294927 -0.12714879 -0.11307362 0.040154953 -0.17049949 0.10964787 -0.09763785 -0.17154571
-0.13608612 0.017208878 0.107756145 -0.036330517 -0.19402482 -0.00392055 0.18916272 -0.11332996
0.03056003 0.05818133 -0.11841359 -0.15347782 0.102985084 -0.106925584 0.01276583 0.17422894
0.08439646 0.118113115 0.15133575 -0.10035767 0.067415014 0.16242482 -0.1464702 0.059285987
-0.0762524 -0.17249227 -0.16094679 0.031653564 -0.1456859 0.11332507 -0.02019802 -0.04726185
-0.15218985 0.09349778 -0.12097381 0.14390856 -0.008519377 -0.1476865 0.15663737 0.16069803
-0.17677157 -0.114061385 -0.08650064 -0.14343487 0.025612447 -0.15261365 0.10668165 -0.16899423
-0.18143633 0.008121648 -0.004045254 0.04781072 -0.16546251 0.17921352 -0.16152063 0.15590917
0.18353091 0.04888108 0.047139704 -0.111177005 0.06323002 0.17081867 -0.17252524 0.17666143
-0.091499835 0.05123353 0.10308834 0.014704822 -0.11715165 -0.1183912 0.0127594 -0.114891626
-0.15519874 -0.19429086 0.20037238 -0.18425773 -0.13662568 0.08753482 0.13304792 0.19865945
0.08069949 0.18580513 -0.11038774 0.06830223 0.03270278 -0.18340544 0.1780451 0.06534889
0.107023455 0.11011034 0.06523318 -0.10693207 0.12903726 0.014439933 -0.09653112 0.11350568
-0.0093565965 0.033926368 0.13780962 0.15766637 -0.014447269 0.005575392 0.009903943 0.10109979
0.082780235 0.13104749 -0.06171906 -0.093009256 -0.04513012 0.121781304 0.1646733 -0.08973345
0.10500673 0.197303 0.14900725 0.015243835 -0.036526166 0.19654566 0.06985217 -0.07280667
0.046824083 -0.113811724 -0.1055645 0.16950862 0.11321013 -0.14542736 -0.034164555 -0.017658472
-0.096740104 -0.10863686 0.11831853 0.13619669 -0.06763814 -0.19247335 0.15486585 -0.122716494
-0.009943043 -0.1061491 -0.08428532 0.13081698 0.16961944 -0.09892576 0.14991121 -0.11883445
-0.1636776 0.050587554 -0.009135275 0.10178942 0.14809948 -0.077050775 0.04115392 0.07733391
0.007222932 -0.03190095 0.05802055 -0.16888396 -0.010807184 -0.122465126 -0.19242363 0.16934635
-0.13898037 -0.08376416 0.17169197 -0.12318734 -0.025414225 0.16735168 0.0930929 0.10979678
0.065770425 -0.015836604 0.16269745 0.17299712 -0.021970198 -0.06270501 -0.08259697 0.019510115
-0.15751462 -0.17550397 -0.19618095 0.09598462 0.040170416 0.09132315 -0.011962071 -0.11705507
0.022014301 -0.026861705 -0.060851112 0.12871794 -0.08016437 0.026220357 -0.09556924 -0.0018833476
0.009157178 -0.12174945 0.09632095 -0.040989466 -0.14244846 0.13829586 -0.09040157 0.19215563
-0.03920566 0.18751004 -0.13572533 -0.06460574 0.19611423 -0.027772395 -0.08661088 0.07435065
-0.14061706 0.12811926 -0.07333803 0.17476316 0.14257401 0.17170417 -0.04132833 -0.03452816

fc2.weight f4 [128, 256]
00000000: f1d1 4fbd 58cd 63bd 00de 0b3d a9b3 49bd
00000010: 8e70 8f3d f325 90bc 6847 97bd a419 1dbd
00000020: c9d7 84bc c612 1dbd ff2b 053c eed5 0fbd
00000030: 3572 393c 22c5 d0bc 1cd7 bcbc 897c 4a3d
00000040: 66f7 ef3b b68a bb3d 1911 90bd 9424 cbbc
00000050: ae6a ad3d f9c8 9cbd 9d0f 38bd d385 a5bc
00000060: 120d 9dbd b292 843d cbf1 86bd b31e 133d
00000070: e254 fa3c 463d 153d cc95 a03d 9609 163d
00000080: b0a3 593d dcae e63b a76c 873b b48f 25bd
00000090: 4570 a6bd 120d b83d a194 773c ee2f 78bd
000000a0: 3a70 1d3d 9602 993d 5079 083d b454 933c
000000b0: 7730 9a3d fe1e 9b3d 0106 9b3d 9454 243c
000000c0: 8010 8dbd da5c b1bc 3a22 a13d 0c42 0d3d
000000d0: 8800 b1bc f6a5 433b ca5b 4ebd bebb 98bc
000000e0: 41ce ae3d 2728 573c 1387 bcbc 7aaf 4bbc
000000f0: d5a9 80bd 65e1 493d f8a2 8fbd 79a6 53bd
00000100: 239e 223c 931f 273d 52d1 4e3d 78a9 f63a
00000110: 81b8 8a3d 749b a1bd a43b 73bd b8c3 acbc
00000120: aae3 993d afd6 463d b39f 91bd 7a87 8fbd
00000130: 1fda a3bd b3c1 a3bd ae4e 8f3d cf69 d53a
00000140: 74a5 0dbb 1404 ebba 91ab 24bd de27 4c3d
00000150: 7e53 86bc 14c5 853d 9448 9cbd 0e8b 4dbd
00000160: 0abf 6c3d 8a89 843c 4fcf a1bd c1de 003d
00000170: 68ff f8ba 6c74 eebc 2b17 b13d c198 7bbd
00000180: f069 263d 06d5 e8bc ce3b 123d c33a 9bbd
00000190: b6ff 0dbd 130a e73c c0b3 4dbd dc33 c13c
000001a0: 1bde 813d 3a4e 22bd 946b 143d 239e 283d
000001b0: daea 9c3c f821 56bd 6ac4 c3bc 01a6 fdbb
000001c0: 8678 20ba a90c 87bd 3634 8b3d b2f3 ae3c
000001d0: 05b8 acbc c6b7 293d e756 a7bb 33b1 4c3d
000001e0: e3b0 a93d b489 9bbc 330c e3bc 37b2 743d
000001f0: 5430 b3bc 2f6b 8e3d fdb8 563b ec94 1abd
00000200: 512c ae3d 4596 26bc 62de 923d 7167 1a3d
00000210: 9632 99bd 576d 823c 1c96 973d 1cbe 783d
00000220: 0c03 b93d 425f 90bd fbdc 383d b158 a1bd
00000230: 36e7 a4bd 43d0 37bd 2e32 96bc cb8d 133d
00000240: 11b5 38bd a3ae a7bc 0685 92bd c6ef 1e3d
00000250: 20d3 593b 021a 293c 05e7 f83c 2ea6 8f3a
00000260: 9897 5a3d 55cf 42bd 0104 173d 5029 983d
00000270: 249a 443d 720d 49b9 a0ba 8ebd 87e7 ac3d
00000280: 8c14 86bd deeb b43d dc4d 1d3d abb9 9a3d
00000290: c902 803d 58b9 8e3d 2ec1 98bd c352 1ebd
000002a0: 9c58 23bd 9985 323d 786b a7bc 0672 bcba
000002b0: b5d3 a7bd 5c83 473d 0103 11bd 8fd4 633d
000002c0: b0bd 06bd c12b b63d ff00 d73b 66b5 6c3c
000002d0: 5baa 843c 2452 a0bd 214b 71bb d097 623d
000002e0: 8428 0fbc 1f78 5c3c 4421 8f3d 64d0 a73d
000002f0: 9f1d a2bd 85f8 503d bec2 bc3c 9091 da3c
00000300: 83cf f2bc f812 4cbd 1085 4cbd e506 8ebc
00000310: 49dc 773c 3f93 1abd 569a 4d3d 43e2 b53d
00000320: 52eb 013d 0ca2 6b3d 5fb9 823d 2876 e9bc
00000330: a07e ae3d 9e35 72bd 4094 7bbd eede 52bb
00000340: 9065 23bd 89e1 b03c fa43 863d 7b0e a23d
00000350: e436 773d fff6 c53c b073 8f3d 0bbc f53c
00000360: 4805 46bd 0c28 9d3c 1a91 e53c ee4f 9e3d
00000370: c4a0 30bb d1d8 89bd 2261 8d3b 0d45 3dbd
00000380: 79ef 2dbc 3107 1dbd 7a98 32bc c53d 273d
00000390: ddd7 a2bb 0bd0 f7bc acf5 4cbd 7537 f0bc
000003a0: ea7a 46bc ef12 c0bc 9039 103c 7916 5a3d
000003b0: 02d2 a53c 079d bf3c aae0 b83d 7286 e4bc
000003c0: 02a7 a03d 7ec2 9abd 880a a53b c152 74bc
000003d0: 8a68 b13d b201 113d 459b 9c3d 2565 a3bd
000003e0: e2ab 62bd 51cb 09bc 447d 543b c066 2a3d
000003f0: a2f1 fbbc eea6 ad3d bf84 cb3a bd10 a0bd
-0.050737325 -0.055615753 0.034147263 -0.049243603 0.0700389 -0.01759622 -0.073866665 -0.03835453
-0.016216176 -0.038347982 0.008128165 -0.03511613 0.011318733 -0.025484625 -0.02305179 0.049435172
0.0073231934 0.091573164 -0.07034511 -0.024797715 0.08467613 -0.0765552 -0.044936765 -0.020205414
-0.076685086 0.064732924 -0.06589087 0.03591795 0.030558053 0.036435388 0.078410715 0.036630236
0.05313462 0.007039888 0.0041328254 -0.04042025 -0.081268825 0.08986868 0.0151111195 -0.060592584
0.038437106 0.07471196 0.033318818 0.017984726 0.07528775 0.07574271 0.075695045 0.010029931
-0.06887913 -0.02165072 0.07867856 0.034486815 -0.021606699 0.002985356 -0.050380506 -0.01864421
0.085354336 0.013132132 -0.023013627 -0.012431974 -0.06282393 0.04928722 -0.07013506 -0.051672433
0.009925398 0.040801596 0.050492592 0.0018818816 0.067734726 -0.078909785 -0.05938305 -0.02108942
0.075141266 0.048544582 -0.07110538 -0.07008262 -0.08000588 -0.079959296 0.06997429 0.0016282144
-0.002161351 -0.0017930293 -0.04020268 0.049842708 -0.016397234 0.0653173 -0.07631031 -0.05018144
0.057799377 0.016178865 -0.07900869 0.031462435 -0.0018997015 -0.029108249 0.08646997 -0.061424974
0.040628374 -0.02842189 0.035701565 -0.07579567 -0.034667693 0.028203046 -0.05022025 0.023584299
0.063411914 -0.039625384 0.036235407 0.041166436 0.019154955 -0.05227849 -0.023897368 -0.0077407365
-0.0006121475 -0.065942116 0.06797068 0.021356437 -0.021083841 0.041435026 -0.005106795 0.049973678
0.082856916 -0.01898656 -0.027715778 0.05974027 -0.02187363 0.069540374 0.003276407 -0.03773968
0.085045464 -0.010167663 0.071713224 0.037696306 -0.074803516 0.015921278 0.07401678 0.060728177
0.09033784 -0.07049419 0.04513262 -0.07878245 -0.080519125 -0.04487635 -0.018334474 0.036023896
-0.045094553 -0.020469015 -0.071542785 0.038802885 0.0033237413 0.010321142 0.030383596 0.001095956
0.053367227 -0.04756101 0.036869053 0.07429755 0.047998562 -0.00019173863 -0.0696919 0.08442598
-0.06546888 0.088340506 0.03840433 0.075549446 0.06250531 0.06968945 -0.07458721 -0.038653146
-0.039879426 0.04358444 -0.020436987 -0.0014377243 -0.08194677 0.04870926 -0.035403255 0.055622634
-0.032895744 0.08895064 0.006561398 0.014447546 0.016194513 -0.07828167 -0.0036818462 0.05532056
-0.008737687 0.0134563735 0.06988767 0.08194044 -0.07915806 0.051018257 0.023042079 0.026680738
-0.029639965 -0.049822778 -0.049931586 -0.017337272 0.015128204 -0.03773808 0.050196014 0.088810466
0.03171856 0.057527587 0.06383013 -0.028498724 0.085202456 -0.059133165 -0.06142068 -0.0032176333
-0.03989178 0.021591919 0.06555934 0.07912918 0.060355082 0.024165628 0.070044875 0.029996892
-0.04834488 0.019184135 0.028023291 0.07730089 -0.0026951293 -0.067308076 0.0043145576 -0.04620843
-0.010616177 -0.038336936 -0.010900611 0.040830392 -0.0049695806 -0.03025057 -0.05003898 -0.029323319
-0.012114266 -0.023446528 0.0088027865 0.053244088 0.020241741 0.023390306 0.09027226 -0.02789614
0.07844354 -0.07556628 0.005036656 -0.014912308 0.08662517 0.035402007 0.07646803 -0.07978276
-0.0553397 -0.008410291 0.0032423297 0.041601896 -0.030754868 0.08479105 0.0015527232 -0.078156926

fc2.bias f4 [128]
00000000: 46f0 f33b d769 3c3d 0406 07bd e41b 65bd
00000010: bea5 0fbd d4b0 333c 9df5 cd3c 545c 8dbb
00000020: 5ec4 70bc b377 cbbc d316 353d 2453 3bbd
00000030: 0ade 4e3d ba07 d33b a9b9 61bd c096 eb3c
00000040: c01b e9bb 581a 00bd e9fd c93b e740 15bd
00000050: 8f45 323d 1c5c 58bd d8d9 bebc 8870 0e3d
00000060: 731b 44bd 14f3 51bd c49d 903b 5242 d2bc
00000070: 5f96 dabc 6a8e 523d 9adf 843a bc8e 4c3d
00000080: 1214 81bc 8fce 69bc d39d 743d ce90 6a3d
00000090: dc24 083c e963 70bd 2cf7 313d 133b 053d
000000a0: 87e8 663d 8d26 583d 6913 3fbd 1ccd e73c
000000b0: d391 8cbc 17f3 3bbd dc59 6ebd e5b7 72bd
000000c0: c9f9 813d 704c d0bc 602d 6a37 7ead 623d
000000d0: 520a eebc 4334 12bd 619e ccbc 017d 1f3d
000000e0: a5a7 4ebd 65c9 21bd b2fc 59bd c883 a1bc
000000f0: 9b75 86bc 1074 1ebd b064 b6bc c392 19bd
00000100: 1b2d 4e3d fc1c 713d 53b8 c73c 4c77 24bd
00000110: a94b af3b 79cb 373d 7a20 313b fa0c e0bc
00000120: b753 3dbd c692 42bd b1de d53c 3a9a dabc
00000130: 2b8b 903c 0b92 1abd 4cc5 4c3d a069 5ebd
00000140: 566d 733d dda9 0a3d 1746 59bd 3b0b 8b3c
00000150: 36d2 8c3c 12ef 2b3d 01e4 5abd 6ca8 b13c
00000160: eaee ee3c 0cb4 fdbc f870 64bd 1acd 1ebd
00000170: 5f35 0abc 2f25 0a3d d21c 7f3d f8fe 273b
00000180: 3aa6 0c3c 4ca0 78bd 207b 20bd 2442 3c3d
00000190: ee0b 0f3c 081f 443d e9d8 f6bc f7f4 f6bc
000001a0: 5188 9ebc 33fb c63c 4690 3cbd 148d b73c
000001b0: 092f 7e3d f96d 13bc 031c 5cbc 8a68 1ebc
000001c0: 8ec4 343c a891 0dbd 6f93 22bd 65ee 11bd
000001d0: b222 0c3d 0525 16bd bf22 833d e63b 783c
000001e0: f7d9 883c be64 723c 09df c8bc 6a2f 963c
000001f0: 6eee 453d 34ff 7d3d 0656 1fbd d09e 0e3d
0.0074444143 0.045999374 -0.03296472 -0.0559348 -0.035070173 0.010967452 0.025141532 -0.004313985
-0.014695255 -0.02483735 0.04421122 -0.045733586 0.05050472 0.00644013 -0.0551087 0.028758407
-0.0071139038 -0.031275123 0.0061643017 -0.03643885 0.043523367 -0.052822217 -0.023297235 0.034775287
-0.04787774 -0.051257208 0.0044133384 -0.02566639 -0.02668303 0.051405348 0.0010137439 0.04994081
-0.01575664 -0.014270439 0.059720825 0.057267003 0.008309569 -0.05868903 0.043448612 0.03252704
0.0563741 0.05277114 -0.04664937 0.028296046 -0.017159378 -0.045886125 -0.058191165 -0.059257407
0.06346471 -0.025427073 1.3958052e-05 0.055341236 -0.029057655 -0.035694372 -0.024977865 0.038937572
-0.050452847 -0.039498705 -0.053219505 -0.019716159 -0.0164135 -0.038684905 -0.022264808 -0.03749348
0.050335985 0.058865532 0.024379885 -0.040152833 0.0053495956 0.04487178 0.0027027414 -0.027349938
-0.046222415 -0.047503255 0.026107164 -0.02668487 0.017644485 -0.037736934 0.049992844 -0.05429995
0.059430443 0.0338534 -0.05304536 0.016973129 0.01719008 0.041976042 -0.053440098 0.021686755
0.029166657 -0.030969642 -0.055771798 -0.03876982 -0.008435576 0.033726867 0.062283345 0.002563415
0.008584553 -0.060699746 -0.03917992 0.045961514 0.008730872 0.047881156 -0.030132728 -0.030146105
-0.01935211 0.024289703 -0.046036027 0.022406138 0.062056575 -0.0089983875 -0.013434413 -0.009668479
0.01103319 -0.034562737 -0.039691385 -0.03562774 0.034212776 -0.0366564 0.06403112 0.015151
0.016705496 0.014794527 -0.024520414 0.018333156 0.048323087 0.06201096 -0.038900398 0.034819424

fc3.weight f4 [2, 128]
00000000: ab3a f7bb 0854 c1bb 81f0 c5bb 6a36 6ebb
00000010: 01ec 69bb 22bf 9abb ead5 b6bb 79dd 223b
00000020: 266e 6ebb 1000 a2bb a960 47ba 5a23 1a39
00000030: 1fa4 1b3b 2dea 40bb e96d 1ebc 6785 aebb
00000040: 318e d7bb 9038 65bb 278c 06bc 28c0 5f3a
00000050: dd08 a53a 5f08 fbbb 25e0 ecbb a361 d4ba
00000060: 260c aabb f2e3 f33a cc90 5cbb 9740 a7bb
00000070: 46f5 cabb c276 24bb 0e76 c5ba 5ec5 ebbb
00000080: 1b46 9ebb 979c 30bc 59be 90bb e2be 96ba
00000090: 5d51 0bbc a9ae abba c9a1 5cbb 5e69 1bbc
000000a0: 8a6f c9ba 3df8 2abc 4389 3abb 36bf afba
000000b0: 1bb5 cdbb 98bd 87bb 0355 08ba 4273 a7bb
000000c0: b5a0 babb 6058 f6ba a830 76ba 1812 06bc
000000d0: 79b7 37bc 304d 01bc e446 10bb 704a 21bc
000000e0: 2a62 f4bb f982 e8ba f091 1bba a77c c2bb
000000f0: ef98 00bc 138d f6ba 9f0d d5bb d257 48bb
00000100: bfad 00bb fb5c d0bb a0d9 e3b7 1007 47bc
00000110: 933f babb 20c4 3bba d6e5 16ba 65f5 85bb
00000120: 566a 2dbc ad84 3bbc 7314 e1bb 506e 14bc
00000130: b468 afba 3c50 b4bb 29d2 c8ba c9fa 1d3a
00000140: 6613 02bb 1d71 02bc 0d28 05bb 4459 d6b9
00000150: 0a2b 15bb 7d4c 08bc 83c8 a7bb 6a90 d5ba
00000160: 7366 a7bb 685c 66bb 97be 41bb 3a96 4bbb
00000170: 20ad 9fba 4551 08bc 56e1 553b 30a9 eabb
00000180: e37f 9aba 0af6 b5bb 7e7b 0c39 ceeb 9439
00000190: 0d71 10bc fbef 51bb d154 07bb 61e3 1ebb
000001a0: 6657 48bb b5e5 69bb 7855 20bb 82f0 73ba
000001b0: 318e 7ebb 083b 0abc b42b 29bc c7ee 3cba
000001c0: 9146 04bc f8ac 43bb f815 b7bb 1848 8f3a
000001d0: d4b4 35bb 423b 13bb f8d6 a7bb 3f8b a4bb
000001e0: 7566 e2bb 2230 74bb fb59 81bb aa1a 2bba
000001f0: 152e afba b6d7 a53b 6713 b6ba 2961 eabb
00000200: d7af a73b 655e d53b 663c 9e39 76f3 8f3b
00000210: ef01 d23b 0263 a13b 8d4a 8a3b a576 59bb
00000220: 0af8 ab3a 8a01 9a3b 23ba 83bb f52f 31ba
00000230: 00b3 c7bb 7d84 19b9 d10f 083c 6630 a33b
00000240: 2463 e93b 7acf 6bba 73f1 d23b 8216 be3a
00000250: 9aa0 3dbb 0241 d93b f920 513b 017a 123b
00000260: 9d1f c73b 34d0 7bbb 7523 8aba 9ffe db3b
00000270: a60b 913b 0bc3 5b3b 38c7 b03b 8d79 fb3b
00000280: 3fa3 e63b 2979 5c3b 9653 053b 4825 96bb
00000290: d98b c23b d8ec 19bb c0b6 c03b c9e4 df3b
000002a0: 87a5 dab9 4963 9e3b 9a6a 3739 9a99 c53b
000002b0: ed0c 5f3b b0ed dd3b b3f3 5d3b 1ee3 c13b
000002c0: ad3d e03a e053 953b 71f6 813a 6558 d33b
000002d0: 2837 e53b 67a7 df3b 1cc3 023c d97c 093c
000002e0: c837 ba3b 7b0d 2bbb 1325 e03a 721d 8c3b
000002f0: 5b98 073c b657 48b8 00e8 d53b fa05 a83b
00000300: 561b 9a3b 184a e43b 960d 7fbb af70 873b
00000310: 5453 723b eca2 a43b c32e 303b eb9a 903b
00000320: 0b79 9d3b aaa2 933b 4297 123c 0cde 833b
00000330: f06c 703a a80e c03a 402f fa39 fb7d 9239
00000340: c874 953b 435a 163c 12d9 c9b8 e37c 0dbb
00000350: e292 e53b ca0e 0dba a17f 823b 2b0c 4bba
00000360: 6613 42ba 2605 153b a09c 9f3a b649 34bb
00000370: dc20 2fbb bed1 023c bc15 38ba 2994 c13b
00000380: c89e d139 975e 953b 0cfe 913a 6d10 fdbb
00000390: 3cb1 3b3c 94d1 81ba d045 0d3b 3f34 a33b
000003a0: a427 b63a 6493 383b 4075 203b e4c1 4dba
000003b0: 22fd b63b 0ef0 b63b 7f43 3a3c 12f6 9dba
000003c0: bf78 e13b f9c6 413b 3b5a 7bb9 a87f 8b3b
000003d0: d85c 27ba b697 86ba 2043 093c c88f d63b
000003e0: a957 a43b fc19 863a 5a90 e33b 39fb c8ba
000003f0: 047b 813b f074 40bb 777f 9c3b 8d27 af3b
-0.0075448356 -0.00589991 -0.006040633 -0.0036348351 -0.0035693648 -0.004722492 -0.0055796998 0.0024851246
-0.0036381572 -0.004943855 -0.0007605651 0.00014699754 0.0023748947 -0.0029436455 -0.009669759 -0.0053259614
-0.00657823 -0.003497634 -0.008212126 0.00085354084 0.0012591142 -0.00766091 -0.0072288685 -0.0016203414
-0.0051894365 0.0018607362 -0.0033655642 -0.0051041353 -0.0061937897 -0.00250952 -0.001506509 -0.007195159
-0.0048301346 -0.010779521 -0.0044172225 -0.0011500979 -0.008503285 -0.0013098317 -0.0033665767 -0.009485571
-0.0015368324 -0.010435161 -0.0028463162 -0.0013408426 -0.006277693 -0.0041424744 -0.0005200656 -0.0051101753
-0.0056954273 -0.0018794648 -0.00093914056 -0.008183025 -0.011213177 -0.007891938 -0.002201491 -0.009844407
-0.007457991 -0.0017739228 -0.0005934527 -0.00593527 -0.007848962 -0.0018810354 -0.006501868 -0.0030569923
-0.001963481 -0.0063587404 -2.7161848e-05 -0.01214768 -0.005683848 -0.0007162709 -0.0005756294 -0.004088091
-0.0105844345 -0.011445207 -0.006868893 -0.009059504 -0.0013382644 -0.0055027287 -0.0015321422 0.00060264446
-0.0019847988 -0.007961539 -0.0020318062 -0.0004088377 -0.002276125 -0.0083190175 -0.0051203384 -0.0016293649
-0.0051086484 -0.0035150293 -0.0029563063 -0.0031064884 -0.0012182333 -0.008320157 0.0032635531 -0.007161282
-0.0011787381 -0.005553012 0.00013397445 0.00028404448 -0.008816016 -0.0032033909 -0.002064992 -0.0024244415
-0.0030569672 -0.0035689895 -0.0024465006 -0.0009305553 -0.0038842077 -0.008436926 -0.010325361 -0.00072072115
-0.008073465 -0.0029857736 -0.0055873357 0.001093152 -0.002772619 -0.002246574 -0.005122062 -0.0050214822
-0.0069091865 -0.0037260135 -0.003947494 -0.00065271056 -0.0013365174 0.005061115 -0.001389128 -0.0071526957
0.0051173973 0.006511497 0.0003018111 0.0043930365 0.006408922 0.0049251327 0.004220313 -0.003318229
0.0013120186 0.0046998905 -0.004019992 -0.00067591603 -0.0060943365 -0.00014640573 0.008304552 0.004980135
0.007122414 -0.0008995455 0.0064374744 0.0014502557 -0.0028934837 0.006630064 0.0031910522 0.0022350552
0.0060767666 -0.003842366 -0.0010539131 0.006713703 0.0044264374 0.0033533003 0.0053948425 0.007674402
0.0070385034 0.0033641553 0.002034401 -0.004582081 0.0059370813 -0.0023487117 0.0058811605 0.0068326932
-0.00041703528 0.004833613 0.00017491952 0.0060302736 0.0034034804 0.0067727193 0.003386718 0.005916967
0.0017108225 0.004557118 0.0009915364 0.0064497464 0.0069951005 0.006825376 0.007981088 0.008391582
0.005682919 -0.0026100564 0.0017100893 0.004275971 0.0082760705 -4.7765403e-05 0.0065279007 0.0051276656
0.0047029657 0.0069668405 -0.003891801 0.004133306 0.0036975937 0.0050243046 0.002688334 0.004412999
0.004805689 0.004505475 0.0089471955 0.004024273 0.00091715064 0.0014652805 0.0004771892 0.00027941153
0.0045610406 0.0091767935 -9.6248594e-05 -0.002158933 0.007006035 -0.0005380927 0.0039824997 -0.00077456486
-0.0007403403 0.0022738664 0.0012177415 -0.0027509755 -0.0026722467 0.007984577 -0.00070222816 0.0059075546
0.00039981888 0.004558395 0.0011138334 -0.0077229054 0.01145583 -0.0009904378 0.0021556504 0.0049805935
0.0013897312 0.0028164024 0.002448395 -0.00078490213 0.005584375 0.005582816 0.011368631 -0.0012051484
0.006880849 0.002956806 -0.00023970839 0.004257161 -0.0006384379 -0.0010268602 0.00837782 0.006547902
0.0050153327 0.0010231133 0.0069446983 -0.0015333659 0.003951432 -0.0029366575 0.004775937 0.005345291

fc3.bias f4 [2]
00000000: cd88 643d b7ef 73bd
0.055794526 -0.05955478
