checkpoint_critic_2.pth (torch_old, 187301 bytes, 5 tensors)

fc1.weight f4 [256, 52]
00000000: 11af d23c 8340 0d3d 47fb 133d e193 d73c
00000010: a8a5 78bd f4b2 bf3c 566a 2c3d 969f b03c
00000020: 2814 58bc 6d0b e2bc d1e1 9c3c c0ed 09bd
00000030: dd20 21bd 00c5 0d3d b63d 55bc d98e a83c
00000040: 70ff b0bc 3578 a8bc dc14 a8bc 197f 553d
00000050: b53d 033b 843f 5abc a1a6 64bd 7e0c a3bc
00000060: a97b e1bb 45f0 6a3d 5c44 df3c 9f59 763d
00000070: 3042 08bd 7e93 893c 0c9e 60bc b184 ddbb
00000080: ad83 85bd 6aff 343c fd4b 6e3d 9fc6 a93a
00000090: a2df 0ebd a9e5 9bbc ef62 24bc 15e0 a5bc
000000a0: a271 3cbd 150f 34bc 4507 853d 33ad 3e3c
000000b0: a272 f2bc 3a90 833c e057 513a db7b 26bd
000000c0: 9dcd 613c 970a b9bb e034 5abd 7794 3dbd
000000d0: 1cab 313d 5480 40bd 60a6 4bbd 5a77 343b
000000e0: bd90 3d3c a58a 483d d751 87bc fc87 893d
000000f0: 2b48 aa3c ae17 4fbd 70ca 3bbc 2219 bd3c
00000100: 77fc a3bb 09f0 87bd 23fa 48bd c2cb de3c
00000110: fc2e 8bbc ba3a 523c 327a 72bd 4962 ccbc
00000120: 12e7 693c 5e3e 89bd 4340 ee3b e8ca 583d
00000130: 8628 95bc 4859 8dbc 17e2 84bd 49a9 063d
00000140: d694 2bbd 99b6 913c 095a b2ba c626 223d
00000150: 75c1 373d bc63 8cbc 0e9e 103d 817d 63bd
00000160: 0be8 a43c 5879 083c e48b 0dbd 8d51 163d
00000170: 3d92 623d 5339 4a3d a07a 933b 76a4 37bb
00000180: 396a d73c 5595 073d 6146 fc3c 69ec 3ebd
00000190: bc1f 2fbc cd20 0abd fbd1 1b3d 11e0 10bc
000001a0: e66d 73bd 3808 be3c 780b 72bc d9ff 6dbd
000001b0: 245b 2fbc 9130 6e3d 7f29 9b3b 7dbf 72bd
000001c0: a28d 8e3c 43b0 3c3d 0df7 68bd c601 083b
000001d0: 5949 13bd 6592 a03c 41f8 403d 18e3 25bc
000001e0: 2346 18bc 3e52 953a dd8d 7d3c fa01 673d
000001f0: 4a39 483d 4cbb 74bd 23f5 ad3c e3bf 9abc
00000200: 0347 88bc 6598 5ebd 9b53 353d 30bb 13bc
00000210: 3744 f9bc 784a 6ebd 3637 063d d0eb dd3c
00000220: d0f4 0ebd fd3a 37bd cdde 633d c41d 5d3d
00000230: 4cec 173d dd26 58bd e2f9 24bc e245 17ba
00000240: 9e4c babc 3d66 173c 6041 af3c de78 013c
00000250: e34d 3abb 0030 5d3c 14a4 0c3c 0b7b 34bc
00000260: 5d46 adbc 9bf4 d6bc 29f8 edbc 30f5 0a3d
00000270: 2b95 863b a549 ae3c fa83 eabc 4d1f 1a3d
00000280: 2305 dd3c 54c8 eabc 35d2 a43d 90de 6f3c
00000290: d4a7 29bd 000c 103d 9c19 3a3d ae9c 12bd
000002a0: 1e26 573d 0e67 183d e610 1fbc c90b 273d
000002b0: 3e64 333c 7b37 6dbc f1a8 3f3d 4725 9fba
000002c0: c083 823d 62e5 71bd e10e 183d f516 39bc
000002d0: 03b6 243d 5795 8ebc f8ef d23c f45e 2fbd
000002e0: 3a42 e53c 1f82 5e3b 6e26 b2ba 05fe 35bc
000002f0: 7032 b0bc f522 b9bc e203 2d3d 146d 4d3c
00000300: c55f 523d 49bf 66bb c8d8 81ba 2a65 553d
00000310: 223b 08bd 7dea 46bc e7c4 00bd 22ae 99bb
00000320: 1c4f 62bd 62e1 5dbd ab06 483d e392 d33c
00000330: 5a27 8fbc 3e4d a8bc a40d 3ebd 4778 b23c
00000340: 810f 373d d1bc 613c d47d 5c3d 5737 613c
00000350: e838 ebbc 5bf0 a93b c5a0 7fbc b579 26bd
00000360: e544 7abd 779a 75bc 295a f33c 23eb 273d
00000370: 79e6 c13c ea57 543d dee8 863c 79e7 4fbc
00000380: a04e c03c 5026 063d 1fb3 363d b704 0e3c
00000390: f98a 583a 815b 643d 29cc 123d 2450 3b3d
000003a0: fd9c 8e3c 65af a13c f8d1 d6bc 232b c0bc
000003b0: 92f6 c73c be2f 7f3d 689a fc3c 7437 d83b
000003c0: d372 963b 9a61 68bc 08d8 4bbd c182 83bb
000003d0: 3f92 1fbc cbfa 66bd 80c4 b03c 330a 10bd
000003e0: dc7d 67b9 fc9f ec38 de92 0d3d f8a8 6dbd
000003f0: 0227 8bba 8445 a53c 7d2e 0d3d c621 023b
0.025718244 0.03448535 0.03612831 0.026315631 -0.060704857 0.023400761 0.042093597 0.021560472
-0.013188399 -0.027593339 0.019150646 -0.033674 -0.03933798 0.034611702 -0.013015201 0.020575928
-0.021606177 -0.020565132 -0.020517759 0.052123163 0.0020025794 -0.013320807 -0.055822972 -0.019903418
-0.0068811965 0.057358045 0.027254276 0.060144063 -0.033266246 0.016793963 -0.013709556 -0.006760203
-0.06519256 0.011047224 0.058177937 0.001295287 -0.03488124 -0.019030409 -0.010033353 -0.020248452
-0.046006806 -0.010989924 0.06495527 0.011637974 -0.029595677 0.016059984 0.00079858117 -0.04064546
0.013781932 -0.0056470144 -0.05327308 -0.046284165 0.043376073 -0.046997383 -0.049719214 0.002753696
0.011570153 0.048960347 -0.016518516 0.0671539 0.020786365 -0.050559692 -0.011461839 0.023083273
-0.0050044614 -0.0663758 -0.049066674 0.027196769 -0.016990177 0.012831384 -0.059198566 -0.02494921
0.014276283 -0.06701349 0.007270844 0.05292788 -0.0182078 -0.017254487 -0.06488436 0.032876287
-0.041889988 0.017787265 -0.0013607155 0.03958776 0.04486223 -0.0171374 0.035306983 -0.05553961
0.020130178 0.008329712 -0.03455724 0.036698867 0.055315245 0.049371075 0.004500702 -0.002802161
0.026295768 0.0331014 0.030795278 -0.046612177 -0.010688718 -0.033722688 0.03804205 -0.008842484
-0.05943098 0.023197278 -0.014773242 -0.058105323 -0.010702882 0.058151785 0.0047351713 -0.05926465
0.01740152 0.046066534 -0.05687623 0.002075301 -0.03595862 0.019601056 0.047111753 -0.010124944
-0.009294066 0.0011392308 0.015475717 0.05639837 0.04888276 -0.059748933 0.021235054 -0.018890327
-0.016635424 -0.054344554 0.044269186 -0.009016797 -0.030428035 -0.058176488 0.032767497 0.027089983
-0.03490144 -0.04473399 0.0556324 0.053983465 0.037090585 -0.052771438 -0.010069342 -0.0005770606
-0.022741612 0.009240684 0.021393478 0.007902352 -0.0028427772 0.013500214 0.008584041 -0.011015664
-0.021151716 -0.026239684 -0.029048996 0.033925235 0.0041071377 0.02127535 -0.028627384 0.037627507
0.026979988 -0.028659977 0.08047906 0.014640465 -0.04141982 0.035167694 0.04543458 -0.035793953
0.052526586 0.037207656 -0.009708619 0.040782724 0.010949193 -0.01447856 0.046791974 -0.0012141847
0.063727856 -0.059056647 0.037123565 -0.011296977 0.040212642 -0.017405195 0.025749192 -0.042815164
0.02798568 0.003395207 -0.0013591775 -0.011107926 -0.021508425 -0.022599677 0.04224003 0.012538213
0.051360864 -0.003520923 -0.0009906525 0.05209843 -0.03325952 -0.012140867 -0.03143778 -0.0046899477
-0.055251226 -0.05417002 0.048834484 0.025826877 -0.017474819 -0.020544644 -0.046399727 0.021785868
0.04469252 0.0137779275 0.053830937 0.013746104 -0.028713658 0.0051861233 -0.015602295 -0.040643413
-0.06110086 -0.014990441 0.029706078 0.04099573 0.023669468 0.051841654 0.016468462 -0.012689465
0.023474991 0.03275138 0.044604417 0.008668116 0.00082604546 0.055751327 0.035839234 0.045730725
0.017408842 0.019736955 -0.026223168 -0.02345807 0.024409566 0.06230139 0.030835345 0.0065984074
0.004591325 -0.014183426 -0.04976657 -0.00401339 -0.009739458 -0.05639152 0.021578074 -0.035165977
-0.00022076763 0.00011283156 0.03456389 -0.05802247 -0.0010616484 0.02017475 0.034468163 0.0019856556

fc1.bias f4 [256]
00000000: 1b84 eabc eb19 0fbe 63b0 1ebd 406d abbc
00000010: 0183 c7bd 2500 d93d 3b3f a73d 493d 983d
00000020: f45a 043e 2e6f 87bd c2fc 1d3d ca0d c93d
00000030: 9f59 c03d 7bf7 3c3d 0114 883d dd21 f83d
00000040: 0d02 ee3d 7e38 f9bd 3123 d83d 9d4d 68bd
00000050: 50d6 ae3d bfd8 0ebe bb0f ff3d 0115 f23d
00000060: 1d52 2bbd c74a 013e 0791 553c c539 bebd
00000070: f257 633d 095c abbd 4b6f 9cbd 882e f13d
00000080: 0b86 abba 5485 a2bd a036 06be e1e7 28bc
00000090: 1b1d 5d3c b189 d9bc ea36 573c 93f1 e43d
000000a0: 5d18 0cbe 4dd5 cf3c e077 88bc 8725 07be
000000b0: b0e4 06be 1fb3 5dbc 1bc7 07be 5f87 053e
000000c0: 8d16 f3bd cb7e 40bc 46b5 92bb 63a1 9fbd
000000d0: f503 083e c7d4 02bd e347 2dbd 5ac7 e13d
000000e0: ec9a 833d e6c9 30bd 0c78 04be fd2d e2bc
000000f0: 6637 31bd 647e 23bd cbdb 973d 0946 67bc
00000100: 2881 1a3d 85d9 ca3d baea 18bb 5226 ee3d
00000110: e429 803d f927 d6bd 633d 853d 66e4 46bd
00000120: 7213 df3d 03ad 183d d51f c2bd 7eef aebd
00000130: ce58 0ebe 5e05 01be 6c36 b3bd e0ae 023d
00000140: 0c10 2cbd 7371 bf3c 9a61 f7bd 4aab 81bb
00000150: 02ba 95bd e08e 283d f67e bcbd 6fc2 813d
00000160: a7b3 62bd f6ea 793c 92a3 63bd 0279 d43d
00000170: be81 903b a898 853d a559 62bd 4388 cc3d
00000180: 8594 67bd ef99 b13d e01c f23d f189 87bd
00000190: 8944 fe3c de3f 833c 31a5 0c3a a71d 763d
000001a0: 8eac f23d 9a74 bf39 b9da cc3c a1a9 a83d
000001b0: fdaf f5bd 5869 a43d 0224 f939 266b d3bd
000001c0: a57b 583d 5ead 88bd fd23 eebd 532f 36bd
000001d0: 8b4e ad3c 4961 8b3d 6d8b 52bd f8a8 d83d
000001e0: ff48 d1bd b735 cfbd b099 473d ed48 053e
000001f0: 28b5 d23d 2fb2 c93d 7bb6 fb38 a7c0 73bd
00000200: 2e1f d7bd 9250 d5bd 071f 313d 23d4 4bbc
00000210: ffcc c4bc 63c7 12bd 6092 7bbb b5c5 a4bd
00000220: d3b5 0cbd 98a9 ea3d 029c 99bd e217 00bc
00000230: 97ac ddbd 234d 82bd b66d 383d 6f54 683d
00000240: 33ee e8bd 7a59 d13d da6b fe3c cfe9 973d
00000250: cc03 a9bd a7a2 a83d 41dc 04be 6de8 dbbd
00000260: 30bc c43d 9eb2 32bd facb 453d bfd5 783d
00000270: bfe1 87bd 9d9b adbd fefd 993d 8a2e b13d
00000280: f4ec ec3b 469f a23c 4ffd 433d e025 343d
00000290: 2565 0a3e 0799 a439 ab92 a0bd f440 80bd
000002a0: 3c96 b9bd f008 6fbb c4d7 c83c a843 023b
000002b0: af1f d43d ce76 1cbc 1365 e53d 84fa 77bc
000002c0: 3b1b 35bd 53e2 aa3d bdb7 2b3d 81f0 d6bd
000002d0: 74d1 833c 5b29 04be 6c48 b7bd fc76 d6bd
000002e0: 55d8 42bc 75c8 59bd 0774 ec3d f382 a2bd
000002f0: 6633 00bd be13 aabd 4bdc 9fbd c2af 503d
00000300: eb94 9b3d 8dd2 cabd 0676 fe3d dd06 c83a
00000310: aed9 6c3d b5a3 debb 26a8 d8bc 844d c73d
00000320: cb12 77bd 2e49 a73c 2d48 973d cd10 02be
00000330: b866 023c 7489 dabd e9d8 febd 2111 19bd
00000340: c6f4 8ebc 7908 61bd 1a0f 0ebd feac 87bd
00000350: 9c00 e23d 6357 d9bd dc99 c9bc b894 9a3c
00000360: f211 823d ea37 4bbd d96a 793d 098b 06be
00000370: 421e 0abe 13f8 2fbd ab0c 833d e0dd 2cbd
00000380: 4d89 003e 9f49 093c dc01 013e f9e5 a63d
00000390: 702b 723d ec51 3f3d f0ab e0bd 5f77 d1bc
000003a0: 2ba7 7f3d 6e24 07be f252 88bd 80fb 08be
000003b0: bf51 953d e6a7 963d 8d1f 64bd 1509 9abd
000003c0: bf2a eebd d402 03bd 7d91 283d 87d9 ce3d
000003d0: 0377 f4bd d9dc 58bc 6303 2b3d 27bb d9bd
000003e0: d98e 83bd cc8d b63d 6fab f2bd 3b34 0abd
000003f0: fe16 04bc 16f2 e03c 84ea fd3d 7099 0abd
-0.028627446 -0.1397473 -0.038742434 -0.020926118 -0.09741784 0.10595731 0.08166357 0.07433564
0.12925321 -0.06613003 0.038571127 0.09817083 0.09392094 0.046134453 0.066444404 0.12115834
0.11621485 -0.12168978 0.10553587 -0.056714643 0.085369706 -0.1394987 0.12454172 0.118204124
-0.041826356 0.12626182 0.0130350655 -0.092883624 0.055503793 -0.08367164 -0.07638415 0.11776453
-0.0013086213 -0.079355866 -0.13106775 -0.0103091905 0.013495709 -0.026554914 0.013135651 0.11178889
-0.13681169 0.025370264 -0.016658723 -0.1319791 -0.13173175 -0.013531475 -0.13259546 0.13039921
-0.118695356 -0.01174898 -0.004477176 -0.07794454 0.1328276 -0.0319412 -0.042304885 0.110243514
0.064260334 -0.043161295 -0.12936419 -0.02760982 -0.043265723 -0.039915457 0.07414969 -0.014115819
0.03772083 0.0990477 -0.0023333267 0.11628403 0.0625799 -0.10456843 0.06505849 -0.04855766
0.10892381 0.03727437 -0.09478728 -0.08541773 -0.13901064 -0.12599704 -0.087506145 0.031905055
-0.04200749 0.023369526 -0.12079163 -0.003957187 -0.07310869 0.04115188 -0.092039034 0.063359134
-0.05534711 0.015253773 -0.055575915 0.10374643 0.0044099977 0.065232575 -0.055261273 0.09986927
-0.056538124 0.08671939 0.11821914 -0.06618107 0.03103854 0.016021665 0.00053651916 0.060086872
0.118493184 0.00036517234 0.025006639 0.08235479 -0.11996458 0.08027905 0.0004751981 -0.10323171
0.05285229 -0.06673692 -0.11627958 -0.044478726 0.021155616 0.06805665 -0.051402498 0.10579103
-0.10219001 -0.10117667 0.048730552 0.130161 0.10288459 0.09848439 0.00012002602 -0.0595099
-0.10503994 -0.10415758 0.04324248 -0.012440714 -0.024023531 -0.03583468 -0.0038386807 -0.08045522
-0.03435309 0.11458129 -0.07500459 -0.007818194 -0.108239345 -0.06362369 0.045026504 0.056721147
-0.11373558 0.102221444 0.031057287 0.07417642 -0.08252677 0.082341485 -0.12974645 -0.10737691
0.096062064 -0.043627374 0.04829023 0.06075072 -0.066348545 -0.084769465 0.07519148 0.08651455
0.0072303955 0.019851338 0.047848996 0.043981433 0.13515146 0.00031394532 -0.07840475 -0.06262389
-0.09061858 -0.0036473833 0.024516948 0.0019876752 0.10357606 -0.00954981 0.11200919 -0.015135411
-0.044215422 0.08343949 0.041923273 -0.10495091 0.016091086 -0.12906401 -0.0894936 -0.10471913
-0.011892398 -0.053169686 0.11545568 -0.07935133 -0.031299017 -0.08304547 -0.078056894 0.050948866
0.07596763 -0.099034406 0.12424855 0.0015260834 0.057824783 -0.0067944177 -0.026447367 0.09731582
-0.060320657 0.020420637 0.07386813 -0.12701721 0.00795906 -0.10670748 -0.12443716 -0.03736985
-0.017450701 -0.05493972 -0.03468237 -0.066247925 0.110352725 -0.10612371 -0.024609499 0.018869743
0.06351079 -0.04961387 0.060892913 -0.13138975 -0.13488105 -0.04296119 0.063989006 -0.042203784
0.12552376 0.008379369 0.12598366 0.081493326 0.059123456 0.046708986 -0.109702945 -0.025569616
0.062415283 -0.1319749 -0.066564456 -0.1337719 0.072909825 0.07356243 -0.05569415 -0.075212635
-0.11629247 -0.03198512 0.041154373 0.10100084 -0.11936762 -0.013236248 0.041751277 -0.106313996
-0.064237304 0.08913764 -0.118491046 -0.033741217 -0.008062122 0.027459186 0.12398246 -0.033837736

fc2.weight f4 [128, 256]
00000000: cb12 70bd c2f1 473c 5d6b 96bd 1f2e 10bd
00000010: f616 9a3d 2fb0 893d 69e9 86bb c0f0 bfbd
00000020: 22cd 0a3d 28da bf3a d36d bdbd d14c 3fbd
00000030: 2550 d2bc cda0 7e3d 3c97 9fbd aa49 013d
00000040: 310b 09bc 66b3 a43d 53dc abbd 348c bcbd
00000050: 52fc 863b 6298 8bbd d196 f03c 493f adbb
00000060: 9ace 7abd f00b 0ebd 2c85 533d d625 433d
00000070: 076c 3dbd 52d6 753d 0bbc cfbc ff36 613c
00000080: ae51 9abd e5df 093d b919 2abc 58c5 9bbd
00000090: 89b5 ff3c 8d1a fbbc b225 e1bc 7043 10bd
000000a0: 2479 f83c 52f8 adbd 772c 2c3d a1c1 27bd
000000b0: 983b 503d 4f2d 1c3d 0393 613d d6af 8bbd
000000c0: 54e1 a2bd e1a0 1abc d239 21ba e514 5d3c
000000d0: aa97 4a3d 2f08 92bd 6321 81bc 0c24 60bd
000000e0: ac94 0dbd 4190 3b3d 2e7b a2bd fa01 293d
000000f0: 5141 a23d 7e30 f83c 5f8a 80bd 2447 d83c
00000100: 1c45 033b 0a3a a6bd 0648 80bd 6a9d e13c
00000110: f8b7 60bd 6e81 a8bd 9d7d 8b3d 5cd1 4dbd
00000120: 5aa2 00bd f3bd aebd 1f90 b4bd f61e 4cbd
00000130: 7a64 e6bc c03c 0bbd f188 69bd ea20 0d3d
00000140: b103 2d3d ab98 d5bc 59cb f3bc c13c 4cbd
00000150: fe6c 54bd 0629 59bd 4b6d 863d 02cb 2cbc
00000160: 5252 a9bc 3eff b63c 81b0 093d 03d0 c8bc
00000170: 59b9 873d 92c1 da3c fc52 813d ba3b a03d
00000180: d5d7 c2bc ba0a 8c3d c155 773d 8a8c 5d3d
00000190: e364 fdbc 5ae6 9f3d cd05 70bc 31fe 5ebd
000001a0: 31c2 75bd 6d6c 473d f702 e4bc 147c 79bb
000001b0: 90a3 ed3c 2e28 963d e61a 503d c52c 27bc
000001c0: 6565 13ba 045c 68bc 8dac 143d 74cc a7bd
000001d0: fd62 043c 9501 b8bd 5f56 19bd 7c6b 0a3d
000001e0: e951 a7bd 1aca 68bd 4b15 92bd 235e 9fbd
000001f0: bd89 94bd 7a50 12bd be49 81bd dea8 9cbd
00000200: 3373 773d 4da1 6f3d 23cc a8ba b723 af3c
00000210: 4fc2 7fbc 0522 f0bc dbfb 60bd 32cb 823c
00000220: c2a6 293d 6076 40bd 9508 c5bc c2c3 c0bc
00000230: f585 433d 1d59 e8bb ed04 9fbb ef4d 80bd
00000240: 4e98 2d3d 869e 09bd ca41 e1bc 8c66 37bd
00000250: fa9c 71bb 169d ef3b 09d0 50bd 0b19 00bd
00000260: 059b 15bd 0582 773c b269 34bd 01fa 383d
00000270: 2f98 1f3d 591a 5dbd 3bf9 eb3c e2be 69bd
00000280: 3ee7 4ebd 588a 68bd fee4 a23d 9b29 46bd
00000290: bf8a 7b3d 0e7c 80bd c326 a03b f6dd 59bd
000002a0: a971 623d 00eb 10bd 400b 843d ede1 ef3c
000002b0: f44c b7bd 6c71 013d 753e 93bd ad91 533c
000002c0: 8632 28bd 2708 6b3d c24a 853d 49d3 943d
000002d0: 7f20 813c 2f15 6e3d 3151 1f3d 53e2 5f3c
000002e0: 1d49 bfbd d0d1 143d 79b9 cdbc 20c0 0b3d
000002f0: 8bcb 813d fc7e 2dbd d156 033c a780 cd3b
00000300: 6198 363d a8c6 0fbb 8005 98bd d0b6 043d
00000310: fcdf b13a 1fea a4bc bf27 8b3d 11ad a9bd
00000320: 3e1e 9abd 712c 013d 13c2 623d dfa1 20bc
00000330: 99e2 ce3c e558 76bc d310 fc3c a625 15bd
00000340: f9a8 44bd 1ebc 883d e271 793c fdbc 163d
00000350: b377 573d f137 403d eb24 a7bd e63d cf3c
00000360: 5060 4ebd d638 b63c d429 a6bc 3af8 a43b
00000370: 6d52 9dbc 81a7 a23c 0235 bfbc 333b 003d
00000380: 20dd 823d a6f6 ad3b 82d9 b1bd 08aa d53c
00000390: 3495 4abc e9ef f6bc b009 9d3d ed95 89bd
000003a0: d468 8cbb 65bd b4bd e503 283d 9fbc 7b3b
000003b0: 4d23 2d3d e064 d73c 5cfe a33c d6d8 6ebd
000003c0: a3d6 61bd 4622 a6bd 07db 43bd 12f1 31bd
000003d0: 06b1 47bd 9188 d5bc 005d a3bd 1294 2b3d
000003e0: 7bc1 a13d e785 31bd c534 b1bd f722 713c
000003f0: 2da3 56bd 3249 443d 2a24 0fbd 13d0 623d
-0.058611672 0.012203636 -0.07344697 -0.035200235 0.07523911 0.067230575 -0.00411718 -0.09372091
0.033887036 0.0014637159 -0.09249463 -0.046704117 -0.025672982 0.06216507 -0.077925175 0.031564392
-0.008364485 0.0804203 -0.08391633 -0.09206429 0.0041194344 -0.06816174 0.02936879 -0.005287085
-0.061232187 -0.034679353 0.051640674 0.047643505 -0.0462456 0.060018845 -0.02535822 0.013746022
-0.075351104 0.033660788 -0.010382109 -0.07606 0.031214492 -0.030652309 -0.027483795 -0.035220563
0.030331202 -0.08494629 0.042034592 -0.040956143 0.050838083 0.038129147 0.055071842 -0.068206474
-0.07953134 -0.009437771 -0.00061502785 0.013493751 0.049461044 -0.07130467 -0.01576299 -0.054721877
-0.034565613 0.045791868 -0.07933651 0.04126165 0.07922614 0.03029656 -0.06276392 0.02640111
0.0020030206 -0.08116539 -0.062637374 0.027540881 -0.054862946 -0.08227812 0.06811068 -0.05024849
-0.03140483 -0.08532324 -0.088165514 -0.049834214 -0.028124083 -0.033993483 -0.057015363 0.034455217
0.04223985 -0.026073774 -0.02976005 -0.049862627 -0.051861756 -0.05301764 0.06563815 -0.010546448
-0.020669136 0.022338506 0.033615593 -0.02451325 0.06627149 0.02670363 0.06314656 0.07823892
-0.023784557 0.068379834 0.060384516 0.054089107 -0.030931896 0.07807608 -0.0146498205 -0.054441635
-0.05999965 0.048687387 -0.027833445 -0.003806834 0.029008657 0.073318824 0.050806902 -0.010203545
-0.0005622714 -0.0141820945 0.03629737 -0.08193293 0.008080241 -0.08984677 -0.037435886 0.03379391
-0.0816992 -0.056833364 -0.071329676 -0.07781627 -0.07252834 -0.03572128 -0.06312893 -0.07649396
0.060412597 0.058503438 -0.001287822 0.021379335 -0.015610292 -0.029313097 -0.054927688 0.015966032
0.0414188 -0.04698789 -0.024051944 -0.023530845 0.047735173 -0.0070907013 -0.004852882 -0.06264865
0.042381577 -0.033598445 -0.027497191 -0.04477553 -0.0036867247 0.0073124273 -0.050979648 -0.031273883
-0.03652479 0.015106683 -0.04404611 0.045160297 0.038963493 -0.053980205 0.028805366 -0.057066806
-0.0505135 -0.05677256 0.07953833 -0.04837952 0.061411615 -0.062736616 0.0048874333 -0.053190194
0.055284176 -0.035380363 0.06447458 0.029282534 -0.089502245 0.03160231 -0.07189647 0.01291315
-0.041063808 0.05738082 0.065083995 0.07266862 0.015762566 0.05812567 0.03889579 0.0136648
-0.09340117 0.036332905 -0.025112854 0.03411877 0.06337651 -0.04235743 0.008016304 0.00627144
0.044578914 -0.0021938477 -0.07422924 0.032400906 0.0013570781 -0.020131169 0.0679469 -0.08284963
-0.075252995 0.031536523 0.055360865 -0.009804218 0.025254535 -0.015035843 0.030769741 -0.036412857
-0.048012707 0.066765055 0.015224906 0.036801327 0.05260439 0.04692835 -0.081613384 0.02529807
-0.05038482 0.022243898 -0.020283617 0.0050344737 -0.019204343 0.019855263 -0.023340706 0.031306457
0.063898325 0.005308944 -0.086840644 0.026082054 -0.012364674 -0.030143695 0.07667863 -0.06718049
-0.0042849574 -0.08825187 0.04101934 0.0038411987 0.042269994 0.026293218 0.020018749 -0.05831226
-0.055136334 -0.08112006 -0.047816303 -0.043442793 -0.048752807 -0.026066096 -0.07976723 0.041889258
0.078982316 -0.04334059 -0.08652643 0.014717809 -0.05240171 0.047921367 -0.034946598 0.055374216

fc2.bias f4 [128]
00000000: c0ba a5bb d81b 523d ab13 91bc 22f5 e83c
00000010: 57fa b7bc 4c8d 3dbd f244 5bbd 455a 52bd
00000020: 3c86 85bd 3756 c63c f252 623c da33 133d
00000030: 0190 01bb 0033 4bbd 901a 41bd 1cef 83bd
00000040: 701d 8fbb 7499 5a3c 721f e7bb d782 1d3d
00000050: b54e 5dbd 30ee 193d 020f 873b c8c2 82bd
00000060: b4ad 9ebc 6772 0d3d 5ade 82bd 9fe4 5a3d
00000070: 6288 1cbd 4452 ba3a 44fd 1cbc ea18 3f3d
00000080: 7ba1 e73b a085 a03c 5af9 2e3c 65d2 7fbd
00000090: 8e31 8dbd aae9 cb3c 68bc 1b3d 48d5 653d
000000a0: 45eb cd3c a1de 0a3d e9ee 0d3d 3761 88bc
000000b0: 96e9 983c e91a f63b 1a28 1cbd dd85 713d
000000c0: 1b4c 87bd f57f 913c 6a3a 653c a7df d9bc
000000d0: 86a6 413b fbe5 6dbd d8e3 db3c 0598 17bb
000000e0: 5a62 053c 93f6 013d a4c4 e5ba 1581 f13c
000000f0: 3b7b 31bc 6623 063d 7803 233d 038c 8fbb
00000100: a4fe 86ba 2c56 453d ae9f 5dbd 0171 27bd
00000110: 22a1 a3bc 7633 03bd 4f9f 303d 88f1 0abd
00000120: 4d1b 2e3d 1f03 5dbd 7822 373d b046 f33b
00000130: 9e27 62bd 6b95 09bb 227d d63c 345b 56bd
00000140: 1a06 8bbc 25e6 0ebd a317 4a3c ede1 af3c
00000150: 9150 ffbc 2504 2abc 78ae aabc b4d2 10bc
00000160: 7a07 57bd 3de1 f13b f485 6fbc 9e6d 14bc
00000170: b2e0 043d d402 6f3d 2958 ad3c befc 663d
00000180: 9314 a73b e534 613d 3ba9 cebc 26df 6cbd
00000190: fea1 2b3c 95d8 2b3d f50f 55bd b399 e3bc
000001a0: b8da 583d 8f85 cfbc dc7c 94bd b749 18bd
000001b0: fb3a f4bc c2e0 7abd 9a46 303c d47a 873c
000001c0: f114 72bd 5bd9 77bd d873 29bd 95e3 2ebd
000001d0: f325 773c b0b5 523d ab61 083d da8a 18bd
000001e0: 5aad ab3c 7f0c 5cbd 0b59 dfbc 687a 1abb
000001f0: 4e59 24bc 7208 313d c1c9 f53c 1092 cfbb
-0.0050576627 0.051296085 -0.017709574 0.028437201 -0.022458239 -0.04627733 -0.05353255 -0.05135562
-0.06519744 0.024211032 0.013813721 0.03593812 -0.001976967 -0.049609184 -0.047144473 -0.06442091
-0.004367523 0.01334225 -0.007053309 0.038454857 -0.05403014 0.03758067 0.004121662 -0.06384808
-0.019369937 0.03453293 -0.063900664 0.053440686 -0.038216002 0.0014215191 -0.009581868 0.04665462
0.0070688105 0.019594967 0.010679567 -0.062456507 -0.068942174 0.024891693 0.038021475 0.056111604
0.0251366 0.03390372 0.03465167 -0.016647918 0.01866607 0.007510532 -0.03812418 0.058965553
-0.06606313 0.01776121 0.013990978 -0.026595904 0.0029548719 -0.058080655 0.026842043 -0.0023131382
0.008141125 0.031729292 -0.0017529917 0.029480496 -0.010832603 0.032748602 0.03979823 -0.0043807044
-0.0010299277 0.048177883 -0.05410736 -0.040879253 -0.019974295 -0.0320315 0.04312068 -0.03392175
0.042506505 -0.053958055 0.044710606 0.007424198 -0.055213563 -0.00209936 0.026182715 -0.05233307
-0.016970683 -0.03488745 0.012334737 0.021470034 -0.031166347 -0.010376965 -0.020835146 -0.008839298
-0.052497365 0.007381587 -0.014619339 -0.009059338 0.03244085 0.058352306 0.021160202 0.056393377
0.005098888 0.054982085 -0.02522718 -0.05783 0.010475634 0.041954596 -0.05201717 -0.02778325
0.05294296 -0.02533224 -0.072503775 -0.037179675 -0.02981328 -0.061249502 0.01075902 0.016538061
-0.059102003 -0.06051002 -0.041370243 -0.042697508 0.015084731 0.051442802 0.03329627 -0.037241794
0.020956684 -0.053722855 -0.027264139 -0.0023571495 -0.0100310575 0.043220945 0.03000343 -0.0063345507

fc3.weight f4 [1, 128]
00000000: c853 493b e498 de38 2f89 403b 9abc ab3b
00000010: a4da 223b c724 2a3b f445 cf3a e48a 6039
00000020: 7ad2 17bb e4ed c8ba cd29 2b3b 44d2 3e3a
00000030: a10c e039 f346 99bb 3aa4 1c3b 3ca1 60b9
00000040: 9f22 903b cc49 2b3b 7e35 a93a a77c e03a
00000050: 1cce 2bbb ad71 343a bea2 f6ba ba2c 61b9
00000060: 3bc5 2139 5c7e 763b 30fa 0c3b 4fde 9f3a
00000070: 5306 123b 5f5a 53bb 3aea ea3c a5b3 b4ba
00000080: 8763 3eb9 70bd 50bb 3615 4d3a 4d38 0a3b
00000090: f7c6 513a e88f 2d3a 3f87 093b caa1 ff3a
000000a0: 5b43 0e3b 7656 683b bc97 aeba 8901 4e3b
000000b0: c650 d1ba 2413 663a 85ae ec3a 8a1e c0bc
000000c0: 6ac9 a73b 4534 ceb9 126c 89ba 920a 273a
000000d0: 0f6c b93a 5334 433b 4f10 353b dcb4 54ba
000000e0: 855b e33a 3e54 2b3a c198 3f3b d99c 373b
000000f0: 4731 1eba 373f 503b 0532 883b 7ba0 043b
00000100: 26ab d73a 7f44 163b b0bc 0eb7 1245 f73a
00000110: 1e05 c1ba 2a4c 5bb9 f9ce 32bb 3542 dfba
00000120: afd1 eb39 ad38 87bb 337d ddb9 6e4c 853b
00000130: 9802 243b 5ec5 223b 77cf 473b 1e83 14bb
00000140: 6284 be3a 19dd 1bba 46bd 25bb d2e8 463a
00000150: 90e6 983b ed62 8e3b 5be3 313b bc0c 09bb
00000160: 26ea 0ebb c350 1a3b fb81 0cbb 7b3c 583b
00000170: 4e2f 1abb 4161 abb8 09c4 a63c 198b 4939
00000180: 933e ce3a 0d8a 633b 1f44 853a 095f beb8
00000190: 5cdd 123b 3f95 28ba eaf9 51bb 4744 bcba
000001a0: ef41 b93b b087 063b 353c 13bb d092 bc3a
000001b0: 4cc0 543b e853 88b9 ca98 be3a f301 253b
000001c0: e4f3 66bb 118d 223a 945d d73b 9959 303d
000001d0: 3e42 0fbb 0f31 f039 8519 0f3b a27a ce38
000001e0: 9a34 733b 6866 c63a 85d2 aa3b 6b4b b939
000001f0: 5c80 52ba 34f4 263b a914 973b 7384 2d3b
0.0030720104 0.00010614263 0.0029378643 0.005240989 0.0024849558 0.0025961862 0.0015813694 0.00021414045
-0.0023166225 -0.0015329686 0.0026117445 0.0007279257 0.0004273402 -0.0046776473 0.0023901598 -0.00021422369
0.0043986584 0.0026136516 0.0012909619 0.0017126993 -0.002621538 0.0006883394 -0.0018816811 -0.00021474334
0.0001542763 0.0037611937 0.0021511428 0.001219699 0.0022281602 -0.003224991 0.028676141 -0.0013786448
-0.00018156889 -0.0031851195 0.000782329 0.0021090687 0.00080023654 0.000662087 0.0020985154 0.0019503173
0.0021707627 0.0035451925 -0.0013320367 0.003143402 -0.0015969507 0.0008776656 0.0018057382 -0.023452062
0.005120446 -0.00039330326 -0.0010484478 0.00063721195 0.0014146584 0.0029785826 0.002762813 -0.00081141084
0.0017346 0.00065356854 0.0029235336 0.0028017072 -0.00060345646 0.003177596 0.0041563534 0.0020237255
0.0016454204 0.002292901 -8.507792e-06 0.0018865189 -0.0014726256 -0.00020913841 -0.002728401 -0.0017033281
0.0004497892 -0.0041266293 -0.00042245685 0.004067949 0.002502596 0.0024836878 0.003048865 -0.002266116
0.0014535303 -0.0005945727 -0.0025289818 0.00075877935 0.004666157 0.004345289 0.002714357 -0.0020912131
-0.0021807044 0.0023546673 -0.002143978 0.0032995034 -0.002352673 -8.17203e-05 0.020357149 0.00019220672
0.0015735201 0.0034719736 0.0010167396 -9.077608e-05 0.0022409773 -0.0006430931 -0.003203983 -0.001436361
0.005653612 0.0020527653 -0.0022466306 0.0014387015 0.003246325 -0.00026002456 0.0014541384 0.0025178164
-0.0035240585 0.000620083 0.0065724347 0.043054197 -0.0021859552 0.0004581292 0.002183528 9.8456876e-05
0.003711021 0.0015136721 0.005213084 0.0003534214 -0.00080299913 0.0025475146 0.004610617 0.002647665
