checkpoint_actor_2_1.pth (torch_old, 159212 bytes, 6 tensors)

fc1.weight f4 [256, 24]
0.1625687 0.065321654 0.038446184 0.2031666 0.09350196 -0.27572447 0.029671887 0.2450431
0.3435365 0.09387271 0.06926903 -0.09941012 0.018902153 -0.34011695 0.099910244 -0.08252454
0.31718713 0.07578444 0.0457862 -0.15586226 0.08569859 -0.37983754 0.041774753 -0.17437114
0.06297644 0.2632803 0.04424467 -0.14604625 -0.27380455 -0.062202085 -0.029792333 -0.103208564
0.08726714 0.20547082 0.023102827 -0.033769164 -0.076253265 -0.3392882 -0.052334927 -0.060211495
-0.018318096 0.19188958 0.026556188 -0.21320826 -0.0007871536 -0.5249775 0.07829077 -0.21422862
0.19664204 -0.14301407 -0.009345366 -0.020395694 0.31959328 -0.24928597 0.018658066 -0.0016790292
0.004767436 -0.45738283 -0.052968454 -0.034084447 0.2422502 0.15889962 -0.08129964 -0.10813574
-0.13816583 -0.5459792 -0.038834352 0.0037614794 0.091325924 0.6540612 0.036051076 0.026443915
0.13167612 -0.047537085 0.031894863 0.13795695 -0.13550645 0.16688108 -0.026359593 0.14547406
0.03705589 0.11093977 0.040595714 0.28504154 -0.1959275 0.053587556 0.053717107 0.22613885
-0.031049946 0.08206251 -0.002569676 0.26429346 -0.17934339 -0.0147876 0.054889426 0.27540746
0.0001415606 -0.1861028 0.01299961 0.033932086 0.28564796 -0.43044552 0.064849645 0.030242627
0.11775008 -0.15016346 -0.028857939 -0.14542718 0.10199498 -0.5465179 0.0064296606 -0.18466705
0.15066008 -0.0034339738 0.012243264 -0.07064827 -0.042719338 -0.15881264 -0.001765045 -0.0158147
-0.16462946 -0.08454604 0.014103953 -0.10436937 0.024245787 -0.11785472 0.06916937 -0.16826789
-0.08822014 -0.14444903 0.07551526 -0.09241011 -0.056283563 0.21873853 0.10653083 -0.16237694
0.105967626 -0.15989953 -0.047188014 0.03432242 -0.061611593 0.46084666 -0.093916036 0.016921062
0.06666216 -0.045428965 -0.10573844 -0.092261694 0.068159156 -0.5023357 -0.047782037 -0.056223378
0.18601221 -0.009943405 0.021718917 -0.18101284 -0.09272388 -0.4100818 0.008911821 -0.20974325
0.18896177 -0.08477918 -0.032600697 -0.17163816 -0.23357554 -0.015110046 -0.054098565 -0.21629208
-0.17822756 0.28486726 -0.11987728 0.14759485 -0.1253504 0.06551613 -0.024575884 0.06488217
-0.026738916 0.2864966 0.025633492 -0.10971049 0.08861848 -0.1905789 0.03332833 -0.17649359
-0.056033354 0.27062538 0.06211221 -0.1872312 0.22810613 -0.18126385 -0.043343816 -0.08868521
-0.072042644 0.01966593 0.082212955 -0.3445587 -0.20255686 0.1963858 0.011837774 -0.26718333
-0.061705537 -0.1117243 -0.02381318 0.005037434 0.04573295 -0.020003496 0.046651725 0.05714608
-0.104158506 -0.08140009 -0.014122244 -0.11737626 0.2521093 -0.25744936 0.04421965 -0.07744265
-0.066223785 -0.4144564 0.011093794 -0.42929885 -0.006818405 -0.303382 0.035238944 -0.42172578
-0.08097905 -0.46650344 -0.08607793 -0.052124616 -0.16163829 -0.29774466 -0.015872203 -0.15938345
-0.08337628 -0.3933205 -0.060270097 -0.3066576 -0.17136802 -0.15558039 -0.055693828 -0.3498496
0.06820553 -0.26369312 -0.005475501 0.03264434 -0.40296286 0.36395404 0.006283659 -0.01828399
-0.055992287 -0.2669402 -0.007901494 0.061956465 -0.36701694 0.2624924 0.03147362 0.002960129
00000000: 6978 263e 5cc7 853d bf79 1d3d e80a 503e
00000010: f57d bf3d c22b 8dbe 7512 f33c 94ec 7a3e
00000020: 04e4 af3e 5640 c03d ecdc 8d3d 8897 cbbd
00000030: b0d8 9a3c cf23 aebe be9d cc3d a002 a9bd
00000040: 5a66 a23e df34 9b3d 4f8a 3b3d 5b9a 1fbe
00000050: be82 af3d 117a c2be 011c 2b3d 598e 32be
00000060: cbf9 803d adcc 863e e639 353d 268d 15be
00000070: 1c30 8cbe 9dc7 7ebd 0d0f f4bc 035f d3bd
00000080: 1db9 b23d f166 523e 2442 bd3c 8951 0abd
00000090: ac2a 9cbd 2fb7 adbe 265d 56bd 54a0 76bd
000000a0: d50f 96bc b47e 443e 5d8c d93c 4453 5abe
000000b0: fc58 4eba ed64 06bf e956 a03d bf5e 5bbe
000000c0: 885c 493e 4872 12be 4e1d 19bc df14 a7bc
000000d0: bba1 a33e d244 7fbe cdd8 983c df12 dcba
000000e0: 2738 9c3b 152e eabe 73f5 58bd 229c 0bbd
000000f0: 7010 783e 95b6 223e 6d80 a6bd 4576 ddbd
00000100: 587b 0dbe 4bc5 0bbf c510 1fbd 2783 763b
00000110: 1609 bb3d 8e70 273f 4baa 133d e9a0 d83c
00000120: 1bd6 063e 3fb6 42bd 30a4 023d 9644 0d3e
00000130: 34c2 0abe e0e2 2a3e 13f0 d7bc 27f7 143e
00000140: ebc7 173d 6434 e33d b147 263d f7f0 913e
00000150: 38a1 48be a07e 5b3d 7806 5c3d f190 673e
00000160: 755c febc 6410 a83d 0268 28bb 7951 873e
00000170: cba5 37be b147 72bc bcd3 603d 3502 8d3e
00000180: e26f 1439 bb91 3ebe 51fc 543c 5ffc 0a3d
00000190: 7340 923e 5b63 dcbe e4cf 843d 63bf f73c
000001a0: f426 f13d 73c4 19be 7c67 ecbc ddea 14be
000001b0: bee2 d03d 99e8 0bbf e7af d23b 5c19 3dbe
000001c0: a346 1a3e 850c 61bb f997 483c 0ab0 90bd
000001d0: 79fa 2ebd c89f 22be 1559 e7ba d48d 81bc
000001e0: a094 28be 7926 adbd 4414 673c 9cbf d5bd
000001f0: 1a9f c63c d15d f1bd aca8 8d3d 6b4e 2cbe
00000200: c3ac b4bd 72ea 13be bfa7 9a3d 8341 bdbd
00000210: 9889 66bd fefc 5f3e d62c da3d 2446 26be
00000220: 8e05 d93d b4bc 23be 3848 41bd aa95 0c3d
00000230: 705c 7cbd 18f4 eb3e 0d57 c0bd 0a9e 8a3c
00000240: 2c86 883d b913 3abd 658d d8bd b3f3 bcbd
00000250: 0797 8b3d 1399 00bf 19b7 43bd 7c4a 66bd
00000260: fc79 3e3e aae9 22bc dfeb b13c 6e5b 39be
00000270: 05e6 bdbd 3ef6 d1be e302 123c efc6 56be
00000280: 327f 413e b5a0 adbd 4f88 05bd eac1 2fbe
00000290: 6d2e 6fbe 2090 77bc 7596 5dbd ac7b 5dbe
000002a0: 4981 36be 1fda 913e 3882 f5bd 1b23 173e
000002b0: db5b 00be 522d 863d 5d53 c9bc f1e0 843d
000002c0: 920b dbbc afaf 923e 54fd d13c e5af e0bd
000002d0: 9b7d b53d 1d27 43be 4983 083d bcba 34be
000002e0: 3b83 65bd 698f 8a3e 5f69 7e3d 89b9 3fbe
000002f0: a794 693e 3b9d 39be 4989 31bd 97a0 b5bd
00000300: 188b 93bd 721a a13c 445f a83d ff69 b0be
00000310: 116b 4fbe 5c19 493e 39f3 413c 41cc 88be
00000320: f2be 7cbd b6cf e4bd dc13 c3bc 0f11 a53b
00000330: 7952 3b3d 5fde a3bc e115 3f3d 0212 6a3d
00000340: 0e51 d5bd 17b5 a6bd fc60 67bc f762 f0bd
00000350: 7814 813e 67d0 83be aa1f 353d 419a 9ebd
00000360: 56a0 87bd a133 d4be bfc2 353c 0fcd dbbe
00000370: ed6c dfbb e354 9bbe b656 103d 71ec d7be
00000380: 58d8 a5bd 8ad9 eebe a049 b0bd 9f80 55bd
00000390: 8284 25be fd71 98be 6c06 82bc 6a35 23be
000003a0: 2fc1 aabd 4e61 c9be c7dd 76bd 3a02 9dbe
000003b0: 197b 2fbe 7750 1fbe 361f 64bd 7d1f b3be
000003c0: 57af 8b3d c902 87be d56b b3bb 12b6 053d
000003d0: 2651 cebe 2f58 ba3e 27e7 cd3b 4ec8 95bc
000003e0: 2b58 65bd 63ac 88be 4575 01bc 10c6 7d3d
000003f0: a5e9 bbbe 6765 863e 7cea 003d b9fe 413b

fc1.bias f4 [256]
0.13518561 0.2468004 -0.050845046 0.24433021 -0.1742302 0.00095102953 0.008837699 0.05525634
0.26066747 0.12775971 0.366196 -0.2882967 0.2083879 -0.11565214 0.11441697 -0.45391095
-0.27752164 -0.098681755 -0.11911386 0.02465282 -0.42931223 0.1181883 0.19342707 0.091437586
0.25884423 0.05548212 -0.28248653 -0.213309 0.034249246 0.0521117 -0.17764755 -0.09501492
0.0015994682 -0.14198565 -0.26862714 -0.07908102 -0.13303293 0.07923317 -0.5579181 -0.18781045
-0.112149715 -0.13791347 0.08608738 0.08103146 -0.20938934 0.09730672 0.39934453 -0.11746278
0.01995457 -0.17494561 -0.25018147 -0.15161769 -0.18525922 -0.05404846 0.19831751 0.72595537
0.07535973 0.040553827 0.092407264 -0.1922591 0.18519238 0.14365445 -0.3053968 0.07209666
-0.07839546 -0.16017805 -0.16696136 -0.046991844 -0.23105752 0.05846008 0.015052849 0.021232856
-0.44270155 -0.106586285 -0.049142733 0.16914305 0.009286146 -0.17762452 -0.03721515 -0.19993435
-0.37946317 -0.026688453 -0.16340242 -0.031231128 0.13153066 -0.3745362 0.15863484 -0.28711718
-0.13721153 -0.35844272 0.17921944 0.013096147 -0.099839695 0.010271204 -0.21391621 0.10312165
0.332061 0.14037353 0.069310226 -0.1344853 -0.07678421 0.1343575 -0.32630754 0.2303566
-0.27140218 0.27983364 0.08223615 -0.17702754 -0.059595414 -0.13839777 -0.099547535 -0.17703587
-0.15237048 -0.15407826 0.11737048 -0.07300298 -0.2282823 -0.07339685 0.3841013 0.18466653
0.21159531 0.02227474 -0.20286158 0.12525219 -0.04670812 -0.17056698 0.23918092 0.10215032
0.14641963 0.045811653 0.14950475 -0.017230906 -0.11032226 -0.0050538625 -0.3243926 0.22758953
-0.16123798 0.11284968 0.23887338 0.1855829 0.12294642 -0.2359034 -0.14909388 0.16335629
-0.21167529 0.022993183 -0.120187536 -0.090305105 0.30198836 -0.10305395 0.10929498 -0.06373188
-0.052763302 0.21778136 0.118868634 0.05735134 0.097410105 0.34777343 -0.15823129 -0.1346169
-0.10268352 -0.2944601 -0.033659525 0.19952261 -0.20881145 -0.09102282 0.06480339 -0.07938545
-0.17786439 0.11552175 0.02917819 0.24059209 -0.17949224 -0.12281424 0.34059784 -0.10593608
-0.23495999 -0.1428017 -0.19325314 0.061538987 0.35147226 0.0049660564 0.09911718 0.1414289
-0.12652816 -0.07646713 -0.116247885 0.00339641 0.33894444 0.042007577 0.1315665 0.122152194
0.080565795 -0.11887602 -0.062415615 -0.14197572 -0.06337292 -0.19834554 -0.081397764 0.21269552
-0.07790944 -0.041352075 0.3155647 -0.25632837 -0.06990767 0.2962032 0.15447856 0.25664183
0.14044006 0.10026879 0.15654719 0.40076953 0.033249676 0.038172018 -0.32456607 0.04107417
-0.29440898 -0.40273806 -0.1915495 0.15937541 -0.1076855 0.27158964 -0.009907044 -0.19632468
-0.34287205 -0.035311535 -0.061148275 0.15589981 -0.059874415 0.18948354 -0.15844946 -0.1444513
-0.020490743 -0.25622848 0.070284195 -0.24808773 -0.31720614 0.04605047 -0.20515849 -0.12674193
0.09313362 0.18776381 -0.2645943 -0.20177722 0.45128676 0.10113213 -0.05002988 -0.025165807
-0.15986028 -0.11261159 -0.20085926 0.3082742 -0.0018708627 0.2661369 0.0091176275 -0.18108913
00000000: 196e 0a3e 3eb9 7c3e e542 50bd b331 7a3e
00000010: 6769 32be 834e 793a ffcb 103c 7954 623d
00000020: 3576 853e 71d3 023e 0b7e bb3e a09b 93be
00000030: a363 553e 07db ecbd 7253 ea3d 0467 e8be
00000040: 5117 8ebe a919 cabd f8f1 f3bd b6f4 c93c
00000050: d0ce dbbe b50c f23d bf11 463e a143 bb3d
00000060: 3b87 843e 3841 633d 13a2 90be ad6d 5abe
00000070: f048 0c3d 1473 553d 3de9 35be 2f97 c2bd
00000080: 3fa5 d13a b064 11be 7f89 89be 3bf5 a1bd
00000090: c939 08be 0045 a23d b8d3 0ebf 6251 40be
000000a0: c0ae e5bd 3039 0dbe 954e b03d d2f3 a53d
000000b0: 296a 56be bf48 c73d e376 cc3e 5390 f0bd
000000c0: c477 a33c f124 33be c917 80be ab41 1bbe
000000d0: 98b4 3dbe eb61 5dbd bf13 4b3e 36d8 393f
000000e0: 3456 9a3d c51b 263d 0540 bd3d 92df 44be
000000f0: 12a3 3d3e 271a 133e f85c 9cbe 6aa7 933d
00000100: cd8d a0bd b705 24be ebf7 2abe 857a 40bd
00000110: 589a 6cbe d673 6f3d 3aa0 763c 87f0 ad3c
00000120: c7a9 e2be e949 dabd e449 49bd d633 2d3e
00000130: eb24 183c 34e3 35be ea6e 18bd 97bb 4cbe
00000140: ff48 c2be bea1 dabc f752 27be 6cd8 ffbc
00000150: f9af 063e 35c3 bfbe 2c71 223e 0601 93be
00000160: 2e81 0cbe ce85 b7be 4d85 373e 3991 563c
00000170: c178 ccbd 8d48 283c da0c 5bbe 7231 d33d
00000180: e603 aa3e 14be 0f3e 85f2 8d3d 84b6 09be
00000190: 0a41 9dbd 0395 093e c811 a7be 9ae2 6b3e
000001a0: 3af5 8abe 5b46 8f3e 6d6b a83d b546 35be
000001b0: 521a 74bd 25b8 0dbe 94df cbbd e448 35be
000001c0: 0207 1cbe b1c6 1dbe ef5f f03d 9682 95bd
000001d0: d6c2 69be 1651 96bd eda8 c43e 3919 3d3e
000001e0: 71ac 583e 8479 b63c f2ba 4fbe 1c42 003e
000001f0: 0351 3fbd 1ca9 2ebe d8eb 743e 3034 d13d
00000200: 07ef 153e 00a5 3b3d c617 193e d427 8dbc
00000210: a3f0 e1bd df9a a5bb c916 a6be 3b0d 693e
00000220: 921b 25be bc1d e73d 399b 743e 7209 3e3e
00000230: 55cb fb3d a990 71be 11ac 18be df46 273e
00000240: 68c1 58be 335c bc3c e224 f6bd e2f1 b8bd
00000250: 389e 9a3e f30d d3bd 0cd6 df3d dc85 82bd
00000260: 551e 58bd 1402 5f3e 6671 f33d 3de9 6a3d
00000270: f37e c73d 5c0f b23e 6207 22be 03d9 09be
00000280: bd4b d2bd 79c3 96be 92de 09bd a84f 4c3e
00000290: abd2 55be 2c6a babd a4b7 843d d794 a2bd
000002a0: 1522 36be ab96 ec3d 1907 ef3c c65d 763e
000002b0: d0cc 37be 0886 fbbd d762 ae3e 04f5 d8bd
000002c0: 5a99 70be 9c3a 12be 27e4 45be 4e10 7c3d
000002d0: 2cf4 b33e 4dba a23b f3fd ca3d bdd2 103e
000002e0: 9990 01be cc9a 9cbd 5f13 eebd 4e96 5e3b
000002f0: 208a ad3e 2310 2c3d 5eb9 063e ee2a fa3d
00000300: aeff a43d 4575 f3bd 84a7 7fbd 1562 11be
00000310: a9c9 81bd 181b 4bbe dfb3 a6bd dbcc 593e
00000320: fc8e 9fbd cb60 29bd b291 a13e 793d 83be
00000330: c12b 8fbd f2a7 973e a12f 1e3e 8f66 833e
00000340: 85cf 0f3e b959 cd3d e84d 203e aa31 cd3e
00000350: d030 083d 435a 1c3d 862d a6be 643d 283d
00000360: c6bc 96be af33 cebe 8d25 44be 4f33 233e
00000370: 378a dcbd cc0d 8b3e 2751 22bc 5609 49be
00000380: ed8c afbe d4a2 10bd 9d76 7abd 33a4 1f3e
00000390: e03e 75bd f907 423e 9340 22be 0beb 13be
000003a0: 34dc a7bc 6130 83be 29f1 8f3d b60a 7ebe
000003b0: d868 a2be 6b9f 3c3d 1115 52be a3c8 01be
000003c0: d7bc be3d 2845 403e e778 87be b09e 4ebe
000003d0: 0f0f e73e 5d1e cf3d 22ec 4cbd 8628 cebc
000003e0: 6ab2 23be e8a0 e6bd 0dae 4dbe 1ed6 9d3e
000003f0: bc37 f5ba 1943 883e 1a62 153c 6e6f 39be

fc2.weight f4 [128, 256]
0.0077176816 -0.1352706 0.03940686 -0.12139307 0.07748689 -0.07577325 -0.13972364 0.12773284
0.023731234 -0.13296355 -0.20982866 0.0010413958 -0.07613914 -0.16769621 -0.1441146 0.0453465
-0.0084791295 0.2345593 -0.14268376 -0.08194753 0.08784067 0.034869656 0.0045198216 -0.16796863
-0.07263495 0.11592516 -0.07571126 0.09195067 0.08136204 -0.05762255 0.12462102 0.12994713
0.14136694 -0.024605995 -0.1008897 -0.0073890523 -0.14631881 -0.1331201 -0.039692707 -0.029824223
0.07111815 0.19657758 0.12168404 -0.019836048 -0.090680026 0.08961768 0.07427154 0.07241259
-0.18948069 0.012295752 0.080171496 0.144558 -0.055989258 -0.04622166 -0.2257704 -0.12721476
0.11854886 0.03071961 -0.10541917 -0.105453 -0.053986885 0.11164077 -0.07651365 -0.28119978
-0.014617991 0.0829248 0.037264843 -0.14687896 0.14744502 -0.02246411 -0.08131958 -0.064257406
0.16619468 0.12304563 -0.043623768 0.048472706 -0.0957578 -0.01728265 0.10875978 -0.014300481
-0.17700218 0.027732227 -0.040779218 -0.08532002 0.014978357 0.16636716 -0.108872026 -0.04617843
0.09008676 0.09458021 -0.07981567 -0.017713072 0.064496115 -0.06506907 0.11101488 -0.00278217
0.0347786 -0.35384303 -0.03027734 -0.1884648 -0.015685733 0.022018176 -0.010630391 -0.090872206
0.07097761 -0.011138427 0.010768449 0.058035016 0.0027074516 -0.074478656 0.06471503 0.15526477
-0.058326308 0.09765015 0.13444294 0.050552644 -0.04385714 0.018345207 -0.01846268 0.0740076
0.05688075 -0.0032610812 0.037033 0.043242354 -0.026671601 0.050636187 -0.105595544 -0.17649801
0.01590075 -0.10471504 0.22267067 0.012101327 -0.008270603 -0.041611236 0.09858677 0.007188236
-0.0046982435 -0.09056742 0.045131456 -0.08338083 -0.059415318 0.003992684 -0.054308232 0.07048078
-0.05287841 -0.05060806 -0.2623172 0.054713957 -0.01691059 -0.02777679 0.049753007 0.09264925
0.08658001 -0.017243424 -0.13960974 0.08915054 -0.0037058266 0.06511829 -0.116661154 0.058912195
-0.15571184 -0.18059108 0.16137706 0.054719158 -0.09654328 0.16668718 -0.3190563 -0.038128123
-0.015267325 0.10646131 -0.07226361 -0.10438366 -0.022274965 0.05347244 0.12660477 0.17783602
-0.007898439 0.0201791 -0.036221784 0.07324454 -0.045637354 -0.08580114 -0.06202664 0.10160226
-0.03602827 0.03383113 -0.051552158 0.10873725 0.074630484 -0.20804028 0.018430857 0.07342828
-0.20962386 -0.25954697 0.038970795 -0.028064257 -0.004248565 -0.046504036 0.1026786 -0.026254863
0.06925437 0.03045091 -0.0676519 -0.10526707 0.05901609 -0.19325492 -0.05343715 -0.05275058
-0.1329443 0.13267514 0.08838143 0.13958262 -0.0028849037 0.048617918 0.1022942 0.09713754
-0.10077552 0.067703046 0.07283688 -0.47227195 0.0009745447 -0.08942522 0.01954119 -0.057045553
0.012027525 -0.14158218 -0.09025722 0.06835884 0.099231295 0.03324473 -0.028099315 0.043940987
-0.12619299 -0.10511246 0.09228676 0.11522411 0.055333734 0.06047499 0.090463296 0.014641005
0.11284882 -0.096082576 0.054663636 -0.023920355 0.21687391 0.029424705 0.19518623 -0.112140544
0.03176632 -0.072718956 0.06826978 0.06800016 -0.103990264 0.032592595 0.046778914 -0.068124525
00000000: 9be4 fc3b 6084 0abe 1669 213d ee9c f8bd
00000010: 72b1 9e3d 012f 9bbd b713 0fbe 66cc 023e
00000020: 0168 c23c 9927 08be 53dd 56be 727f 883a
00000030: d6ee 9bbd 8eb8 2bbe c792 13be 40bd 393d
00000040: 0cec 0abc 5030 703e b11b 12be 1bd4 a7bd
00000050: cfe5 b33d 7cd3 0e3d 031b 943b f8ff 2bbe
00000060: a2c1 94bd 2c6a ed3d 810e 9bbd a250 bc3d
00000070: 24a1 a63d 9f05 6cbd 4e39 ff3d dc10 053e
00000080: 7fc2 103e 8392 c9bc 429f cebd dd1f f2bb
00000090: 99d4 15be a350 08be d294 22bd ee51 f4bc
000000a0: 65a6 913d a24b 493e 7b35 f93d 357f a2bc
000000b0: 73b6 b9bd 7989 b73d ad1b 983d 0d4d 943d
000000c0: 3a07 42be 1f74 493c f430 a43d 0307 143e
000000d0: fe54 65bd ec52 3dbd 5b30 67be 9644 02be
000000e0: bfc9 f23d b1a7 fb3c 01e6 d7bd bef7 d7bd
000000f0: 5a21 5dbd eba3 e43d 30b3 9cbd 6bf9 8fbe
00000100: 4c80 6fbc 7ad4 a93d 05a3 183d 7067 16be
00000110: d4fb 163e a706 b8bc e18a a6bd 6399 83bd
00000120: f02e 2a3e 59ff fb3d d6ae 32bd 518b 463d
00000130: aa1c c4bd 5894 8dbc 73bd de3d 914c 6abc
00000140: 0f40 35be b22e e33c 1c08 27bd 43bc aebd
00000150: c867 753c 275c 2a3e 4cf8 debd 9825 3dbd
00000160: 687f b83d 45b3 c13d 6676 a3bd 011b 91bc
00000170: 8a16 843d ef42 85bd c55b e33d 1155 36bb
00000180: 0174 0e3d ea2a b5be 2f08 f8bc ebfc 40be
00000190: 5e7f 80bc 765f b43c 172b 2ebc 351b babd
000001a0: b65c 913d f37d 36bc 266e 303c 20b6 6d3d
000001b0: 806f 313b 4488 98bd 5089 843d bafd 1e3e
000001c0: 91e7 6ebd cdfc c73d 69ab 093e 4a10 4f3d
000001d0: 8ba3 33bd b048 963c 0c3f 97bc 4c91 973d
000001e0: cafb 683d ddb7 55bb eaaf 173d e51e 313d
000001f0: 677e dabc e467 4f3d 7a42 d8bd e5bb 34be
00000200: 4a42 823c d774 d6bd c803 643e a544 463c
00000210: 6c81 07bc 8b70 2abd dce7 c93d 4b8b eb3b
00000220: b9f3 99bb 697b b9bd c3db 383d 92c3 aabd
00000230: 7a5d 73bd 10d5 823b 4f72 5ebd 3a58 903d
00000240: 0897 58bd 664a 4fbd 714e 86be be1b 603d
00000250: 1488 8abc 278c e3bc cfc9 4b3d e4be bd3d
00000260: dc50 b13d 1542 8dbc dbf5 0ebe 8f94 b63d
00000270: 74dd 72bb bd5c 853d 0bec eebd ea4d 713d
00000280: ed72 1fbe deec 38be 0740 253e 3221 603d
00000290: 7cb8 c5bd 0bb0 2a3e 595b a3be 3c2c 1cbd
000002a0: cd23 7abc 6308 da3d f2fe 93bd 1ac7 d5bd
000002b0: fd79 b6bc eb05 5b3d aea4 013e a51a 363e
000002c0: 7468 01bc a44e a53c 4b5d 14bd 3c01 963d
000002d0: 3cee 3abd 82b8 afbd a50f 7ebd d814 d03d
000002e0: 6192 13bd 8392 0a3d 5b28 53bd a3b1 de3d
000002f0: ded7 983d 8308 55be 4ffc 963c 9161 963d
00000300: a3a7 56be 57e3 84be d79f 1f3d 03e7 e5bc
00000310: 8c37 8bbb 047b 3ebd 2849 d23d 7014 d7bc
00000320: 3cd5 8d3d 3074 f93c 148d 8abd 4396 d7bd
00000330: dbba 713d 9ee4 45be eae0 5abd fe10 58bd
00000340: 8d22 08be fedb 073e 5301 b53d bfee 0e3e
00000350: a710 3dbb 9523 473d 9f7f d13d 0cf0 c63d
00000360: 6563 cebd e5a7 8a3d 812b 953d a1cd f1be
00000370: 9678 7f3a 9224 b7bd d814 a03c 99a8 69bd
00000380: 190f 453c ebfa 10be c7d8 b8bd b8ff 8b3d
00000390: c739 cb3d a02b 083d 8930 e6bc 77fb 333d
000003a0: bc38 01be 3445 d7bd d700 bd3d 9efa eb3d
000003b0: a0a5 623d a0b4 773d d244 b93d d3e0 6f3c
000003c0: 481d e73d f1c6 c4bd fae6 5f3d 9ff4 c3bc
000003d0: 3214 5e3e 140c f13c e6de 473e f1a9 e5bd
000003e0: 671d 023d aded 94bd 07d1 8b3d ab43 8b3d
000003f0: d9f8 d4bd d07f 053d 3f9b 3f3d df84 8bbd

fc2.bias f4 [128]
-0.008461523 -0.010391268 0.13882451 -0.06658791 -0.15536904 0.13428567 0.0021220315 -0.12026504
0.0055649756 0.060532928 0.08190746 0.062172156 0.105489664 -0.059835806 0.0149473855 -0.027212765
0.008132905 -0.016169852 0.12644924 0.094555214 0.01395235 0.01616501 -0.048949998 0.041029543
-0.025890602 -0.19569579 -0.030765112 0.14576437 -0.045338467 -0.1346388 0.04040784 0.027083881
-0.02047473 -0.10371237 0.09452748 0.12782514 -0.04092739 -0.045758296 0.035227533 0.17590177
0.0318531 0.19676776 -0.18633893 -0.13821054 -0.05535918 -0.0878531 -0.0055893944 -0.015593733
0.045712844 -0.030075444 0.1032969 -0.053289793 -0.035170738 0.2141123 -0.0436906 0.07325518
-0.2772895 -0.015548849 -0.14424063 -0.14526051 0.09906916 -0.16843791 -0.019262718 -0.19240728
0.15407762 0.18268268 0.037581533 -0.16356142 0.017066024 0.025222205 0.032501057 -0.059473317
-0.0863822 -0.28052783 0.12271971 -0.1963251 -0.033323523 -0.028865308 -0.02272541 -0.105592296
-0.004600392 0.07350365 -0.057362635 0.036231592 0.08885853 0.08006571 -0.053585704 0.012894392
0.03190492 -0.06350427 -0.10058081 -0.008442314 0.07962447 0.12499411 0.11888288 0.13859321
-0.04141802 -0.12659086 -0.037121084 -0.026882932 -0.0009382607 0.069256365 -0.06165223 0.094263025
0.11052362 -0.029483706 0.04464252 0.039011687 0.09877342 -0.012168895 -0.037647273 -0.068829104
-0.10440575 -0.01893286 -0.08546193 0.09776555 0.048177402 -0.029076269 0.11833262 0.14146546
0.0044618794 0.0887353 -0.002686099 0.11891996 0.01721856 0.047806934 0.018659744 0.019769486
00000000: 33a2 0abc 2340 2abc 0328 0e3e 3e5f 88bd
00000010: 1019 1fbe 2f82 093e c811 0b3b 844d f6bd
00000020: 665a b63b 60f1 773d 19bf a73d 3ba8 7e3d
00000030: f70a d83d 6416 75bd e1e5 743c 4eed debc
00000040: e03f 053c a376 84bc e97b 013e 2aa6 c13d
00000050: 6698 643c 7c6c 843c cb7f 48bd 980e 283d
00000060: 8718 d4bc 7a64 48be 1e07 fcbc 4143 153e
00000070: d4b4 39bd c1de 09be b182 253d 04df dd3c
00000080: 9fba a7bc 2767 d4bd a097 c13d 98e4 023e
00000090: 7ba3 27bd 0d6d 3bbd bf4a 103d 981f 343e
000000a0: 6578 023d 7d7d 493e a2cf 3ebe 1087 0dbe
000000b0: 4fc0 62bd 53ec b3bd 3d27 b7bb db7c 7fbc
000000c0: 643d 3b3d c760 f6bc 538d d33d 6646 5abd
000000d0: 310f 10bd 4140 5b3e eaf4 32bd d006 963d
000000e0: e4f8 8dbe 99c0 7ebc d1b3 13be 2cbf 14be
000000f0: c6e4 ca3d fd7a 2cbe d9cc 9dbc 6a06 45be
00000100: 86c6 1d3e 2b11 3b3e 18ef 193d a57c 27be
00000110: 0cce 8b3c cc9e ce3c d41f 053d 4b9a 73bd
00000120: 27e9 b0bd 58a1 8fbe 7954 fb3d 7209 49be
00000130: 3f7e 08bd f076 ecbc a42a babc c640 d8bd
00000140: e3be 96bb 1589 963d 15f5 6abd 9467 143d
00000150: 76fb b53d 7ef9 a33d af7c 5bbd 0043 533c
00000160: bcae 023d 870e 82bd 50fd cdbd a251 0abc
00000170: 2712 a33d e9fc ff3d de78 f33d 61eb 0d3e
00000180: f1a5 29bd 09a1 01be 470c 18bd 9839 dcbc
00000190: 9cf5 75ba 48d6 8d3d 0c87 7cbd f90c c13d
000001a0: 355a e23d d087 f1bc 13db 363d b8ca 1f3d
000001b0: b849 ca3d 0c60 47bc 0734 1abd 46f6 8cbd
000001c0: afd2 d5bd 1619 9bbc aa06 afbd 4e39 c83d
000001d0: ab55 453d 5b31 eebc 5f58 f23d 52dc 103e
000001e0: f534 923b daba b53d 4309 30bb 4f8c f33d
000001f0: f00d 8d3c 34d1 433d 52dc 983c 9ef3 a13c

fc3.weight f4 [2, 128]
0.067998655 0.12365208 0.61423343 0.13962303 0.18654217 -0.49414772 -0.18103528 0.09128378
0.17391877 0.22903979 0.10428363 -0.40168038 -0.3707749 -0.12871587 -0.3901191 0.23736589
-0.058541473 0.17989272 0.15640838 -0.22926216 -0.015695812 -0.09145234 0.1899952 0.10587044
0.27568623 0.13349172 -0.042278692 0.039945584 -0.10918588 0.13370761 -0.51617384 0.02674841
0.11473654 -0.34254828 -0.09324895 0.14235094 -0.057562247 0.21181026 0.2807552 -0.121012576
-0.10078165 0.1282538 0.16057694 0.2995528 0.14279391 -0.069415264 -0.41412345 0.09626121
-0.1961181 -0.231815 -0.3744938 0.1375356 -0.090928555 0.22338268 -0.46732458 -0.15073456
0.2196599 0.022065872 -0.23748283 -0.14550231 -0.11017045 0.099398375 0.13633566 -0.176556
0.2991035 -0.18588898 -0.18076548 0.17572522 0.15713648 0.08804511 -0.057597835 0.014625553
0.15287721 0.2343226 -0.0941653 0.13887917 -0.15478313 0.22462247 -0.13537279 0.054652262
0.033811517 -0.10504012 -0.2073392 0.17585969 -0.4105284 -0.04526392 0.15224554 0.09086104
-0.09463324 0.18138589 -0.031586904 0.07386161 -0.3673043 0.040100973 -0.19975825 0.17675693
-0.0408444 -0.24020769 -0.04305643 -0.013200575 0.11250394 -0.10311395 -0.10191438 0.1400914
-0.24520575 -0.12105673 0.31345567 -0.40841666 0.2814604 0.08919263 -0.053802345 -0.0128400475
0.24666518 0.07767708 -0.14190161 -0.36850375 -0.26914316 -0.09203412 -0.03703016 0.1646371
0.11605339 -0.21040893 -0.0939846 -0.23991145 -0.14929387 -0.033157647 -0.17754832 -0.026570829
0.1172333 0.26525503 -0.085562855 0.12445915 0.094090134 0.25697994 -0.38188574 -0.01814689
-0.062753774 0.04775674 -0.6523396 0.35055637 -0.048764516 0.24825765 0.15086661 -0.014313083
0.4332589 -0.57174194 -0.018643115 0.09885785 -0.17192467 0.251624 0.047525216 -0.31305698
0.082469665 -0.08819923 -0.08173446 0.23560683 0.30734915 -0.084350325 0.015131372 0.10150159
0.39537793 -0.17901632 0.082618944 0.24398424 -0.25491098 -0.15459521 0.32953444 0.06605916
-0.09365518 0.059834618 -0.07102545 -0.027612293 0.066612825 0.16678505 -0.02536991 0.21584348
0.14600746 -0.15525638 -0.31837663 0.02203843 0.027938418 -0.2780823 0.031188367 0.2031498
0.16404839 -0.6048387 0.18438454 0.4446135 0.30909273 -0.11943946 0.39912334 -0.5555576
0.073389746 0.337145 0.11770776 -0.1165057 -0.059642047 0.18755876 -0.32189706 -0.2896042
-0.6207805 -0.09593654 0.26227137 -0.20385115 0.047816902 0.048916057 -0.25375026 -0.11310634
-0.15239526 0.22112493 0.06589943 0.03638483 -0.25579068 -0.5549993 0.3640144 -0.34492683
-0.0997498 0.035994817 -0.14442098 -0.34909856 -0.17481129 0.2042617 -0.046227705 0.063375175
-0.11915521 -0.21091792 -0.15366696 -0.41156986 0.05066914 -0.016509786 -0.021134833 -0.3931692
-0.010272218 0.22341034 0.057448875 -0.036263447 0.12447635 0.05607452 0.06598669 -0.17606485
0.43332654 -0.18531075 -0.48851353 -0.017339114 0.0074540027 -0.52801746 0.12588054 -0.09231787
0.11160108 -0.68957907 0.06831903 0.041115712 0.19799627 -0.11365699 0.30783474 0.044258345
00000000: e142 8b3d 4d3d fd3d 673e 1d3f 57f9 0e3e
00000010: e904 3f3e ee00 fdbe 5061 39be fef2 ba3d
00000020: c317 323e 6889 6a3e a892 d53d 0da9 cdbe
00000030: 35d6 bdbe 18ce 03be b1bd c7be 0b10 733e
00000040: 2fc9 6fbd cc35 383e 8529 203e b3c3 6abe
00000050: 8194 80bc 5d4b bbbd 1a8e 423e 9ad2 d83d
00000060: bf26 8d3e 0eb2 083e 6c2c 2dbd fb9d 233d
00000070: d99c dfbd a6ea 083e f823 04bf 7b1f db3c
00000080: fefa ea3d 7d62 afbe 4ef9 bebd 72c4 113e
00000090: 64c6 6bbd cae4 583e 25bf 8f3e 71d5 f7bd
000000a0: 9c66 cebd f754 033e 486e 243e fc5e 993e
000000b0: 9138 123e 9729 8ebd fd07 d4be 9924 c53d
000000c0: 2fd3 48be e960 6dbe a7bd bfbe 22d6 0c3e
000000d0: c038 babd 6ebe 643e 2b45 efbe 295a 1abe
000000e0: 86ee 603e 7dc3 b43c b32e 73be 8ffe 14be
000000f0: 0ba1 e1bd 6091 cb3d 939b 0b3e 19cb 34be
00000100: 1824 993e ae59 3ebe 961a 39be 50f1 333e
00000110: 63e8 203e ff50 b43d b5eb 6bbd 04a0 6f3c
00000120: d88b 1c3e 43f2 6f3e bdd9 c0bd 5736 0e3e
00000130: 787f 1ebe 6f03 663e 2a9f 0abe 0ddb 5f3d
00000140: f27d 0a3d 461f d7bd ba50 54be 9014 343e
00000150: c730 d2be a966 39bd 41e6 1b3e 5a15 ba3d
00000160: 12cf c1bd 39bd 393e 4561 01bd c144 973d
00000170: 4f0f bcbe eb40 243d 6d8d 4cbe c5ff 343e
00000180: 754c 27bd 01f9 75be f05b 30bd 3947 58bc
00000190: 7768 e63d 682d d3bd 7db8 d0bd 1f74 0f3e
000001a0: 3717 7bbe 97ec f7bd 437d a03e fd1b d1be
000001b0: 941b 903e a0aa b63d d95f 5cbd 105f 52bc
000001c0: cc95 7c3e 2915 9f3d a84e 11be 86ac bcbe
000001d0: 22cd 89be 627c bcbd f0ac 17bd a196 283e
000001e0: 66ad ed3d 7075 57be ff7a c0bd 59ab 75be
000001f0: 7ee0 18be 50d0 07bd 3acf 35be 11ab d9bc
00000200: 0318 f03d 82cf 873e 943b afbd 70e4 fe3d
00000210: 54b2 c03d e092 833e 8786 c3be c9a8 94bc
00000220: 0d85 80bd 929c 433d baff 26bf 207c b33e
00000230: 4dbd 47bd 4137 7e3e c77c 1a3e 6c81 6abc
00000240: 1cd4 dd3e ae5d 12bf 72b9 98bc fc75 ca3d
00000250: 050d 30be dcd4 803e cda9 423d 0149 a0be
00000260: dbe5 a83d cca1 b4bd 6664 a7bd eb42 713e
00000270: de5c 9d3e ddbf acbd 93e9 773c 11e0 cf3d
00000280: fa6e ca3e 0e50 37be 1f34 a93d 01d7 793e
00000290: b183 82be 354e 1ebe bdb8 a83e 064a 873d
000002a0: 49ce bfbd 2515 753d cb75 91bd 2d33 e2bc
000002b0: 4e6c 883d b3c9 2a3e 8fd4 cfbc 1306 5d3e
000002c0: fb82 153e 87fb 1ebe 4302 a3be f089 b43c
000002d0: 1cdf e43c ce60 8ebe bf7e ff3c 8006 503e
000002e0: 4dfc 273e b6d6 1abf 4dcf 3c3e 61a4 e33e
000002f0: 6741 9e3e ad9c f4bd e559 cc3e 0639 0ebf
00000300: 5d4d 963d 459e ac3e c410 f13d 8a9a eebd
00000310: 384b 74bd 670f 403e b1cf a4be 0047 94be
00000320: 79eb 1ebf 607a c4bd 6f48 863e 5bbe 50be
00000330: a8db 433d 345c 483d 8eeb 81be 4ca4 e7bd
00000340: 810d 1cbe 936e 623e 48f6 863d 4208 153d
00000350: fff6 82be 6f14 0ebf 1860 ba3e 409a b0be
00000360: a049 ccbd 4d6f 133d 18e3 13be 0cbd b2be
00000370: bb01 33be fb29 513e 4359 3dbd d8ca 813d
00000380: a607 f4bd defa 57be df5a 1dbe 49b9 d2be
00000390: 728a 4f3d 883f 87bc f522 adbc 794d c9be
000003a0: ce4c 28bc aec5 643e 834f 6b3d fb88 14bd
000003b0: 75ed fe3d 65ae 653d 0824 873d 584a 34be
000003c0: fadc dd3e 1ac2 3dbe 721e fabe c20a 8ebc
000003d0: b540 f43b 272c 07bf d4e6 003e 2711 bdbd
000003e0: 1b8f e43d 4188 30bf d9ea 8b3d f368 283d
000003f0: 89bf 4a3e ffc4 e8bd 849c 9d3e 3d48 353d

fc3.bias f4 [2]
0.07374587 -0.007547398
00000000: 1308 973d 2a50 f7bb
