checkpoint_critic_1_1.pth (torch_old, 187367 bytes, 5 tensors)

fc1.weight f4 [256, 52]
000000 0a bf 29 3f 96 7d 28 3f 73 60 f2 bd de 30 76 3e
       0.6630713 0.6581663 -0.118348025 0.24042079
000010 b4 6b 32 3e e5 61 9c bf a9 75 0c be 55 ff a6 3e
       0.17423898 -1.2217375 -0.13716759 0.32616678
000020 15 2d 23 3f d3 9a 1a 3f 52 5f 11 be d3 b7 f6 3d
       0.63740665 0.60392493 -0.14196518 0.120467804
000030 b5 0d a6 3e 5c 99 04 c0 22 12 8c bd ae f8 1c 3e
       0.32432333 -2.0718603 -0.06839396 0.15329239
000040 58 1c 4c 3f d3 45 f6 3e 65 a5 91 3c c0 21 91 be
       0.7973075 0.48100147 0.017779062 -0.28346062
000050 d6 ed 62 be 25 7d 09 c0 6b a0 59 bc 53 af 52 be
       -0.2216104 -2.1482632 -0.0132828755 -0.20574693
000060 cd 18 5c 3f 8d c1 33 3e 21 6f f9 bb ac 24 f3 be
       0.85975343 0.17554303 -0.0076121246 -0.47488916
000070 83 a0 c0 bd 03 9e 98 bf b5 e1 13 bd 3f 88 0a bf
       -0.09405615 -1.1923221 -0.036103923 -0.54114145
000080 d9 be c8 3e 58 18 a5 3d f8 db 1b bd 55 9a 16 3d
       0.39208105 0.08061284 -0.038051575 0.036768276
000090 75 b2 51 be 0e 5f 05 c0 53 68 b9 bd 2b ce 9a 3d
       -0.20478232 -2.0839267 -0.090531014 0.07558855
0000a0 6a 53 d9 3c 57 db 74 3d 63 07 2f 3e f9 5a e5 3f
       0.026529033 0.05977949 0.17092662 1.7918388
0000b0 8c 5b 67 3e 25 13 07 c0 57 0c 3b 3e 30 b8 d6 3f
       0.22593516 -2.1105435 0.18266426 1.677496
0000c0 b1 c9 3f c0 59 85 78 bf b8 a2 50 3f d1 ab 06 c0
       -2.9966853 -0.9707847 0.8149829 -2.1042368
0000d0 c7 79 92 3e 3c f2 61 bf 49 b8 c0 3c 60 0e c5 bd
       0.28608534 -0.88260245 0.023525374 -0.096218824
0000e0 f6 62 ff 3c b7 0f 1e 40 7d 65 90 bc 8b 84 0e be
       0.031175118 2.4697092 -0.017626518 -0.13917749
0000f0 9a 36 67 3c 6e 2a 4d bf 35 91 f2 bc 39 d5 20 be
       0.014112139 -0.8014287 -0.029610256 -0.15706338
000100 d6 e7 a9 be 74 b3 11 bf 14 96 85 3d ec c5 55 be
       -0.3318469 -0.5691445 0.06522766 -0.20876282
000110 e7 3e 06 be 1c c5 bf be 5d a1 4e bd ee 45 97 be
       -0.13109933 -0.3745507 -0.050446857 -0.2954554
000120 47 1a 65 3f 3a 44 82 bf 53 37 19 3d 66 6b 4a be
       0.8949322 -1.0177071 0.037406277 -0.19767532
000130 02 7b b0 3d f3 65 a3 3d 75 f7 71 bd ed ed c5 3d
       0.08617212 0.0797843 -0.059073884 0.09664521
000140 30 30 77 3d 2a c4 21 40 80 ae 82 3d 04 df 0b 3e
       0.06034869 2.527598 0.063809395 0.13659292
000150 85 51 df bd 62 db ab 3e 7a 19 41 3a 56 9e 90 bd
       -0.109042205 0.33565813 0.0007366162 -0.0706145
000160 b2 f2 8b 3e 18 c2 1b bf 42 94 cf bb d1 2a ab bb
       0.273336 -0.6084304 -0.0063348124 -0.00522361
000170 7d 36 a0 bd 8e 06 a6 3e 38 14 61 bc 01 80 26 bf
       -0.07822893 0.32426876 -0.013737731 -0.6503907
000180 36 9a 64 bf 82 54 90 bf 7b 1c d5 3c dc 0a 23 bf
       -0.8929781 -1.127579 0.026014557 -0.63688445
000190 9e 3a e9 bf 26 09 4b bf 79 1e 38 3f 99 f0 b6 bf
       -1.8221014 -0.79310834 0.719215 -1.4292175
0001a0 2b e0 e2 bd dd a5 d4 bc cc 34 12 3d d0 fe 1b bd
       -0.11077913 -0.025957996 0.035694882 -0.038084805
0001b0 2c 1d ac 3f db 89 0e 40 e5 59 31 bd da 62 f6 bc
       1.3446403 2.227164 -0.04329862 -0.030076433
0001c0 9e 92 d7 3d de 5a 70 3d 85 bc 93 bc 7a 4a 3a bd
       0.10526012 0.058680408 -0.018034229 -0.045481183
0001d0 38 4e 85 be 1a b6 63 3f dd d1 79 bb ff 7c b3 bc
       -0.2603624 0.8894974 -0.0038119473 -0.021910189
0001e0 a3 25 e0 3d 70 18 cb 3d 78 47 00 bd 25 10 90 bd
       0.10944679 0.099167705 -0.031318158 -0.07034329
0001f0 55 27 d6 bf 5c 03 3a c0 fd 7f b4 3c a1 31 1e bb
       -1.6730753 -2.906455 0.022033686 -0.0024138468
000200 54 19 d9 bc 23 26 ba be 26 fa 16 bc 4c 02 ff 3b
       -0.026501335 -0.3635722 -0.0092149135 0.007782256
000210 c5 b7 a3 bf a3 12 15 40 fd 5d 4c b9 38 b9 2b 3d
       -1.2790457 2.3292625 -0.0001948997 0.041924685
000220 7a 43 d4 3d f0 5d 0a be a7 28 18 bd 8e f3 0f 3d
       0.10364433 -0.13512397 -0.037148144 0.03514438
000230 cd 4d 5b 3e 6b 7d 67 3f f8 11 03 3d 93 e2 35 bd
       0.21416397 0.9042575 0.03199956 -0.04440553
000240 dd 41 c6 3d 99 dc ec bd 89 7f 0b 3b 0e 79 9e b7
       0.09680531 -0.11565513 0.0021285734 -1.8891438e-05
000250 a1 93 d4 3f 38 50 39 c0 10 46 00 3c dd 06 0a bd
       1.6607553 -2.8955212 0.007829204 -0.03369795
000260 70 02 93 bb 75 ea 46 bd 94 91 88 bf 82 43 8d 3f
       -0.0044863746 -0.04856344 -1.0669427 1.1036227
000270 4b df a9 be 75 15 91 3e e2 65 7c bb ca 89 15 3e
       -0.33178172 0.28336683 -0.0038512875 0.14603344
000280 b9 ca 32 bf 41 d9 80 bf d2 58 33 bd 90 ae 4c 3e
       -0.6984058 -1.0066301 -0.043785878 0.19988465
000290 87 f7 46 be 5d eb 26 3f 9e c9 ab bb 03 93 ab 3e
       -0.19430362 0.65202886 -0.0052425405 0.335106
0002a0 5f cc 84 bf 7c 48 3a c0 2a ec be bc fa 81 b9 3e
       -1.0374869 -2.910674 -0.023305971 0.36231977
0002b0 e2 f4 f9 3c 14 33 b2 3f 65 47 ac 3a 74 c1 0c bf
       0.030512277 1.3921838 0.0013143836 -0.54982686
0002c0 8c 3f e3 3e 7f 71 7e be 64 de 58 3d fb 4c 00 bf
       0.4438442 -0.24847983 0.052946463 -0.5011746
0002d0 a0 28 06 bf ff f1 ac 3f 00 29 24 3c 9a 8f 6a be
       -0.5240574 1.3511351 0.010019541 -0.22906342
0002e0 12 2b 33 3f cb 15 79 bf 59 39 90 bd f1 89 3b be
       0.69987595 -0.9729888 -0.07042188 -0.18314339
0002f0 59 63 ca 3d ac a4 6f 3f 78 da a2 bc 80 22 2d be
       0.0988223 0.93610644 -0.019879565 -0.16907692
000300 83 84 8d 3f 51 08 3e c0 55 ea 69 bc 61 4e fd bd
       1.1056064 -2.9692576 -0.0142770605 -0.12368465
000310 03 a4 60 3f 2d 01 cd 3f ff f4 fb bc d3 fc 0e 3e
       0.8775026 1.6015984 -0.030756472 0.13963632
000320 ce 7d d6 be 92 03 53 be 09 64 45 3c a7 32 bc 3d
       -0.41892856 -0.2060683 0.012047776 0.09189349
000330 57 14 86 40 c2 f1 26 be 31 76 31 40 08 62 0a 3f
       4.189983 -0.16303161 2.7728388 0.54055834
000340 3d a8 04 3e 9a 32 23 3d 19 e7 8f 3b 63 bf e3 ba
       0.12954803 0.03984318 0.0043915627 -0.0017375763
000350 05 25 1c 3d f1 63 a4 bd ce 73 08 bd 54 8e 49 bd
       0.038121242 -0.08026875 -0.033313565 -0.049208
000360 6c 4a d4 3d 41 eb 29 3d 57 c3 97 bd cc ed 44 3d
       0.10365757 0.04148412 -0.07410305 0.048078343
000370 fa 8a 0b bd 64 87 a4 bd 88 1c 76 3c 0c ed 34 bd
       -0.034068085 -0.08033636 0.015021451 -0.044171378
000380 3a a4 6a 3e c9 d6 08 3e 17 8a 83 3c b7 7a 65 3d
       0.2291421 0.13363184 0.016057057 0.056025233
000390 89 80 08 bd e1 90 d9 bd e3 6d 80 bd 31 fa 49 3d
       -0.033325706 -0.106233366 -0.06270959 0.049310867
0003a0 d9 16 45 3e 52 bf 14 3e 1e 3e 83 bc 58 1f 08 3d
       0.19246997 0.14526108 -0.01602083 0.033233017
0003b0 2f fb 4c 3d f0 31 05 be 12 8b ef bc 4e 62 f0 3c
       0.050044235 -0.13007331 -0.029241119 0.02934375
0003c0 02 13 e9 3d ec 65 ef 3d 22 44 12 3c bd 61 02 3c
       0.113805786 0.11689362 0.008927377 0.007957873
0003d0 f3 7e c3 bc a7 d9 9f bd 00 8d 40 bd b7 d2 84 3c
       -0.023864245 -0.07805186 -0.047009468 0.016213758
0003e0 e8 53 73 3e 47 1d b4 3d 2c 2e 39 bd 35 b2 b3 bc
       0.23762476 0.08794647 -0.04521005 -0.021935562
0003f0 80 4a f3 3b a1 97 e1 bc 83 ee f3 3c 41 7e 66 bb
       0.0074246526 -0.027538123 0.029776817 -0.0035170468

fc1.bias f4 [256]
000000 66 b2 04 c0 31 0d f8 3f 4c 94 d1 3f 3c 8d d5 be
       -2.0733886 1.9379026 1.6373382 -0.41709316
000010 6f 33 80 bd b0 2f 05 c0 fb 49 b3 bf b5 4d a1 3f
       -0.0625981 -2.0810356 -1.4006952 1.2601839
000020 cd b6 a9 bf 7c 3e b2 bf 8a 36 dc bf 8f fd d7 bf
       -1.3258911 -1.3925319 -1.7204144 -1.6874255
000030 ed da 2e c0 e7 d2 17 bf bf 1e 01 bf 9d da 99 bf
       -2.7321122 -0.59306186 -0.5043754 -1.201984
000040 2d dc 82 bf 7c 6a db bd 2b 6f a5 bf 2b 03 ef be
       -1.0223442 -0.1071367 -1.2924551 -0.46682104
000050 7b 71 74 bf 80 9f b3 be 69 ae 97 3f 04 6f 2b c0
       -0.9548566 -0.35082626 1.1850101 -2.6786509
000060 62 9d 9e be 29 ba 91 bf af 84 90 bf df 96 20 c0
       -0.3097945 -1.1384937 -1.1290492 -2.5092084
000070 26 d5 a5 3e 2a db dd bf 21 34 ba bf 22 59 c2 bf
       0.32389182 -1.7332509 -1.4547158 -1.5183451
000080 6d ab e5 bf 10 f1 07 3f b5 ed df bf 32 0e 95 bf
       -1.794294 0.5310221 -1.7494417 -1.1644957
000090 ae 7e 73 bf a8 c3 03 c0 54 93 22 c0 19 03 83 c0
       -0.9511517 -2.058817 -2.5402422 -4.094128
0000a0 53 a1 81 bf c6 33 32 bf d1 61 10 c0 79 e5 ef bf
       -1.0127357 -0.6961025 -2.2559702 -1.8741904
0000b0 08 53 b2 bf 9b 84 d7 be 00 a9 40 bf a5 8d 1b bf
       -1.3931589 -0.42093357 -0.75257874 -0.6076301
0000c0 c1 40 5e bd d8 bb d3 3f 5a e1 34 bf 19 16 05 40
       -0.054260973 1.65417 -0.7065636 2.0794737
0000d0 a0 c9 83 bf 64 f5 f5 bf a8 51 02 bf 12 e2 34 be
       -1.0295906 -1.9215512 -0.5090585 -0.17664364
0000e0 34 fe 81 c0 56 15 0d c0 9e af b8 bf bf 75 45 be
       -4.0622807 -2.2044272 -1.4428594 -0.19283198
0000f0 01 97 b7 bf b4 6c b8 bf 92 ed 81 bf c8 76 8c be
       -1.4342958 -1.4408174 -1.0150626 -0.27434373
000100 20 20 47 c0 7c 83 68 bf e3 87 e1 bf 44 41 cc bf
       -3.1113358 -0.9082563 -1.7619594 -1.5957417
000110 e9 78 94 bf 6b 8f cd bf 30 01 85 bf da 23 8e bf
       -1.1599399 -1.6059393 -1.0390987 -1.1104691
000120 dc e0 2d 3f 62 ab 85 3d e7 2b 15 c0 20 2d 91 bf
       0.67921233 0.06526829 -2.3308046 -1.1341896
000130 44 de 88 3f 18 b8 85 bf 06 a8 02 c0 ca 84 91 3f
       1.069283 -1.0446806 -2.0415053 1.1368649
000140 7b 3a e7 bf ac 1a 90 bf f6 84 89 bf ba 91 5c c0
       -1.8064722 -1.125814 -1.0743701 -3.4463944
000150 b6 23 9a bf fe f3 69 bf 4f 2a 2a c0 7d cb 52 3e
       -1.2042148 -0.9138793 -2.6588323 0.20585437
000160 d1 4a 34 bf 2d d0 8d bf 1e 86 1a bf ab 93 05 c0
       -0.7042666 -1.1079155 -0.60360897 -2.087138
000170 60 79 cf bf 2f 29 92 bf ae 6a b7 bf 08 33 82 bf
       -1.6208916 -1.1418818 -1.4329431 -1.0171824
000180 9e e9 11 c0 7f 5b 73 c0 05 ab ec be 83 5b d2 bf
       -2.2798839 -3.8024595 -0.46224228 -1.6434177
000190 b6 9e 80 bd f4 86 85 3e b1 d2 06 bf 26 1d 13 c0
       -0.06280272 0.26079524 -0.5266524 -2.298654
0001a0 03 01 a5 c0 f9 d7 a5 bf 0e f9 ac bf 92 76 0d c0
       -5.1563735 -1.2956535 -1.3513505 -2.210362
0001b0 4d b1 2e 3f 00 d0 fc be ec 74 12 bf 03 66 9b bf
       0.6823929 -0.4937744 -0.5720966 -1.2140507
0001c0 fe a0 d6 3d 67 26 97 3d 27 45 98 3e ba cf 83 40
       0.104799256 0.073803715 0.2974026 4.1191072
0001d0 ae f9 dd bf f2 64 56 bf 4e 29 9e bf 16 ac d9 bf
       -1.7341821 -0.8374778 -1.2356355 -1.7005641
0001e0 4d e4 4a c0 4c 4a 01 c0 54 ee 33 c0 21 f0 67 bf
       -3.1701844 -2.0201597 -2.8114214 -0.9060078
0001f0 51 cc d5 bf f4 a6 c3 bf 65 bd 1c c0 8d 3a 49 bd
       -1.6702977 -1.5285325 -2.4490597 -0.049128104
000200 b2 67 f9 bf 13 5c 42 bf a4 79 7e 3e 7f 7e e2 bf
       -1.948477 -0.75921744 0.2485109 -1.7694854
000210 e8 fa d9 bf 7a 89 c2 be 40 25 ae bf d7 16 f7 bf
       -1.7029696 -0.3799551 -1.3605118 -1.9303845
000220 2d 94 97 bf 84 b4 16 c0 66 d4 1e c0 47 db 4c bf
       -1.1842095 -2.3547678 -2.4817138 -0.8002209
000230 c2 70 11 bf c5 e9 fd bf 3e cc ca 3e 29 78 a5 bf
       -0.5681268 -1.9836966 0.3960895 -1.2927295
000240 26 79 1e c0 c0 4d d7 bf 87 33 9f 3f c6 59 a8 bf
       -2.4761443 -1.6820602 1.24376 -1.3152397
000250 b9 16 f8 bf 75 13 d4 bf 0c a8 14 be 58 5e 35 3e
       -1.9381934 -1.6568438 -0.1451723 0.1771177
000260 63 70 17 bf ff 1a 2f c0 17 cb 8d bf 5b 5d d2 bf
       -0.59155864 -2.7360227 -1.1077603 -1.643474
000270 ad 30 77 be 17 ec 07 c0 26 8e cd bf c4 28 53 bf
       -0.24139662 -2.1237848 -1.6059005 -0.8248408
000280 39 e3 03 c0 9e 18 9c bf 07 fb a4 bf a5 4c 0a c0
       -2.0607436 -1.2195013 -1.2889107 -2.160928
000290 20 e5 66 40 08 d8 b5 be c0 16 d3 bf 6c d3 02 c0
       3.6077347 -0.3551638 -1.6491318 -2.0441542
0002a0 12 8a 83 bf 9a 7c d9 bf d9 0b c5 bf f1 f7 18 c0
       -1.0276511 -1.699115 -1.5394241 -2.3901331
0002b0 9f fe df bf 8d 1f 5b be 4b a2 55 c0 af 27 bd bf
       -1.7499579 -0.21398754 -3.3380306 -1.4777735
0002c0 dd 34 c3 bf 37 5f fd bf b5 2f 20 c0 b6 9d 0a bf
       -1.5250508 -1.9794682 -2.5029118 -0.541469
0002d0 45 9c be 3e 42 c5 82 bf 8e 22 09 c0 3f 5f 3e 40
       0.372286 -1.0216448 -2.142734 2.9745634
0002e0 f7 50 1f c0 91 bc 97 bf 38 9d 9d bf 27 6d 0a c0
       -2.4893167 -1.1854421 -1.2313604 -2.1629121
0002f0 d2 c4 a8 bf ec 0f 69 bf 0e 78 b7 3d 8d cf b9 bf
       -1.3185065 -0.9103992 0.089584455 -1.4516464
000300 38 6a a5 bf bb 1f 70 bd f9 16 6e bf 0f a2 a6 bf
       -1.292304 -0.05862401 -0.93003803 -1.3018206
000310 e9 47 a6 3e 6f 16 c8 bf cd b9 8e bf aa 8a f0 bd
       0.32476738 -1.5631846 -1.1150452 -0.11745198
000320 c5 08 aa bf 54 5a c1 bf 8a 61 2a 3f d0 3c 04 c0
       -1.3283926 -1.5105691 0.6655508 -2.0662117
000330 34 7d 02 c0 ab 1e db bf 19 5a 25 c0 3f ae 73 c0
       -2.0388918 -1.7118734 -2.5836241 -3.8075101
000340 e9 d6 06 3f 8e ec 84 bf c8 ad e9 be 7a 50 5e bf
       0.52671677 -1.0384691 -0.45640397 -0.8684155
000350 47 0e f7 bf 92 2f 77 bf 46 de 89 be 59 e1 eb bd
       -1.9301232 -0.9655696 -0.26927394 -0.11517591
000360 48 3a 1f c0 9f 71 85 bf 24 80 de bf 9e 42 a3 bf
       -2.4879322 -1.04253 -1.7382855 -1.2754705
000370 1c af ab bf 80 50 06 c0 df fc 27 be 26 0c 86 bf
       -1.3412814 -2.0986633 -0.16405056 -1.0472457
000380 5b 90 86 bf a4 ba 02 bf 0f 59 8d bf 52 a2 ec bf
       -1.0512804 -0.5106604 -1.1042804 -1.8487036
000390 49 97 9c bf 56 73 e6 bf 95 38 4a bf ad b0 ad bf
       -1.2233669 -1.8003948 -0.7899259 -1.3569542
0003a0 ef 81 f9 bf 6c 8d 13 c0 79 82 89 c0 30 8e 20 40
       -1.9492778 -2.3055067 -4.297177 2.5086784
0003b0 26 46 02 c0 05 9f 95 bf a0 16 04 3f 9f 2f c4 bf
       -2.0355315 -1.1689154 0.51597023 -1.5327033
0003c0 46 a5 83 bf a6 0d cc be d5 fd 35 3c b4 77 cb bf
       -1.0284812 -0.39854163 0.011107882 -1.5895905
0003d0 f7 7d 02 c0 b6 ad 00 c0 17 89 f5 bf 99 3f 07 bf
       -2.0389383 -2.0106025 -1.9182462 -0.5283142
0003e0 e6 ef 2c c0 a8 0d 84 bf f2 c0 9d bf d4 f8 15 c0
       -2.7021422 -1.0316668 -1.2324507 -2.3433123
0003f0 a2 d5 3e c0 a9 a3 0e c0 fb c6 cb bf 47 2b f6 3e
       -2.981789 -2.228739 -1.5920099 0.48079893

fc2.weight f4 [128, 256]
000000 21 32 2a bd 1a 72 d9 bc 8f da a8 bd ca d7 65 bd
       -0.041551713 -0.026543666 -0.08244812 -0.056113996
000010 08 ac 48 bd 94 08 4e bd 42 bc 93 bc c5 19 45 3d
       -0.048992187 -0.05030115 -0.018034104 0.04812028
000020 65 89 5c bd 5a a9 89 3c 7c 7a 2e 3d 81 66 66 bd
       -0.053841967 0.016804386 0.04259728 -0.0562501
000030 2e 3c 00 bc 9c ed 26 3c fd 7d 34 bd ff 9c 3a 3d
       -0.007826848 0.010188486 -0.044065464 0.04555988
000040 64 b6 a5 bd 8b 13 70 3d 03 2b 31 bc 2e ac a3 bd
       -0.08091429 0.058612388 -0.010813477 -0.07991825
000050 b1 1e 5e bd 90 d3 b1 bd 1f 02 8e 3c d3 c8 5f 3d
       -0.05422849 -0.086829305 0.017334996 0.05463488
000060 a1 a2 60 bc 43 a2 e2 bd 3c 53 61 3d 84 a5 97 bd
       -0.013710649 -0.11066105 0.05501102 -0.074046165
000070 7d 8e 9b bc e9 06 88 bb 5f 84 83 bd 6a ba ae 3c
       -0.018988842 -0.0041512144 -0.06421732 0.021329124
000080 b8 e0 80 3b e5 f7 c9 bd 29 d7 e8 bd 8f 36 67 bd
       0.0039330386 -0.09861735 -0.113691635 -0.056448516
000090 07 bd c0 3b 74 6e b8 3c c7 59 83 3a 3c 11 d1 3c
       0.005881909 0.022513606 0.0010021263 0.025520913
0000a0 df 90 3e 3c da e0 96 bd ca 13 1e bb bc d7 59 bd
       0.01163122 -0.07367106 -0.0024120682 -0.053184256
0000b0 00 ff 93 bd 9d 4b 9d 3d 9e f5 1f 3d e1 c6 f1 3b
       -0.07226372 0.07680438 0.0390526 0.0073784445
0000c0 35 7c cb bc 31 00 78 bc c5 33 7e bd c4 b5 da bd
       -0.0248395 -0.015136764 -0.06206109 -0.106792
0000d0 57 69 85 bd 0f 95 db bd ff 0e a2 bd 64 06 15 bd
       -0.065142326 -0.1072179 -0.079130165 -0.036383048
0000e0 fb 75 6c 3d c7 34 e3 bb 6a 08 1e bd b0 10 97 3d
       0.057729702 -0.006933782 -0.038582243 0.0737623
0000f0 e1 f6 10 bd dc 97 18 3d 90 a0 a5 bd 01 98 ba bd
       -0.035391692 0.0372542 -0.080872655 -0.09111024
000100 92 1b 14 bc 96 c6 3e bb f2 32 a2 bd 4d 56 9b bd
       -0.009039776 -0.0029110066 -0.07919873 -0.0758482
000110 f4 ff f1 3b 99 9c e7 bc 93 b1 6f bd 40 a2 9e b8
       0.0073852483 -0.028272914 -0.058518957 -7.5642485e-05
000120 16 57 d2 bc 72 b0 00 3d 44 96 09 bd ad 63 0a be
       -0.025676291 0.03141827 -0.03359057 -0.13514586
000130 4c 81 09 bd d0 4a 36 bd 22 13 0e 3c 27 c9 9b 3d
       -0.033570573 -0.04450494 0.008671554 0.07606726
000140 2b c2 ae bd 2b 94 bd bd 12 a8 a3 bd f4 1c 00 be
       -0.08533128 -0.092567764 -0.07991041 -0.12511045
000150 fc b3 af bd 8f 11 60 bd 79 15 7b bd 83 cf a2 3d
       -0.08579251 -0.054704245 -0.061299775 0.07949736
000160 11 91 ab 3c 01 87 f5 bd bd b4 0b 3b 1a b6 a7 3d
       0.020943196 -0.119886406 0.0021317445 0.0818903
000170 02 89 26 bd 0e 3a 83 bd 0f 4f 06 3d 7b 2d a2 bd
       -0.040658005 -0.064075574 0.03279024 -0.07918831
000180 10 f8 be bd 0b 17 70 3b 5d 22 6a bd b1 73 3e bd
       -0.09324658 0.0036634828 -0.057161678 -0.04649705
000190 1d 4a f9 bc 20 b5 aa bd 0f 46 1f bd a4 54 3d bd
       -0.030430848 -0.08335328 -0.038885172 -0.046223298
0001a0 89 bc 12 bd 27 87 2d bd 92 20 a5 3d ae f8 cd bc
       -0.035824332 -0.04236522 0.08062853 -0.025142994
0001b0 1f 9c 84 3d 12 28 e5 bb fa af 1f bb 88 5a f0 3c
       0.0647509 -0.006993302 -0.0024366365 0.029340044
0001c0 57 f9 0d be 73 32 ef bc 97 49 a8 bd 98 d3 15 be
       -0.13864647 -0.02919886 -0.08217161 -0.14631498
0001d0 05 10 43 bd 5e 90 0e 3d 78 06 92 bd 22 bc 84 bd
       -0.0476227 0.034805648 -0.0713014 -0.06481196
0001e0 2b 6a 0a bd 07 4a 4c 3d 3e e8 f2 3b 67 8f 1b bd
       -0.033792656 0.049875285 0.0074129393 -0.037978556
0001f0 b6 e2 8b b9 3c 3c 3e bd b8 57 21 bd cf a6 94 bd
       -0.0002668106 -0.046444163 -0.039390296 -0.07258379
000200 48 9f b5 bd 4a f5 2f bc 8e cb 71 bd 0c ea 40 bd
       -0.08868271 -0.010739634 -0.059032016 -0.047098204
000210 b5 e2 b4 bd f5 3f f2 3c 30 c4 24 bc ce 35 d7 bd
       -0.088323034 0.029571513 -0.01005654 -0.10508309
000220 83 d4 9b bc e1 2b 89 bd 18 eb cf bb bc 21 64 bd
       -0.019022232 -0.06697822 -0.006345164 -0.055696234
000230 b7 c2 03 3d f7 fe 80 bd b7 ce 0f be 91 ad 2a 3c
       0.032168116 -0.06298631 -0.14043699 0.010417358
000240 db f0 fa 3c 02 1a 19 bd 63 dd cf bb 7b 20 0d 3d
       0.030632427 -0.03737832 -0.00634353 0.034454804
000250 2a 1b 21 bd 3f 94 25 bd d7 0c 45 3d 4a 0b 75 bd
       -0.039332546 -0.04042458 0.04810795 -0.05982522
000260 9b 3e 2f bd ad 8a e4 bd c6 fd e4 bc 33 38 5d bc
       -0.042784315 -0.11159263 -0.02795304 -0.0135021685
000270 04 98 e3 bc 31 1d 8a 3d 09 29 93 bc ef b7 24 bd
       -0.027782448 0.06743849 -0.017963903 -0.040214475
000280 bd 2b 01 bd e3 cd f5 3c 52 3f f4 bc 82 4f ae 3c
       -0.031535853 0.030005401 -0.02981535 0.021278147
000290 91 9e e2 3b 92 f2 9d bd 24 87 eb ba b0 0b 90 3d
       0.0069158752 -0.07712282 -0.0017969352 0.07033479
0002a0 3a 9d 5f bc 93 0d d0 bc 32 0e 81 3d 5b e1 fb 3c
       -0.013648326 -0.025397098 0.06301536 0.030747106
0002b0 85 53 ee bd e2 b5 6a bd 38 4e b7 bd a7 90 6c bb
       -0.11637024 -0.057302363 -0.08950466 -0.0036096962
0002c0 a4 c0 f1 bc 1f 3a f9 bd b0 3b 50 bd 1b 2f 60 bd
       -0.029510804 -0.12169289 -0.050838172 -0.054732423
0002d0 f8 6c 40 bd a1 47 ea bd 92 d2 d8 bd 2a 4d ce b9
       -0.04697892 -0.114394434 -0.10587038 -0.00039348874
0002e0 b7 b1 94 3d 60 01 6c 3c 65 c5 ba bd 21 e4 77 bd
       0.07260459 0.014404625 -0.09119681 -0.060520295
0002f0 3c 4c 01 be 5f 81 7c bd cd c5 bd bc ad 30 b5 bd
       -0.12626737 -0.061646815 -0.023165608 -0.08847175
000300 62 13 67 bd 8b 12 9e bd 7b 4b 24 bd b9 da 70 3d
       -0.05641497 -0.077183805 -0.040111046 0.05880234
000310 a9 40 11 bd 86 05 05 3d 44 a5 27 be c8 5a 80 bd
       -0.035462055 0.03247597 -0.16371638 -0.06267315
000320 5c dd fb bd 9d 14 3e 3b 08 e6 1f bd 95 55 e1 bd
       -0.1229808 0.0029003986 -0.039037734 -0.110026516
000330 d8 81 09 3d df 21 30 bd f7 28 77 bd e0 6d 23 be
       0.033571094 -0.043001052 -0.0603418 -0.15959883
000340 ef 06 6a bd b8 81 84 bd 63 64 86 3c 93 09 05 bd
       -0.05713552 -0.064700544 0.01640529 -0.032479834
000350 fd 51 00 bc bd 9e 9c bd 1a fe b6 bd b1 40 25 3d
       -0.0078320475 -0.076474644 -0.08935185 0.040344898
000360 2f 32 cf bd b9 11 89 3c 47 21 25 bd 0f 4a 09 bd
       -0.10116994 0.016732084 -0.04031494 -0.033517893
000370 b5 bc e2 bd 3d 8a d1 bc 47 f3 76 bd 67 17 8f ba
       -0.11071149 -0.025578612 -0.0602906 -0.0010917009
000380 56 c9 a2 bd 23 4c 9d bd be 57 a5 bd 22 88 fd 3c
       -0.07948558 -0.076805376 -0.08073376 0.030948702
000390 f0 64 8e bd 41 92 01 3d f6 39 c9 bd 03 2d 24 3d
       -0.06952846 0.03163362 -0.09825508 0.04008199
0003a0 84 c0 44 3d 3a 8b c0 bd 8e 0d 76 bd 95 3f af bd
       0.04803516 -0.09401555 -0.06007152 -0.08557049
0003b0 fa cc 94 3d ca 97 96 bd 58 61 20 3d a5 17 ac 39
       0.07265659 -0.0735317 0.039155334 0.00032824013
0003c0 f5 36 e0 bc f6 7e b6 bc 01 81 ad 3b c7 3d 7f bd
       -0.027369956 -0.022277337 0.0052949195 -0.062314775
0003d0 e5 50 40 3d 28 8f 16 3d 2b ea 06 bd 9e b1 77 bd
       0.046952147 0.03675762 -0.032938164 -0.060472123
0003e0 3e 6b e7 bd 9f 0a 8f bc 6e 2b 87 bc a4 60 fd bc
       -0.11299752 -0.01746112 -0.016500201 -0.03092987
0003f0 b2 4c 91 bd 07 60 04 bd 07 eb 80 bd f0 d9 b9 3b
       -0.070947066 -0.03231814 -0.06294828 0.005671732

fc2.bias f4 [128]
000000 a3 06 91 bd 31 35 8e bd 5e 93 0b be cf 31 3a be
       -0.07081344 -0.06943739 -0.13630435 -0.18183063
000010 0f 33 0f bd c6 6c 0e bf 32 a7 3b bd 44 0f e9 bd
       -0.034960803 -0.55634725 -0.045813747 -0.11379865
000020 d2 c6 93 bd be 69 28 be 3a cb 04 be e0 4e 13 be
       -0.07215656 -0.16446587 -0.1296815 -0.14385557
000030 52 68 6c bd b0 94 04 be f3 f4 f1 3b 88 63 fa bd
       -0.057716675 -0.12947345 0.0073839366 -0.12226015
000040 77 c7 ec bd 5e 08 98 bd 60 2f 25 be d2 a7 16 be
       -0.115614824 -0.07423471 -0.16131353 -0.14712456
000050 e6 31 9c bd cb ce d8 bd d1 63 99 bd 9e 37 02 be
       -0.07626705 -0.10586318 -0.074897416 -0.12716529
000060 69 e9 74 bd be 84 d2 bd b3 6e c9 bd d5 3e 15 be
       -0.05979291 -0.10279225 -0.09835567 -0.1457475
000070 35 79 e0 bd 14 47 9a bd 52 16 cd bd e3 bc a5 bd
       -0.109606184 -0.07533088 -0.10014023 -0.08092668
000080 54 18 a1 bd bc ee b2 bd c8 d4 57 bc 9d 36 23 bd
       -0.07865968 -0.08736941 -0.01317329 -0.039847005
000090 d6 37 98 3a f3 12 f2 bd e4 5d 80 bd 2f 5b 05 bd
       0.001161332 -0.118200205 -0.06267908 -0.032557663
0000a0 1c bd 8a bd 51 c5 00 be c7 d3 14 bd db cf f9 bd
       -0.06774351 -0.1257527 -0.03633478 -0.121978484
0000b0 48 f2 78 bd ab 45 d2 be 62 ba 3c bd 44 ad dd bd
       -0.060777932 -0.41068777 -0.046076186 -0.108240634
0000c0 e5 e2 16 bd 44 1c 4b bd f7 f5 c6 bd 1d 0f 01 be
       -0.036837477 -0.049587503 -0.09714883 -0.12603422
0000d0 dd 38 34 3d 4b 1e ea bd 11 24 93 bd a0 da 88 bd
       0.04399954 -0.11431559 -0.071846135 -0.066823244
0000e0 b9 35 b2 bd ba a5 2a bd a9 83 ff bd ed d8 04 bd
       -0.08701653 -0.041661955 -0.12476284 -0.03243344
0000f0 15 f7 ff bd 79 54 55 bd e5 34 0c be 54 2c ae bd
       -0.12498299 -0.052082513 -0.13692053 -0.08504549
000100 c0 2e 00 be 38 d0 e8 bc 41 b7 00 be 39 cb 1c bd
       -0.12517834 -0.028419599 -0.12569906 -0.038279746
000110 fe 3c 1e bd 54 27 08 bc 51 2e 4a bd 19 9e 02 bd
       -0.038632385 -0.008310158 -0.049360577 -0.031889055
000120 9f 04 e5 bd 2e 63 cb bd 81 de 75 bd 90 e8 31 be
       -0.11182522 -0.099310264 -0.06002665 -0.17373872
000130 76 98 50 40 5d 92 3c bd 01 74 18 be c3 23 19 be
       3.2593055 -0.04603802 -0.14888002 -0.14955048
000140 33 89 25 be 5e 1d d2 bd 40 14 19 be 21 0a d7 bd
       -0.16165619 -0.102595076 -0.14949131 -0.10499979
000150 4f 73 0e c0 bf 48 91 bd 47 bf 1e be 0a 09 31 bd
       -2.2257879 -0.07093953 -0.15502654 -0.04322151
000160 9c 92 38 bd 2e ca b2 bd 10 c1 1e be 5a 8f 26 be
       -0.045061693 -0.08729969 -0.15503335 -0.16265622
000170 08 11 b4 bd ff c9 10 be 7e 87 72 bd 39 d3 a2 bd
       -0.08792311 -0.14139555 -0.059211247 -0.07950444
000180 8e 51 97 bd 83 75 2d 40 e6 53 01 be a2 25 41 bd
       -0.07388602 2.7102973 -0.12629661 -0.04715503
000190 44 7c d8 bd 58 e4 ae 3f 8d 29 55 bd f6 6b f0 bd
       -0.10570577 1.3663435 -0.05204158 -0.11739342
0001a0 ca de f1 3f e2 de af bd 83 ab 5b bd 09 1a 02 3e
       1.8896115 -0.085874334 -0.053630363 0.12705244
0001b0 a5 6b 14 40 92 0b d6 bd 2f c5 e9 bd 25 60 55 bd
       2.31907 -0.104514256 -0.11414563 -0.052093644
0001c0 55 34 62 bd d8 12 8a bd 9f 74 7a bd 02 c1 ff bd
       -0.05522569 -0.067418754 -0.061146375 -0.12487985
0001d0 0e 90 f4 bc e4 fc ff bd e1 da 04 be b4 80 c5 bc
       -0.029853847 -0.12499407 -0.1297412 -0.024109222
0001e0 90 4d cb 3e 46 bd 27 be e9 5b bf bd 70 f4 4b bd
       0.39707613 -0.16380796 -0.09343702 -0.04979366
0001f0 cc ff e6 bd 10 87 eb bd 66 3e 25 bd 8b f6 e7 bd
       -0.11279258 -0.115003705 -0.04034271 -0.11326321

fc3.weight f4 [1, 128]
000000 78 50 7e bc 0d bb f8 bb 29 d0 0c 3c db 70 2e 3c
       -0.015522115 -0.0075906576 0.008594551 0.010647024
000010 18 86 f7 bc 6e 81 49 bb b7 bc 40 3b b3 9f e2 bc
       -0.030215308 -0.0030747312 0.0029409358 -0.027664041
000020 4b 6c 47 bc 7b da 61 bc 7f f3 22 3c 48 29 c7 3b
       -0.012171815 -0.013785 0.009945749 0.006077919
000030 ed c7 a2 bc e9 8c b3 bc 1f f3 a1 3c d3 39 b6 3c
       -0.019870723 -0.021917777 0.01976925 0.02224437
000040 6d 41 ee bc 37 2c e0 3c 8c be 54 3b fd d6 08 bc
       -0.029083932 0.027364833 0.0032462208 -0.008352038
000050 72 67 a8 bc 77 7b 4b 3b ee 6e 15 3c d1 ac b6 bb
       -0.02055714 0.0031048933 0.009120686 -0.0055748005
000060 55 77 90 3b 79 53 a9 bb 34 40 bb 3c ba 00 c5 bc
       0.0044087567 -0.0051674214 0.022857763 -0.024048198
000070 98 8d aa bc 82 c7 9d bc 67 17 76 bc d3 17 e1 3c
       -0.02081947 -0.019260172 -0.015020228 0.02747718
000080 6c 5f cf 3c 8a be 14 3c 2c 40 ed bc ee ad 8f 3b
       0.025314055 0.009078631 -0.028961264 0.0043847477
000090 8c f3 d1 3c 26 07 e9 3c c3 6d fa bb 52 42 c3 3b
       0.025628828 0.028445791 -0.007642479 0.0059588337
0000a0 c3 f2 3e bb 5b e2 c1 3b a9 e8 14 3c 71 40 9d 3b
       -0.0029136396 0.0059168763 0.009088674 0.004798942
0000b0 b6 d0 f9 bb b8 19 d1 ba 0b b8 a1 bc 0b 51 77 3c
       -0.0076237572 -0.0015953099 -0.019741079 0.015095006
0000c0 28 71 8b 3c 84 9e 4c bc b7 e2 96 3c e4 de 53 3c
       0.01702173 -0.012488965 0.018418653 0.012931559
0000d0 79 ae 6c bb 3d 9d cc 3c 23 81 18 3b 93 f7 5c bc
       -0.0036114736 0.02497732 0.002327033 -0.013486761
0000e0 bb 4c 8c 3c 17 d6 bd bc e5 95 25 3b 4c 87 ec bc
       0.017126432 -0.023173375 0.0025266346 -0.028873108
0000f0 79 d3 ed 3c 89 e8 bd 3a 32 f7 13 bb 21 90 72 bc
       0.029031502 0.0014488857 -0.002257776 -0.014804871
000100 58 92 9c 3c 93 fb d6 ba 2e 91 48 3a c3 8a 0c bc
       0.01911275 -0.0016401879 0.0007651028 -0.008578005
000110 c9 f4 0e bc 6b 1d 55 bc d8 09 43 bc fb ee 37 3c
       -0.0087253535 -0.013007502 -0.011904202 0.011226411
000120 96 36 95 bc 4b d2 40 3c f1 8c b3 3b 81 39 dc bb
       -0.018214505 0.011768888 0.005479448 -0.006720722
000130 c4 68 3d bb 52 b8 84 ba cd 7c b3 3c 36 d4 e0 3c
       -0.0028901557 -0.0010125733 0.021910096 0.02744494
000140 95 d7 8d 3c ec 36 8c bc 5c 96 01 bc 8a df b0 bb
       0.017314712 -0.017116033 -0.007909384 -0.0053977417
000150 86 e5 4b bb da 25 04 3c 8e e7 ae bb 1f 1b c0 bc
       -0.0031112148 0.008065665 -0.005337662 -0.023450432
000160 e1 2f 55 3c a7 a2 92 3c ce c0 4a 3a c4 1c 3a 3c
       0.0130119035 0.017899824 0.00077344186 0.011359397
000170 e4 01 32 bc d4 8c d8 3b 62 1a 7a 3c 50 ac a2 bb
       -0.010864709 0.006608585 0.015265079 -0.004964389
000180 25 f0 a5 3c 64 a0 93 3b 21 73 38 bc 6c 7f f2 bc
       0.020256111 0.004505204 -0.011257918 -0.029601775
000190 a9 53 40 3c 8f de 3c 3c 4f cb 87 3b c0 29 bf 3c
       0.011738696 0.0115276715 0.0041441093 0.023335338
0001a0 07 35 3b bb 1b d5 e1 b9 cd 53 de 3c 58 b6 c0 bc
       -0.0028565542 -0.0004307412 0.027139569 -0.023524448
0001b0 eb 6c 89 3b 2f ed 94 3c b9 e1 6b bb 8d 89 be 3c
       0.0041938922 0.018179504 -0.0035992695 0.023258949
0001c0 88 ad 8d 3c 41 3e d2 bb 97 66 e2 ba 53 b9 fa bb
       0.01729466 -0.0064161127 -0.0017273006 -0.007651487
0001d0 22 20 a7 3c 71 fc aa bb 17 97 aa 3b 55 3a 05 3c
       0.020401064 -0.0052180816 0.0052059996 0.008131583
0001e0 e1 1e 9f bb aa 01 f7 bc 8b e3 32 bc 91 c7 b2 bb
       -0.004855976 -0.03015216 -0.010918508 -0.005455919
0001f0 0e a4 ca bc 04 d1 ee bb ce b9 8c bc 56 43 69 3c
       -0.02473643 -0.0072881 -0.017178442 0.014237246
